model_state_dict_best.pth (torch, 259833 bytes, 94 tensors)

gnn1_pool.convs.0.bias f4 [64]
00000000: df26 eabd 206d 8fbd 7353 b7bb c83d 92bd
00000010: 3e67 70bd 5ea7 11be 1d6b 10bd f42c 38bd
00000020: 5b99 2a3d 03fd 383e 0f52 08be b39c 43bd
00000030: 5d97 5c3d 5fd7 97bc 2dd6 0d3e d6b0 70bd
00000040: db18 0f3e a607 0dbd 092f dbbd 22b0 0a3d
00000050: 1b10 15ba 2b6a 643d 52a6 d93d bbb3 3bbd
00000060: 8f24 293a 7c17 66be 7d93 b73e fcf8 b93d
00000070: 702d c1bd c0ed d6bd aa2c bf3c 62d3 da3c
00000080: 0d6a d73c 1aff 413e d58d f03c c74d 0d3a
00000090: 70fe 2f3d 69d3 073e 54d3 983d a1ee 5e3d
000000a0: 7dfc 4dbd 2383 983d b3aa 5d3d ea69 873c
000000b0: 1cad 30bc 4fb3 c7bd e2d5 8b3c d9a1 28bc
000000c0: 958e 00be 24ae a9bd c4cc 95bc 074b 68be
000000d0: eda0 fb3d 7b82 ae3d c041 a9bc 8b85 01be
000000e0: bfa0 cf3c 6c39 83bc 7a33 d03d ca1a 623d
000000f0: 091d 76bc 59c7 c53b a682 67bc be89 9c3d
-0.11433195 -0.07003236 -0.0055946647 -0.0714069 -0.05869221 -0.14224002 -0.0352584 -0.044964746
0.041650157 0.18065266 -0.13312553 -0.047756862 0.05385529 -0.018535314 0.13851233 -0.058762394
0.13974325 -0.034431122 -0.107023306 0.03385938 -0.0005686299 0.055765312 0.10627426 -0.0458257
0.0006452286 -0.22469896 0.35854712 0.09080693 -0.09432495 -0.10494566 0.023336727 0.026712123
0.026295686 0.1894497 0.029364506 0.0005390313 0.04296726 0.1326424 0.07462183 0.054426793
-0.05028962 0.07446887 0.05411787 0.016529996 -0.01078346 -0.09750997 0.01706976 -0.010292494
-0.1255439 -0.08285168 -0.018286116 -0.2268487 0.122865535 0.08520981 -0.020661235 -0.12648599
0.025345204 -0.016018592 0.101660684 0.05520133 -0.015021571 0.006035727 -0.01413027 0.0764346

gnn1_pool.convs.0.lin.weight f4 [64, 14]
00000000: 594c c4bd 98c1 113e 4525 393e af1a 803e
00000010: 04ad 743e 041f 3a3d aa1c 74be 50ca 87bc
00000020: 6176 01be e7b8 19be 43cd 28bc a26d 3bbd
00000030: 2af5 cdbd 5b64 d73d 97d7 b83d f5a0 6d3c
00000040: 9dbd bb3d 9238 efbe 8b88 27bd 8aa1 213e
00000050: 0dcc db3d 66e4 713d 3cda 77bc 1e58 c03d
00000060: 97db 593d 7eac 76be c5ce d43d f3d9 4e3e
00000070: ed90 133e ba3c 873e 3ae0 823e 5bb6 973e
00000080: 2991 b8bd 1d14 44be 77fc 663e 890e 233d
00000090: d764 533e f496 ca3e ecf6 80be da5a 0bbd
000000a0: 3872 b13c a9dd bebe f7c8 6d3e 013d 123d
000000b0: 1958 4f3e fec8 643e e883 463e e790 c03b
000000c0: 4e9a 24be 1566 393e 4c0a 463e 911f a1bb
000000d0: 9d63 333c 3354 8fbd 00eb 8a3e 4296 71bb
000000e0: fc86 94be 42d9 83be e60e fe3d bb11 3bbc
000000f0: 65eb 0ebd 4e26 b2bc b46e aebd 0479 44be
00000100: 609b 25be b610 9bbe 30e7 04be 2788 7dbe
00000110: 6abc 05be d711 b33b 4bfd b03e 203e e13d
00000120: 251e d53d 81c8 75be 90d5 ecbd c27f 493c
00000130: 9deb aa3d 1a8b 51ba c85b 0dbe 21a1 2f3c
00000140: 84a4 b0bc 5ad1 91be 56c3 2dbd 4669 cbbe
00000150: 3dbe 0f3e 45d5 a63c ec5d eebe caf1 9fbe
00000160: 7d18 f63c 0562 b9be 780b c7bd 0743 f6bc
00000170: 8597 243d 836d 2c3e fc38 b8bd cff6 ad3d
00000180: 2892 88be 08b4 4abe 1cae 10be 44ff 07bf
00000190: c1cf c7be 9887 493d 0ab3 98bd 90f1 88be
000001a0: ab0a e43d 274e b4be 365d 82be 1379 8fbe
000001b0: 8cae 52be bf17 6bbe ca9c fdbc 88cd 80be
000001c0: dddc ccbe afa6 043d 0dec 80bd b06d 073e
000001d0: 9c50 113d e6ee ff3b 5111 8a3e b4c2 16be
000001e0: b07e e3bd 49b8 c6bd 70da fabc e8da e83b
000001f0: 0ddc 1cbe cf4e df3e ef80 75bd 6b31 2e3e
00000200: 7a7f e1be 9aa5 a3be fca3 523e e4d9 69bd
00000210: c9bc 9c3e d7c3 9b3d 1e1f 96be 969d 07be
00000220: e008 24be 2e1e 123e 46dc 95be 8700 14be
00000230: 49a2 d3be 4c7b 5d3c 18c5 c13d 224a 39be
00000240: 3039 0cbe 41f8 cc3e e90d aebc 084b e7bd
00000250: 7b3f 9fbd 2795 83be b1a3 a73c 2793 1bbd
00000260: e57b d6bc 27d5 543e 1c5b 3a3e 56c8 0cbf
00000270: da19 2cbe e9ce 9d3c 715b 26bf 4fcc a2be
00000280: 2775 c5bd 4a06 68bd fa61 803d ffea 6abe
00000290: 73ad 50bd fbcd c83d 3427 9cba 36aa 063d
000002a0: 9b68 753e 9317 dd3d 1df1 18bf 90db 8ebd
000002b0: 5f08 13bf a8a0 2bbe 1fe0 9f3e a3f6 403d
000002c0: 3f17 c9bd 2563 56be 33ae 10be 143e d13d
000002d0: 8642 79be fa65 433e b343 78bd 602f 0d3d
000002e0: c4a0 d0bd ddbe 0cbf 1030 ec3d f0a3 0bbe
000002f0: 8d2c 073e 4a50 80be 0aeb 12be 7072 edbb
00000300: e6a8 bbbe a13b 9cbe d646 85bd ad85 6dbe
00000310: 22f3 5d3e f1a6 8a3e 125d 48be 88e4 7dbe
00000320: 4278 093d 7b3f da3d 55d6 e4bc 49c0 733d
00000330: 238b 1abe de9a 2abc d031 473e 7d28 4d3e
00000340: 28e1 6fbe 5cac 52be 2bc7 ba3d 63c0 08bd
00000350: 9045 99be e0d5 a3be 42c5 773d bea9 6dbe
00000360: b2a5 ddbd 14ff 1ebd 2b65 dabd c6a7 a43b
00000370: b4b4 1d3c d60a 9ebe 32d6 d3bd 9faa afbd
00000380: e40b bdbe 7953 793e 6e0a f2bd 6ae2 d5bd
00000390: 058c 25bd eeb1 ecbc 2cf0 21be 4927 6b3e
000003a0: bfbf ce3e 016b 633e ba91 41bd 131d 2fbe
000003b0: 83a7 9fbd a1d6 b0bd 1e73 93be d2e9 413e
000003c0: 8f1d 2bbe 9eb3 70be e79f ccbe 7391 173e
000003d0: e9d6 b73d 7904 ad3d 278f 80be da39 aebe
000003e0: bf0b 4bbd ff1b 173e 4469 61be 17f3 13be
000003f0: 09d1 593e c8f8 0abe 27ab b9be f144 c6bd
-0.09584875 0.14234006 0.18080623 0.25020358 0.23894125 0.045439735 -0.2383906 -0.016575962
-0.12642814 -0.15011941 -0.010302844 -0.04575885 -0.10056527 0.10517188 0.090254955 0.014503707
0.09167025 -0.46722847 -0.040901702 0.15784279 0.10732279 0.05905571 -0.015127715 0.09391807
0.053187933 -0.24089238 0.10391001 0.20200329 0.14410754 0.26413518 0.25561696 0.29631314
-0.09012062 -0.19148298 0.22557245 0.039808784 0.20643936 0.39568293 -0.25188386 -0.03402219
0.021660909 -0.37278488 0.23221193 0.03570271 0.2024845 0.22342297 0.19386256 0.0058766487
-0.16074488 0.18105347 0.19339865 -0.004917093 0.010949043 -0.069984816 0.27132416 -0.0036863242
-0.29009235 -0.25751692 0.124051854 -0.0114178015 -0.03489246 -0.02174678 -0.08517209 -0.19186789
-0.16172552 -0.30286187 -0.12978816 -0.24758969 -0.13060156 0.005464773 0.34568247 0.109981775
0.1040614 -0.24002267 -0.11564171 0.012298526 0.08345721 -0.0007993445 -0.13804543 0.0107195685
-0.021562822 -0.28480035 -0.042422615 -0.39728755 0.14037414 0.020365367 -0.46556032 -0.31239158
0.030040974 -0.36207595 -0.09718984 -0.030061258 0.040183563 0.1683865 -0.08995244 0.08494341
-0.26674008 -0.19795239 -0.14128917 -0.5312388 -0.3902569 0.049201578 -0.07456024 -0.26746798
0.11134847 -0.35215876 -0.2546174 -0.2802206 -0.20574397 -0.22958277 -0.030958552 -0.25156808
-0.40012255 0.032385524 -0.06295023 0.13225436 0.035477266 0.0078104613 0.26966336 -0.14722711
-0.11108148 -0.09703118 -0.030621737 0.007106174 -0.15318318 0.43614814 -0.059937414 0.17011039
-0.4404257 -0.3196228 0.20570368 -0.057092562 0.30612782 0.07605713 -0.29320616 -0.13243708
-0.1601901 0.14269325 -0.29269618 -0.14453326 -0.4133475 0.013518166 0.09461421 -0.18094686
-0.1369369 0.40033153 -0.021246867 -0.11293608 -0.0777578 -0.25699732 0.020463796 -0.037982132
-0.026182124 0.20784436 0.18198818 -0.5499319 -0.16806737 0.019263702 -0.6498328 -0.317965
-0.09641486 -0.056646623 0.062686875 -0.22941206 -0.050946664 0.09804913 -0.0011913539 0.03287717
0.23965685 0.10795512 -0.5974291 -0.06975472 -0.5743465 -0.16760504 0.31225678 0.04711021
-0.09818887 -0.20936258 -0.14128952 0.102169186 -0.24341783 0.1908187 -0.060611438 0.03446901
-0.101869136 -0.54978734 0.11532605 -0.13636756 0.13200589 -0.25061256 -0.14347473 -0.007246308
-0.36652297 -0.30514243 -0.065076515 -0.23195525 0.21674779 0.2708049 -0.19566754 -0.24794209
0.033561952 0.10656639 -0.027934233 0.05950955 -0.15092139 -0.0104129 0.19452596 0.20034976
-0.23425734 -0.20573562 0.091200195 -0.0333866 -0.29935884 -0.3199911 0.060490854 -0.23209283
-0.108226195 -0.03881748 -0.106638275 0.005024883 0.0096256025 -0.30867642 -0.10343589 -0.08577465
-0.36923134 0.24348249 -0.118183956 -0.10443576 -0.040416736 -0.028893437 -0.15814275 0.22964205
0.40380666 0.22208788 -0.047258116 -0.17100935 -0.07795622 -0.08634687 -0.28798765 0.18936852
-0.16710494 -0.23506019 -0.39965746 0.14801578 0.08976538 0.08448119 -0.25109217 -0.34028512
-0.04957175 0.14756773 -0.22012812 -0.144482 0.21271147 -0.13571465 -0.3626339 -0.09681118

gnn1_pool.convs.1.bias f4 [64]
00000000: 7a29 923a 1617 823b f30e 403c 6d73 09bd
00000010: 2a16 f3bc 11ce eb3a 1000 a43c 0c16 8e3c
00000020: 16d9 0b3c 275d 3ebb 8e9e d9bc 84cc 90bb
00000030: b53a 6a3c 1f81 0f3e 4d32 073a 4637 d03a
00000040: f52a 5e3a a175 ddbc a1ae 3c3c 5749 a7bc
00000050: df4f 25bb 5f2d 80bb c212 89bc c5de 153b
00000060: 1b8a 85bb e351 193d ce5d 14ba 7d49 13bc
00000070: 1c71 983c a303 15bd 6c43 6cbd 6665 083c
00000080: eff7 bfbc 4a45 493d 7ead 2abc 02e9 543b
00000090: 23a1 b4bb fc43 68bb 3dd5 7cbc 0d66 523c
000000a0: 63a2 99bc 05d8 fc3b 7b30 2abd cbb4 a73b
000000b0: db87 9b3d 51dd 8a3c 0092 953b 78d9 d83c
000000c0: eccb e7bc 7fb6 e83c be67 86bd 53a9 0abb
000000d0: e242 8b3d 29fb cabb 85e1 cf3c cbf2 82bc
000000e0: 95b3 d83a 7cf8 983c 2953 c2bd fde2 81bd
000000f0: 9566 9d3c 6b9c f53d 67ad 3b3d 1128 183c
0.0011151277 0.003970037 0.011722314 -0.033557344 -0.029673655 0.001799049 0.020019561 0.017344497
0.008535644 -0.0029047222 -0.026564863 -0.0044189114 0.014296223 0.140141 0.0005157337 0.0015885613
0.0008475029 -0.027033629 0.011516244 -0.020420713 -0.0025224609 -0.0039116587 -0.016732577 0.0022868377
-0.0040753013 0.03743161 -0.000565973 -0.008989689 0.018608622 -0.03638042 -0.057681486 0.0083249565
-0.023433654 0.049138345 -0.01041734 0.0032487516 -0.005512373 -0.0035440912 -0.015431699 0.012841714
-0.01875419 0.007716181 -0.04155014 0.0051179877 0.07594272 0.016951235 0.0045645237 0.026470885
-0.02829548 0.028407333 -0.06562756 -0.0021158054 0.06799866 -0.0061944914 0.02537609 -0.015984913
0.0016533012 0.018673174 -0.09488518 -0.06342123 0.019213954 0.11992725 0.045819666 0.009286896

gnn1_pool.convs.1.lin.weight f4 [64, 64]
00000000: c568 62be 0f9c 1dbf d8ac 0a3b 3dcb 0f3e
00000010: 3dd9 00be cad4 bfbd b043 87bc 4207 8abd
00000020: 3e9d c2be c673 cabe 7269 093d 04a9 09bd
00000030: 1f37 2cbe 2187 94be 602e 79bd 0f50 51bf
00000040: 32d5 8abe d1a8 8abe a96f 5bbe 30a3 d0bd
00000050: d639 ebbc 20eb 533e 8c03 ffbd 232e e13d
00000060: 9f61 a0be 62f3 86be 373d 9cbd 4e29 5b3e
00000070: fc68 89bd 4a47 4cbe 868d 34bd 6d4d 293d
00000080: d971 afbe c647 66bd 58fb b1be e451 fabd
00000090: 3f81 56bc 259e 78bc fd01 073e 4963 383e
000000a0: 4ac3 a0bd e6b2 b93d 30ab 373c 88b5 ac3a
000000b0: df22 d13d 8dbd 0b3e 55cf 49be 52ed 2dbe
000000c0: be1b 023d 6d8c 523e 87e9 d2bd 39bc 8f3d
000000d0: 4835 a43e e0bc 90bd f507 dbbd 8a0f 81bd
000000e0: 1ac0 b13d b9bd 31be e76f d4bd 1f28 ffbd
000000f0: f8a4 0d3e 9cff cebe 9f45 c5bd ac88 0ebe
00000100: a1cd 9bbd f7e6 3b3d ede6 813e cf72 813e
00000110: b4e5 d23e 30d1 4b3e 26ae 963d a186 ae3e
00000120: fa1b 6e3e 1de7 3cbe 7fb1 803e d493 a43c
00000130: 9a1a ac3e b12a 25be e505 673d 4f91 a8bd
00000140: 08ae 933e 314a 973e c456 e03e 09fe e73c
00000150: db69 0c3e a108 83be 3228 0e3e 8fe8 5e3e
00000160: 4e84 533e 9fe9 ad3d 9bbc 43bd 322c f7bd
00000170: 9772 59be 6144 ebbd 3296 973e 2757 fabd
00000180: bff3 d6bd 9bf1 b4bd 178d 16be 6b19 ab3d
00000190: 4bec 81be 8ca0 a2bd 302d 1e3e cb48 c2be
000001a0: 3cfd f53d 9ac0 92bb 767d 14be c6c6 93be
000001b0: 6da3 f93d c9d2 17be 1212 a13d aac7 193e
000001c0: ef11 5bbe c80d 05be 5338 d23d 080e d8bd
000001d0: aa13 853e d616 a1bd 7b80 703e e6a4 663e
000001e0: cc70 2fbe 3e45 8dbd 253c 1e3c 6c59 8c3e
000001f0: 619e 48bd e6f9 123e 1723 8abe a69b 69be
00000200: 68c8 433e 9ee8 1c3e e03f 003e a10a ba3e
00000210: f8d8 92be dbb5 e1bb 83e4 1f3e b697 853d
00000220: 31bf c9bd a03f fdbc 1014 9ebe 5e12 2b3c
00000230: 864c 833d 7782 2fbb c8cf 3f3d c3db dc3d
00000240: 3acf 583e 1425 383e 2734 b6bb fb6c 063e
00000250: b710 cdbd 66d4 b13e 3506 fcbd 3dd1 113e
00000260: ec62 b23c 11cb 813c 007f 15bd 358f 20be
00000270: 5a92 46be e0f8 763e a3e6 c6bd 776d 00be
00000280: b93c 88be fc3a 403c 015b b13c e3d3 bfbb
00000290: 8ba3 f5bd 1dec ffbc df31 223e 6019 4c3e
000002a0: 9958 39bd 1fa1 9fbd e3c0 2fbd 6b27 7c3e
000002b0: 53e7 b83d 6d21 693e 5bb1 a13d 074a a63e
000002c0: 807f a93d 0e7e bdbd 6e8c 5d3e 690b 543e
000002d0: af0d cd3e affe 803d a954 973d 670f 443e
000002e0: f6b3 c53d c024 a23e 23b3 ae3e 510a 60be
000002f0: c076 c23d ad4f 003e 9e65 513e 9cfe 763e
00000300: 537b 603e fadd a43d c030 0c3e 449f 0c3e
00000310: 5daf 52bd 285d 58be 9f6f 32be f767 44bd
00000320: b26a 5bbe 7bbb 31be f8c9 05be a13f 11bf
00000330: 6cad a5bd dcd1 17be 0c80 b93d f298 f1bd
00000340: 96a0 23be 9aa9 f93a f0e4 d5bb 9327 37be
00000350: 4ab2 0f3e 3fc5 c9be 2115 1abd 82c7 1d3e
00000360: 7a02 ac3c 1313 c5bc 7ed9 a93e 9808 6c3e
00000370: 45cb 2cbe 8259 2a3e 2c0a 3d3e 04c8 003e
00000380: 5706 0fbe 122e 9bbd b59e afbd 2f1b a1be
00000390: 12dd cfbb 5c1c 4dbe c9f7 0a3e 4f84 10be
000003a0: 0526 27be 2ce3 d53d 4f6a bb3c 75b4 48be
000003b0: 443f 143e 67c4 a93d 4d0e 12bf e4ba 883d
000003c0: 5792 393e 6e5a 0fbe f56a 33be 7640 0a3e
000003d0: 4fb3 c8be eeca a6bd 10b8 603c db0f 7d3d
000003e0: 8af0 0f3c 8d68 a8be 0ffa 12be 2940 c33d
000003f0: dbf6 6a3e a05d 5dbe daca 853c 349c 073d
-0.22110279 -0.6156625 0.0021160152 0.14042373 -0.1258287 -0.09366758 -0.016511768 -0.067396656
-0.3801059 -0.39541453 0.033547826 -0.03360845 -0.16817902 -0.29009345 -0.060835242 -0.81762785
-0.2711578 -0.27081922 -0.21429314 -0.101873755 -0.028714102 0.20695162 -0.124518484 0.10995128
-0.3132448 -0.2635756 -0.07628863 0.21402475 -0.06709477 -0.1994907 -0.04408028 0.041333605
-0.34266546 -0.056220792 -0.34762073 -0.12222651 -0.013092338 -0.015174423 0.13184352 0.18006624
-0.078497484 0.09067325 0.011210248 0.0013176659 0.10211729 0.13646527 -0.19707997 -0.16985062
0.03176474 0.2056138 -0.10298448 0.070183225 0.320719 -0.07067275 -0.10694877 -0.06301792
0.086792186 -0.1735753 -0.10372906 -0.12458824 0.13832462 -0.4042939 -0.0963242 -0.13919324
-0.0760758 0.045874562 0.25371495 0.25282905 0.41190875 0.19904017 0.07357435 0.3408709
0.2325286 -0.18447538 0.2513542 0.020090021 0.33614045 -0.16129567 0.056402106 -0.082308404
0.28843713 0.2954879 0.43816197 0.028319376 0.13712256 -0.2559252 0.13882521 0.21768402
0.20655939 0.08491825 -0.04778729 -0.120689765 -0.21235119 -0.114876516 0.29606777 -0.12223654
-0.1049571 -0.08835145 -0.14702259 0.083544575 -0.2537559 -0.07940778 0.15446925 -0.37946162
0.12011191 -0.0044785263 -0.14500985 -0.2886259 0.12189374 -0.14826502 0.07864775 0.15017572
-0.2139356 -0.12993538 0.10264649 -0.10549551 0.25991565 -0.07865684 0.23486511 0.22523841
-0.17132872 -0.068979725 0.009657894 0.27411973 -0.048979167 0.14353141 -0.26979896 -0.22813281
0.19119418 0.15323111 0.12524366 0.36336234 -0.2868116 -0.006888134 0.15614514 0.06523077
-0.0985092 -0.030914128 -0.3087468 0.010441391 0.0641108 -0.0026780644 0.046829015 0.10784104
0.211728 0.17982894 -0.0055604163 0.1312751 -0.10012954 0.3473236 -0.123058714 0.14239974
0.021775685 0.0158439 -0.03649807 -0.15679629 -0.19391766 0.24118376 -0.09711959 -0.12541758
-0.26608828 0.011732813 0.02164984 -0.0058541163 -0.11994084 -0.031240517 0.15839337 0.19931555
-0.04525051 -0.07794403 -0.04290856 0.24624412 0.090284966 0.22766657 0.07895156 0.32478353
0.08276272 -0.09252559 0.21635601 0.20707478 0.40049502 0.06298577 0.073891945 0.191465
0.096534654 0.31668663 0.34121045 -0.21878935 0.09495306 0.12530394 0.2044892 0.24120563
0.21922044 0.08050151 0.13690472 0.1373263 -0.05143677 -0.21129286 -0.17425393 -0.04795071
-0.2142742 -0.17356674 -0.13065326 -0.56737715 -0.08089718 -0.14826149 0.09057626 -0.1179675
-0.15979227 0.0019047738 -0.0065275356 -0.1788619 0.14032856 -0.394083 -0.037617806 0.15408137
0.020997275 -0.024056947 0.33173746 0.23050153 -0.16874416 0.16635707 0.18460912 0.125763
-0.13967262 -0.075771466 -0.08575193 -0.31466052 -0.0063434923 -0.2003035 0.13571085 -0.14112972
-0.16323097 0.1044372 0.02287784 -0.19600089 0.14477259 0.08289414 -0.5705307 0.066762716
0.1812223 -0.1399934 -0.1752127 0.13501152 -0.39199302 -0.081441745 0.013715759 0.0617827
0.008785376 -0.32892266 -0.14353202 0.09533722 0.2294573 -0.21617746 0.016332079 0.03310795

gnn1_pool.convs.2.bias f4 [8]
00000000: 17a5 7f3d 54db 103d 8f8b 793d d9be a2bc
00000010: 9289 7e3d cd9a 9c3b 42ef f9bd 69f6 e13c
0.0624133 0.035365418 0.06092411 -0.019866394 0.062142916 0.004779196 -0.12203838 0.027583318

gnn1_pool.convs.2.lin.weight f4 [8, 64]
00000000: 406c 703c 9f3c 6a3e d9c3 05be 711e 4d3e
00000010: c446 78be ae64 cbbd e6dd 863e 1d42 05bf
00000020: 5d7f 1fbd 24ca a53e 69ea a23d ced4 473c
00000030: 3d50 4bbe 3918 103c 35a0 dfbd a329 a33e
00000040: eb29 b2bd 8ba5 9d3e c0f7 0a3d b1e6 9a3e
00000050: 8f26 603d a223 f53d f31e 3c3e fb3b 4ebe
00000060: 728e 83bd cc13 14be 8840 acbd 959c a23e
00000070: 461f 633c f2d1 03ba c4b2 b43e 9875 cd3c
00000080: b5e7 34be 1bac 4dbe e60c b13d 37f5 14be
00000090: 67e3 bf3d 9f5b 03bd 0af5 95be 0ad5 0b3e
000000a0: 73d8 92be dfe1 bfbc c7ec b53e 3259 3bbe
000000b0: 28b1 403e 5e3b 5d3e bcb4 81be f127 dc3d
000000c0: b4da 553e 6458 98bd a3c2 ce3e 81f3 06be
000000d0: bf56 a3be ffc2 40be 8508 113d d791 20bf
000000e0: 0fce babe 38f2 e33e 8a77 c13d 696b b7be
000000f0: 0fbd b1bd 536d ad3e 8126 373e fd3e 283e
00000100: f807 a4be a00c 343e 818f 6c3e aa65 5dbe
00000110: 8213 28be ccda a0be 6f8b abbe 9008 a13e
00000120: 9ebf 25be 7f24 a6bd 1f17 fdbb a4f2 01be
00000130: 7e03 6f3e 90c0 99be 0168 00be 4e78 a3bd
00000140: 76b0 dabd 46b4 a7bd 38c6 babd e68d 013e
00000150: 9829 633d 08fd 42be 3506 a2be f754 7ebe
00000160: efc7 25be 596e 0c3d 83d4 cdbd 7997 9fbd
00000170: d59d 25be 3954 a13d ae1a 033e 2ef3 07bb
00000180: 72a1 0c3e db14 24be c57e 0ebe 7f8b 483e
00000190: 2a00 26be 3e84 2b3e 5caf 6fbc 541d 5dbe
000001a0: 2e86 b7be 92b5 3dbe da59 d9bd 3054 62be
000001b0: dfa3 c03e 975b 4bbe 9357 aebd f9a0 a93c
000001c0: 0ff1 f43d 609f 443d 1ca5 0abf 036b 0f3d
000001d0: 407b 08bc 02ab 16bd 7663 d73e 6ff5 96be
000001e0: 1579 0abd ab40 d0bc cdec 4dbe 057a 0fbf
000001f0: 2f64 983d f77d c0bd 59b4 96be 88d1 3ebe
00000200: 36e8 8abe 3d75 663d d490 fe3d 3c93 3fbe
00000210: 288e 1d3f 9027 dbbd 1662 b9bd 2b53 363d
00000220: d408 7cbd aaa8 a43d 1391 67be 8111 33be
00000230: ccf3 52be 771f 92be 284f 09be 9fba 4a3d
00000240: a6c7 263d b706 9cbd adcb 593e 7cf2 9cbe
00000250: 1642 48be 1196 55be 9d2b ee3e 47ef 5cbe
00000260: 33e2 533e c4e7 f93d c404 853e 9433 24be
00000270: 4f10 ee3d e046 703e e71c d2be b615 b53d
00000280: b4d1 233e 2c83 893d 9012 dbbd 9d82 3b3e
00000290: 1c2d 38be be0a 1d3d 506f 66bd 4a83 203e
000002a0: 744b 8a3e 416c 4b3b 9fa0 d4bd fe9d de3e
000002b0: c5e2 10be 5fa4 333d 0aa3 8cbd 0d76 483d
000002c0: 93f8 ca3c 72f8 323d f1b5 aabe 9d65 863e
000002d0: c77b 9dbd 20bc 0e3e 42fe 6ebe a6da aa3e
000002e0: e400 d53e 6f32 343f 9171 b5be 3078 873d
000002f0: dcde bd3e 815f 1e3e 8cf8 3e3c 9c35 a6bd
00000300: d52a 04be cae0 f73d 419f 203e 8c09 ddbc
00000310: ec3a 4a3e 63f6 813e f1d1 d83e 48eb 423b
00000320: 3f2f 023b b437 923e 5713 3abc cbbd 2abd
00000330: 6d88 d4bd a4cd 8f3d c40a d23f 6f66 4dbe
00000340: 3dcd 18be d111 68bd 2b26 5d3e bf3d 573f
00000350: 02d9 6dbe 38cd d93e 9b08 bbbd 710b abbc
00000360: a96e d03b 24bd 933b f465 1a3e ee1a d53b
00000370: 2913 1c3e 575d 1fbd 039f 60bc 7225 88be
00000380: aaa4 01be b2a9 e1bc 39c5 113e 56c2 9d3d
00000390: a22d 123d 35a8 243e 31b3 82bd a2f3 793e
000003a0: 74f1 d5bd 07df 6e3e 82b4 803d 0a0b 233d
000003b0: 2449 213e 08cd 91bd 8398 f6bc 195b a4bd
000003c0: d2c9 42be 01cd 59bd 6ba8 1dbd c355 613d
000003d0: 3728 e03c a278 933f 38c2 95bd 45d0 633d
000003e0: ff05 b2bb e616 173d c741 8d3c e678 743e
000003f0: 911e 433d 8d70 cf3c 857b 12bd 8782 033e
0.014674246 0.22874688 -0.13062991 0.20031144 -0.24245745 -0.099313125 0.2634117 -0.52054006
-0.038939822 0.32380784 0.079548664 0.012196733 -0.19854827 0.008794838 -0.10919229 0.31867704
-0.086994015 0.30790362 0.03392768 0.3025413 0.054724272 0.11969687 0.18371181 -0.20140068
-0.06423654 -0.14460677 -0.08410746 0.31760088 0.013862437 -0.00050285377 0.35292637 0.025080487
-0.17666514 -0.20085184 0.08645038 -0.14546667 0.093695454 -0.0320698 -0.29288512 0.13655487
-0.28680763 -0.023423133 0.3553221 -0.18295744 0.1881758 0.21604678 -0.25333202 0.10749806
0.2088421 -0.07438734 0.4038287 -0.13178827 -0.3190212 -0.18824385 0.035408515 -0.62722534
-0.36485335 0.44520736 0.094466284 -0.35824135 -0.08678638 0.3387247 0.17885782 0.16430278
-0.3203733 0.17582941 0.23101617 -0.21620813 -0.16413692 -0.3141693 -0.33504817 0.31451845
-0.16186377 -0.0811243 -0.0077237035 -0.12690216 0.23341176 -0.30029726 -0.12539674 -0.07981931
-0.106781885 -0.08188681 -0.091198385 0.12651786 0.05545959 -0.19041836 -0.3164536 -0.24837099
-0.1618955 0.034284923 -0.10050299 -0.07792563 -0.1617349 0.07877392 0.12803146 -0.0020744312
0.13733461 -0.1602358 -0.13915546 0.19584464 -0.16211 0.16749665 -0.014629211 -0.21593219
-0.35844558 -0.18526295 -0.10612841 -0.22102427 0.37625024 -0.19859158 -0.08512797 0.02070664
0.11960041 0.048003554 -0.54158187 0.035014164 -0.008330166 -0.03678418 0.4206807 -0.29484126
-0.03380688 -0.025421461 -0.20109864 -0.5604556 0.074409835 -0.09399026 -0.2943447 -0.18634617
-0.27130288 0.05626415 0.124299675 -0.18708509 0.6154504 -0.10700905 -0.090519115 0.04451291
-0.061531857 0.080399826 -0.22613935 -0.17487146 -0.20600814 -0.2853963 -0.13409102 0.049494382
0.040717743 -0.07618468 0.21269102 -0.3065375 -0.1955646 -0.20858027 0.4651765 -0.21575652
0.20691757 0.12202409 0.25980198 -0.160353 0.11624204 0.23464537 -0.41037676 0.08842032
0.15997964 0.06714472 -0.106969 0.18311544 -0.17985958 0.038340323 -0.0562585 0.15675083
0.2701069 0.0031039866 -0.103821985 0.43479913 -0.14149006 0.04385793 -0.06867035 0.048940707
0.024776733 0.043693967 -0.33341935 0.262494 -0.07689624 0.13938951 -0.23339179 0.3336994
0.41602242 0.70389456 -0.35438207 0.06614721 0.3708409 0.1546612 0.011655938 -0.08115694
-0.12906964 0.12103422 0.1568575 -0.026982091 0.1974904 0.2538329 0.42347673 0.002974229
0.0019864587 0.28558123 -0.01135715 -0.041684907 -0.10377584 0.07021645 1.6409535 -0.20058607
-0.14922042 -0.056657616 0.21596591 0.8407859 -0.23227313 0.42539382 -0.09132501 -0.02087948
0.006360848 0.0045086313 0.15077955 0.0065034544 0.15241684 -0.038907375 -0.013709786 -0.26591069
-0.1266047 -0.027546737 0.1423539 0.07703082 0.03568805 0.16079791 -0.06381834 0.24409345
-0.10446444 0.23327266 0.06284429 0.03980545 0.15750557 -0.07119185 -0.03010202 -0.08025188
-0.19022301 -0.053174023 -0.038490694 0.05501343 0.027362926 1.1521189 -0.07312435 0.055618543
-0.0054328437 0.036887072 0.01724328 0.23874244 0.047636572 0.025322223 -0.03576233 0.12842761

gnn1_pool.bns.0.weight f4 [64]
00000000: 5865 463f 7a6f 973f 72e9 293f 4162 853f
00000010: 0c4d 6a3f 27e1 4d3f 733d 473f 211b 693f
00000020: b393 b13f 7602 7e3f 2808 633f b578 9f3f
00000030: 1714 3c3f 66ad 863f 4f3e 5a3f a165 953f
00000040: 96a8 813f abf9 463f f2a6 5b3f 9040 923f
00000050: 1783 5b3f 1af1 953f 8530 673f 9486 833f
00000060: 3877 623f 7be2 5e3f 94be 5b3f 337a 593f
00000070: 1587 8a3f a3b3 893f 3836 573f 2d81 3a3f
00000080: 1230 903f 90d4 453f 3b97 943f 743e 7c3f
00000090: 0a66 c13f 8134 af3f e234 823f 72d3 8c3f
000000a0: 26e9 973f 3091 853f 931a 653f 0f81 503f
000000b0: 20fb 713f e359 853f d5bf b33f 78c7 4b3f
000000c0: 47a0 8a3f 3319 a33f 5842 473f 9eb8 6e3f
000000d0: 87a4 a53f 61b8 5f3f 5640 693f 727c 6f3f
000000e0: d2d0 6e3f c40b 963f 81ed 7b3f 89f1 5b3f
000000f0: e2dd 3c3f cba0 813f b142 803f e0a1 5d3f
0.7749839 1.1830895 0.66371834 1.042061 0.91523814 0.8042168 0.7782814 0.9105702
1.3873199 0.99222505 0.8868432 1.2458712 0.73468155 1.0521667 0.85251325 1.167164
1.0129573 0.77724713 0.85801613 1.1425953 0.857469 1.1714203 0.9030841 1.0275445
0.88463163 0.8706433 0.85837674 0.84952086 1.0822474 1.0757946 0.84067106 0.72853357
1.126467 0.7727747 1.1608652 0.98532796 1.5109265 1.3687898 1.0172389 1.1002028
1.1868026 1.0434933 0.89493674 0.8144693 0.9452381 1.0418056 1.4042917 0.7960124
1.0830163 1.2742065 0.7783561 0.93250453 1.2940835 0.87390715 0.91113794 0.93549263
0.93287385 1.172234 0.9840928 0.8591543 0.73776066 1.0127195 1.0020353 0.86575127

gnn1_pool.bns.0.bias f4 [64]
00000000: 63ef 6abd c719 ea3e f452 15be fe0b 523e
00000010: edb1 023d ff4e 1e3e c91d 3abd 2dbe 793e
00000020: 4b49 4a3e 6b18 94bb 0b1b 6f3e f499 4a3e
00000030: 2b1a b6be 3b18 893e 37a8 833e 27f1 bb3e
00000040: ada7 f83d c3f5 8c3e 0356 30be 6533 133f
00000050: fd0f 42be cdd5 97bd 01e3 443d 4a93 67bd
00000060: ae45 7e3d c5cf 17be 8410 42bd 8601 77be
00000070: 764d 1dbc af80 b2bd fc9f e1bb 8b99 abbe
00000080: 89a5 c83e 8ffd 44be 5971 cc3e 89be ae3e
00000090: 5f9b 43be 45f6 873e 7e60 043e 3ee5 86be
000000a0: 6b55 d63e 6b76 543d 3cf6 853e ca17 adbd
000000b0: 6ff1 f5bd a317 a0bd 19b6 0b3f 6877 59bd
000000c0: a816 dabb 508e febd cca8 67be d4cf c9bd
000000d0: ccc6 cd3c 4e69 8cbe ef34 b93d 68d7 463e
000000e0: 9492 4bbe 934a 923d 26a2 68bd 7df4 12be
000000f0: 08f7 8abe c97c ec3d 15ba 0abc 05f2 7abd
-0.057357203 0.45722792 -0.14582425 0.20512387 0.031907964 0.15459822 -0.04543856 0.24388953
0.19754522 -0.0045195124 0.2335016 0.19785291 -0.3556684 0.267763 0.25714275 0.36707422
0.121413566 0.2753125 -0.17220311 0.57500297 -0.18951412 -0.07413826 0.04806805 -0.05653695
0.06207817 -0.14825352 -0.04737903 -0.24121675 -0.009600988 -0.08715951 -0.0068855267 -0.3351558
0.39188793 -0.1923735 0.39930227 0.34129742 -0.19102238 0.26555076 0.12927434 -0.26346773
0.41862044 0.051870745 0.26164424 -0.08451803 -0.120089404 -0.07817008 0.54574734 -0.05309239
-0.006655533 -0.12429488 -0.22622985 -0.09854093 0.025119208 -0.2742409 0.090432994 0.19418108
-0.19880134 0.0714313 -0.05679526 -0.14351077 -0.27141595 0.115472384 -0.008467217 -0.061265964

gnn1_pool.bns.0.running_mean f4 [64]
00000000: b220 a4bd ffba 05be d379 af3d 3d0e db3c
00000010: 136d 09be 4c3a dabd 04c6 71bd ea7b b9bd
00000020: c6aa abbc 57ba f63d db00 84be 0cd5 22bd
00000030: f3c1 a63d 94d5 00be bbf2 1b3e aa24 c1bd
00000040: 8410 483d 0580 11be fe73 b3bd d84a 82bc
00000050: f675 a23c 00ac b13d ac65 083c ef3b 69bc
00000060: 5c10 2bbd cf03 32be 0ee7 c73e fff4 4d3d
00000070: c3b2 e9bd f2fa 1bbe deae 053e e6a4 cbbd
00000080: 7d35 4dbc e517 643e e8fa 9ebb 9088 5bbd
00000090: 3630 b03c 1335 b53d 6d37 263e ba92 113d
000000a0: eb58 55bd bd3a 503c f23f 2a3d f20e 533d
000000b0: dd0c 5a3c 29bf 09bd ac24 6fbc cfef b13d
000000c0: bdd7 ccbd c728 e5bd 38a2 6b3d e53e 6bbe
000000d0: 2a48 153e b838 9d3d 9f40 013b 9b7d 77be
000000e0: b68b 743d 39a7 733c 3b06 193e 96e0 5f3d
000000f0: bcac f83b 0041 31bd dd75 2fbd 406c fb3d
-0.08014049 -0.13059615 0.08568158 0.026740188 -0.13420515 -0.106556505 -0.059026733 -0.09056838
-0.020955455 0.1204726 -0.25781903 -0.03975396 0.08142462 -0.12581474 0.15229313 -0.09430821
0.048843876 -0.14208992 -0.08762358 -0.015904829 0.019831639 0.086753845 0.008325022 -0.014235481
-0.04176365 -0.17384265 0.39043468 0.050282475 -0.11411049 -0.15232447 0.13054988 -0.09943561
-0.01252496 0.2227474 -0.0048516877 -0.053597033 0.021507364 0.08848014 0.16232081 0.03554032
-0.052086752 0.012709317 0.04156489 0.051527925 0.013308731 -0.03362957 -0.014596146 0.08688318
-0.10002086 -0.11189418 0.05752775 -0.22973211 0.1457831 0.07676834 0.0019722355 -0.24169008
0.05970355 0.014871412 0.14943783 0.05465754 0.007588951 -0.04327488 -0.042837013 0.122765064

gnn1_pool.bns.0.running_var f4 [64]
00000000: 5b76 813b 096d 3c3c 5b5c 2b3c 2527 343c
00000010: ce35 0a3c a825 133c 2479 af3b 5866 de3b
00000020: 1a26 353c 45e9 0e3c 520d a73c bb47 333c
00000030: 8f7e dc3b d1fd a63c 1c2c c63b f094 ad3b
00000040: 903e 723c 5a1c 823c 4f04 713b 4d9b f83b
00000050: 9ced 8b3b 699d 9f3b 9bb1 503c 5524 bd3b
00000060: 97cb ec3b 5df1 0c3c b0c8 2d3b 1aaa 8e3b
00000070: 6192 a23b 25fc 1b3c 6df0 883c 0124 c83c
00000080: 7654 d63b 1f08 243b 37b4 be3b 6a0c de3b
00000090: 74f1 8e3b 70b4 c33b 48cb 0f3c 51a5 dd3b
000000a0: 4edd 333b fcac 0b3c 05d8 d63b 6f5b 503b
000000b0: 4062 6d3b 5cf3 093c 328c d43b b9eb 343c
000000c0: 4be2 c73b cfae 993b 136b 2f3c 3631 4c3b
000000d0: 19aa 023c 749b c63b e75f 523b 6c36 a13c
000000e0: be94 1d3c 607a f53b debd c73b 4d4d 2d3b
000000f0: 7478 393b f28e d43b 74a6 9e3b f5d6 cb3b
0.0039508766 0.011500605 0.010459031 0.010995661 0.00843568 0.008981146 0.0053550173 0.0067871027
0.011056447 0.008722608 0.020392094 0.010942395 0.006728954 0.020384701 0.0060477387 0.0052972957
0.014785424 0.01588266 0.003677625 0.0075868727 0.0042702686 0.0048710597 0.012737657 0.0057721534
0.0072264182 0.008602467 0.0026517324 0.004353774 0.0049612974 0.009520565 0.016716206 0.02443123
0.0065408302 0.0025029255 0.005819823 0.006776382 0.0043622795 0.0059724376 0.008776493 0.006764092
0.002744514 0.008525129 0.0065565133 0.003179278 0.0036221892 0.008419838 0.006486439 0.011042529
0.0060999743 0.0046900283 0.010706681 0.0031157262 0.007975125 0.006061012 0.003210062 0.01967927
0.009617982 0.007491395 0.006095632 0.002644378 0.0028300555 0.006486767 0.00484162 0.0062206932

gnn1_pool.bns.1.weight f4 [64]
00000000: cb1e 843f 6ca7 593f c197 623f 1c19 8b3f
00000010: 562e 883f 8bd0 623f 5e1d 833f 75cc 853f
00000020: 47ab 493f 2d5a 683f 2ae8 303f ff49 393f
00000030: dba9 753f ffaa 8d3f 10a5 793f 6ce2 873f
00000040: 4937 383f b0ad 983f d690 853f 6e24 6e3f
00000050: 4b3a 583f 1a6c 6d3f d388 893f 2367 6d3f
00000060: 09bf 583f 81d1 523f 7433 5e3f 6fb6 8f3f
00000070: d435 7c3f f32c 6a3f 8146 ab3f d7ae 463f
00000080: 3e30 683f f25c 8a3f aa64 663f 6cf6 913f
00000090: db4c 7c3f 98e3 4c3f 19e9 5c3f 6bd4 5e3f
000000a0: bde7 7d3f 91fc 813f 7cd5 ae3f a97f 8b3f
000000b0: 3c9b 743f 84c3 8c3f 060a 833f 6e1a 603f
000000c0: cb39 4e3f 2659 673f ca63 ab3f a04f 673f
000000d0: 2bb2 793f 723a 683f 60f4 843f 346b 9d3f
000000e0: 2ce0 863f 2dcc 9a3f 0ff1 ec3f abdf 9f3f
000000f0: b7c5 6e3f 67f3 903f 4ab6 893f 94db 4f3f
1.0321897 0.8502109 0.8851281 1.0867038 1.0639141 0.8859946 1.0243337 1.045302
0.78776973 0.907626 0.69104254 0.72378534 0.95962304 1.1067809 0.9751749 1.0615973
0.7195936 1.1928005 1.0434825 0.9302434 0.8446395 0.92743075 1.074488 0.927355
0.84666497 0.8235093 0.8679726 1.1227549 0.98519635 0.9147484 1.3380891 0.77610534
0.9069861 1.0809615 0.8999735 1.1403327 0.9855477 0.8003478 0.8629318 0.87042874
0.9918173 1.0155202 1.36589 1.0898334 0.9554937 1.0997167 1.0237434 0.8754033
0.80556935 0.90370405 1.3389828 0.90355873 0.9753749 0.9071418 1.0387077 1.2298341
1.0537162 1.209356 1.8511065 1.2490133 0.9327044 1.132428 1.0758755 0.81194425

gnn1_pool.bns.1.bias f4 [64]
00000000: 4111 5bbe a56f e0be 2ad4 a1bd 7079 83be
00000010: b54b c0bc ddb6 d8bd bc88 31be 9092 fdbd
00000020: de7a 15be 77d3 abbd c966 83be 0a0c 27be
00000030: 0ba2 34bc 961a dcbd 73bc 333e 9cb7 c6bd
00000040: f6a4 a9bd 3609 85be 4776 9b3d b723 43ba
00000050: 122d 54be 4544 3bbe cd28 00bf 929b 6c3d
00000060: ec53 77bd 3eca 88be ab75 f4bd 78b4 92be
00000070: 13f8 1e3a e7a2 fbbc fc51 60be ca0d 27bd
00000080: f6fc 61be eae2 eabe 1de8 ab3d edbf 85be
00000090: 6cc9 0fbe 53ca 66be 9f4a a3bd a092 243d
000000a0: ec1d edbe c2e7 e6bd 16a9 5bbe 020d 4dbd
000000b0: 282b e9bd 1755 e6be 631f 89be 86c9 00be
000000c0: 075d 26bd b8c1 bdbd 1efb c5be cf9a d33b
000000d0: 44d1 32be a521 a23d 3ff4 27be db1c babe
000000e0: c07e 63bc 0dc9 29bc bad1 4bbe be47 7fbe
000000f0: 6bce 0fbe bc49 10bf 8c84 d2bd 1cfd 3f3d
-0.213933 -0.43835178 -0.07901795 -0.25678587 -0.0234736 -0.105817534 -0.17337316 -0.1238147
-0.14597651 -0.08389943 -0.25664356 -0.16313186 -0.011024962 -0.10747258 0.17552356 -0.097029895
-0.08283417 -0.2598359 0.07590919 -0.00074439816 -0.20720318 -0.18287762 -0.5006226 0.05776555
-0.06038277 -0.267168 -0.11936506 -0.28653312 0.00060641876 -0.030717326 -0.21906275 -0.040784635
-0.22069153 -0.45876247 0.083938815 -0.2612299 -0.1404168 -0.22538118 -0.07973217 0.040178895
-0.4631189 -0.11274673 -0.2145122 -0.050061233 -0.113851845 -0.44986793 -0.2678176 -0.12576875
-0.04061606 -0.092654645 -0.3866815 0.0064576636 -0.17462641 0.079165734 -0.16401766 -0.3635014
-0.0138852 -0.010362876 -0.19904223 -0.24929711 -0.14043586 -0.5636251 -0.102791876 0.046872243

gnn1_pool.bns.1.running_mean f4 [64]
00000000: bf94 54c0 b519 893f 7dde d73f ed60 04c0
00000010: 4d11 e6be b8c4 a7bf 4480 30c0 235f a63f
00000020: 05ed 60bf 1cdc a53d a2c6 2ebf b2e6 88bf
00000030: 68b0 a53f 7404 f0bf 90b5 2bbe 7de7 1640
00000040: ab15 76bf 6baa ecbf 10b9 08c0 53dd eebd
00000050: 3cd8 0e40 a21d 32c0 88b0 30c0 243c 5dc0
00000060: 320c 1cbc 81c1 e5be e5fe 13be 739d 04c0
00000070: e7a3 11c0 91f9 fb3f 7d44 2ec0 69ae a0bf
00000080: 766b 7d3e 9ec0 0a3f c9ff e5be 2940 76bf
00000090: 898a f5bf 926d d33f 60eb ddbf 8c2e ff3e
000000a0: 2855 e83d cf99 813f 1bd1 5fc0 3a63 cf3f
000000b0: 477c dd3e 468f 2ec0 c95b 99bf 01bd 2dbf
000000c0: 5939 e9bf 32b1 d0bf 0885 4fc0 146d 8ebe
000000d0: e535 82bf 22df 743f f42c 3140 8af2 e3bf
000000e0: 6f76 b2bf f40b 00c0 0642 11c0 3879 e8bf
000000f0: 5f85 56bf 0168 18c0 0782 6ec0 9d00 2a3e
-3.3215787 1.071097 1.6864773 -2.0684159 -0.44935074 -1.3106909 -2.7578287 1.2997783
-0.87861663 0.08098623 -0.6827184 -1.0695403 1.294446 -1.8751359 -0.1676848 2.357879
-0.9612681 -1.8489507 -2.1362953 -0.11663308 2.231948 -2.7830586 -2.7607746 -3.4567957
-0.009524392 -0.44874194 -0.14452703 -2.07211 -2.2756288 1.9685537 -2.7229302 -1.2553226
0.24748024 0.5420016 -0.4492171 -0.9619165 -1.9182903 1.6517813 -1.7337456 0.498402
0.11344367 1.0125064 -3.4971378 1.6202157 0.4325888 -2.7274947 -1.1981136 -0.6786652
-1.8220626 -1.6304076 -3.2424946 -0.27817595 -1.0172697 0.95652974 2.7683687 -1.7808392
-1.3942393 -2.0007296 -2.2696548 -1.8161993 -0.8379726 -2.381348 -3.7266862 0.16601796

gnn1_pool.bns.1.running_var f4 [64]
00000000: 7cb8 7f40 11ec 6f3f e981 5240 09ee ad3f
00000010: 0fc4 3940 a767 0d40 9ae7 883f 5766 5e3f
00000020: 67d7 1640 5e40 b540 53bc 0a40 7f91 1340
00000030: 8705 2540 ac39 9f3f aaca 8b40 c40e 3640
00000040: 6bdf e23f d135 573f eab4 5440 f29b 8f40
00000050: 61a8 0b40 761c f13f 9156 9f3f cd6e c240
00000060: b40c a040 1acd b43f 95f3 1040 dfac a03f
00000070: 57e7 3b40 bfb6 ad3f b291 743f d7f0 4240
00000080: db19 3c3f 6563 4a3f e72a e83f cc6b 8c3f
00000090: a40b a53f e2b1 4340 d7ed c43f 23f6 3c40
000000a0: f866 ce3f 7d8d a73f a9d9 833f ac47 1440
000000b0: c2a6 893f d19c 8a3f c2fd bc3f bbc5 7a3f
000000c0: 9627 c23f b4e9 eb3e 0946 833f 3bdc d73f
000000d0: 5229 953f 7412 5d40 f3a5 e03f 9ff5 c33f
000000e0: 6a4c a93f a64a fd3f e73a 1c3f b944 3d3f
000000f0: 1931 7440 1ec9 2b40 a5f1 a140 7b08 7540
3.995635 0.93719584 3.289179 1.3588268 2.9025915 2.2094514 1.0695679 0.8687491
2.356897 5.6641073 2.1677444 2.3057554 2.5784624 1.2439475 4.3684893 2.8446512
1.7724432 0.8406649 3.323542 4.4877863 2.182152 1.883681 1.2448293 6.0760255
5.0015507 1.4125092 2.264867 1.2552756 2.9359949 1.3571395 0.95534813 3.0459497
0.7347695 0.79057914 1.8138093 1.0970397 1.2894177 3.057732 1.5385083 2.952523
1.6125174 1.3090054 1.03008 2.3168745 1.0754015 1.0829107 1.4764941 0.9795796
1.5168331 0.4607674 1.0255748 1.6864084 1.1653235 3.4542513 1.7550644 1.5309333
1.3226445 1.9788406 0.6102738 0.7393299 3.8154967 2.6841502 5.0607476 3.8286426

gnn1_pool.bns.2.weight f4 [8]
00000000: 94b4 4140 47b0 8540 88c7 2b40 873c ff40
00000010: 12e0 5a40 29e4 7e40 bfc8 b540 edea 7740
3.0266466 4.177768 2.6840534 7.9761386 3.4199262 3.9826758 5.680755 3.8737137

gnn1_pool.bns.2.bias f4 [8]
00000000: 76d3 bcbe 9ae9 243d b01e 383c d859 bb40
00000010: 114b e43d 3e99 193f 4e8a 1f40 7783 d53e
-0.36880082 0.040261842 0.011237785 5.8547173 0.1114713 0.59999454 2.4928164 0.41701862

gnn1_pool.bns.2.running_mean f4 [8]
00000000: eddc df3e 31df b5bf aa24 0f3f b1f2 1d40
00000010: 6ab2 e7be b896 093e 268e 3e3f 6787 013e
0.4372324 -1.4208738 0.5591532 2.4679377 -0.45253307 0.13436401 0.7443565 0.12649308

gnn1_pool.bns.2.running_var f4 [8]
00000000: 7d79 c93e 3add 493f e424 5140 9140 be40
00000010: 59a5 7c3f 211d 4f3f 6ebd 4c40 022d 663f
0.393505 0.7885319 3.2678766 5.9453816 0.986898 0.8090382 3.1990619 0.89912426

gnn1_embed.convs.0.bias f4 [64]
00000000: 454a 02bd 1468 013d 5af7 a3bd eb38 a9bd
00000010: bba5 5d3e a407 133e 2ce9 d43a 658f f6bd
00000020: d3df 343d 8394 903d 1d2f a2bd b9a3 36bd
00000030: 61d1 383d b2f9 483d 19b5 243e 5229 02bd
00000040: 0f45 0a3d 87a0 71bd 19cb e53d 1096 24bd
00000050: f694 bdbd 395a 753b ed11 1e3d 4cb7 083d
00000060: 14d1 93bd 01d4 3abe 996c c83d 2e68 da3d
00000070: fcee bbbd 3634 9a3d 1bc4 4abe 0e2a 42bd
00000080: c943 c2bd f8fc 56be f4b4 59bd e881 e63d
00000090: 99df aa3d f7b7 a93c 71c1 efbd 217c c4bb
000000a0: a58f 8c3d 0afd debd ef02 8f3e c454 03bd
000000b0: 4940 993d 72ba b43c 8bcb 38be 78ee 0ebe
000000c0: 5092 163d d37e 2dbe cc51 1e3e 2427 25bd
000000d0: c01d 73bd 8392 42be d816 15bc 0512 1bbe
000000e0: 66ea 8a3d 9cbf e8bd 1731 87bb b9f8 c4bd
000000f0: b523 03be ca6e 2b3c 6b61 93bd db6a 13bd
-0.03180911 0.031593397 -0.08006163 -0.08262809 0.21645252 0.14358383 0.0016243807 -0.12039069
0.044158768 0.07059576 -0.079191424 -0.04458973 0.045121554 0.049066253 0.16084708 -0.031777687
0.033757266 -0.05899098 0.112203784 -0.040182173 -0.09256928 0.003743781 0.038591314 0.03337793
-0.07217613 -0.18244936 0.09786338 0.10664402 -0.09176442 0.0752949 -0.19801371 -0.047403388
-0.09485585 -0.20994937 -0.053151086 0.112552464 0.08343429 0.020717604 -0.11706818 -0.0059962426
0.068633355 -0.10888107 0.27931926 -0.03206326 0.074829645 0.02206156 -0.18046395 -0.13958156
0.03676063 -0.16942911 0.1546089 -0.04032053 -0.059354544 -0.19001202 -0.009099685 -0.15143593
0.06782989 -0.113646716 -0.004125725 -0.096177526 -0.1280659 0.010463426 -0.071963154 -0.035990577

gnn1_embed.convs.0.lin.weight f4 [64, 14]
00000000: 801d 403e a028 a63e 1500 913d 33d0 d73c
00000010: 81cd c73e c436 cbbc 0fd5 3e3e 284f fbbe
00000020: c11c b5be 1cfb 93be aa1c afbe bf9d 213d
00000030: b1ea ae3e 678b 09bd 8bb9 8cbe 17be 533e
00000040: 80fc f73d 443b 653e 4a9c 3f3e a5f2 0a3c
00000050: 4a5d 15bd cd81 2cbe 4536 f4be 602f 02bf
00000060: 6a12 9a3d 9919 cdbe 4391 21bc 656e 493e
00000070: b453 843d a00d 733e 4f5e febe 935c 28be
00000080: 24ed 333d 1d32 77be 4290 d9be cabb 4abe
00000090: 7be5 653b 188f 073d b152 063f 54da 143d
000000a0: 4cf9 eebd 3dd9 babe c20c e2bd 171a 7c3e
000000b0: 10ef 8bbc d506 e9bb 058a b1be d5eb b63d
000000c0: 01c4 a2be 1136 babe f469 9a3d f675 af3e
000000d0: ba28 92bc cf4f 5ebc d3c0 c43e 5b7d e63d
000000e0: 0b9f 99be 23f1 323e d59a 293e 455b 723e
000000f0: 5132 f4ba a85c 71be 68a0 7f3d 74be 4abe
00000100: 2d96 793e bcb5 51be 87dc 7fbe 8c9d 83bd
00000110: eac2 d1bc 6b28 7bbe 3ef3 433e 20f9 8abe
00000120: e602 ffbd 773f 8ebe d423 52be 01e6 69bd
00000130: 3756 7fbe ec1c 86bd 9fef 3abe fc2f 85be
00000140: d368 c5be 290c a7bd 82f8 9bbd 184b 81be
00000150: cd9e ba3e 416e 433e 7eb1 3ebe 9ff3 1e3d
00000160: 62a5 82be 2fde 623e 802c edbe 9c40 9dbe
00000170: 8e14 8e3d 5c4c e9be c475 adbe f1f1 863d
00000180: 91e5 f5bc 84ff 0dbe 04d8 b0be 488f fbbc
00000190: d4c0 68bd 803c 17ba 8803 353e bcc6 33bd
000001a0: d3db e63d 7b26 5f3d a003 1dbf 4791 4e3e
000001b0: 9af6 1ebf c4c9 adbe 10ce 713d 8e2b 36bc
000001c0: 983b 53be 4011 0bbf 4e2b 81be 766b 1a3e
000001d0: e703 2a3e d7e0 2cbe 57f7 17bd 4bc8 043e
000001e0: c8ea 923e c5ec 5bbe 7948 ecbd 1132 2b3e
000001f0: 4c54 47be 10a7 adbd b99c 3abe 0620 ad3e
00000200: 88a2 74be 2fef bfbd 3335 633e a5b5 7c3e
00000210: 587f 253e 54ac b3be 934a 14be 5dcb b03e
00000220: 4b47 90bd 130c 603e 39f5 993b 8e6d 40be
00000230: 8b2f 843d cdeb 633e 6277 9b3e 8ff5 3ebe
00000240: 32bd 68bd 30af e9be dd9d 723e 74d9 b4bd
00000250: 0547 243d 17d5 cc3e 6a69 1c3e fa2a a2be
00000260: 8e8b f23d 34e1 7bbc 7352 24be 4671 a73e
00000270: a212 9cbe 0a9e 49bd 64a2 773e cebc 7c3e
00000280: 15b9 583d 82a4 afbe 216c 74bc ab98 7abd
00000290: a8f3 4abd 1244 52bd 93e8 3bbd 46f5 b0bd
000002a0: 2ff4 25be 8178 83be b4db 9fbe 2dbc f7bc
000002b0: 7da2 3a3e 6090 8f3e c3a0 e83d 86cd 953e
000002c0: 8949 30be 02a9 17bd ed36 96be 6ff3 1cbe
000002d0: 0a1f 9c3e 451b 9f3d ad90 093e 8978 e2be
000002e0: 2e4d fc3d fc0a 223e 5611 1cbd b341 9b3e
000002f0: 5670 15be bccb 51be a628 93bd 7a41 c93e
00000300: 3470 f8bc 4d75 94bd 9937 803e 5a44 22be
00000310: 653b 753d 18eb 34be 331a b73e 9dff c8bd
00000320: 76a3 77be c85d c03d 2bfa 9a3e 05cd b5be
00000330: 962e 563e c588 8b3e 5f4e f9be ce6f debd
00000340: b771 203e ab5e 94bd d1ea 8fbe 55da b03d
00000350: 021f af3d 60f5 853b 01e1 7f3e f1f3 fd3e
00000360: 0077 bf3b 7b98 cdbd 9c7c acbe 20e3 bfbc
00000370: 53f6 323e 0c13 b83e cbb1 18be b1d6 853e
00000380: c68c 15be 13f2 663e 84d9 a83e 307e 23be
00000390: c389 5d3e f941 25bf 7399 d83e ae2c 143e
000003a0: b381 cabd cc7c 04bf b879 72bd 8b6f 023d
000003b0: b723 e23c 8ebd 63bd 3f57 29be 2bc5 4ebe
000003c0: 18de f4bd a197 253e 112e b4be b2a3 913e
000003d0: 74b2 74be a6d4 79be fec3 233e be44 a4bd
000003e0: 07aa d93e 1704 6fbd d4bf 7e3e 8eb1 b83d
000003f0: a9d8 8bbe 6f22 8f3e 137b c33b 7882 313e
0.18761253 0.3245287 0.07080094 0.026344394 0.39023975 -0.024806388 0.18635963 -0.4908383
-0.353735 -0.2890252 -0.34201556 0.03945708 0.3416343 -0.03358021 -0.27485308 0.20677982
0.121087074 0.2238589 0.18711963 0.0084807025 -0.03646592 -0.1684639 -0.47697654 -0.5085354
0.075230435 -0.40058592 -0.009861293 0.19671018 0.064612776 0.23735666 -0.49681327 -0.16441564
0.043927327 -0.2414021 -0.42492872 -0.19798198 0.0035079408 0.03309545 0.5246993 0.036341026
-0.11668643 -0.36493865 -0.110375896 0.24619327 -0.017081767 -0.00711141 -0.34675613 0.089317
-0.31790164 -0.36369374 0.0753974 0.34269685 -0.017841686 -0.013568833 0.38428363 0.112543784
-0.30004153 0.17474799 0.1656297 0.23667629 -0.0018630718 -0.23570502 0.062408835 -0.19799215
0.24373694 -0.20479482 -0.24986468 -0.06426534 -0.025605638 -0.24527137 0.19135758 -0.27143192
-0.12451725 -0.27782795 -0.2052148 -0.057104114 -0.24935232 -0.06548485 -0.1825547 -0.26013172
-0.38556537 -0.08156616 -0.076157585 -0.25252604 0.3644928 0.19085027 -0.18622395 0.038806554
-0.25516802 0.22155069 -0.46323013 -0.30713356 0.06937514 -0.4556607 -0.3387891 0.065891154
-0.030016692 -0.13867003 -0.34539807 -0.03070797 -0.05682452 -0.0005769208 0.17677128 -0.0438907
0.11272397 0.054480057 -0.61333656 0.20172606 -0.62095034 -0.33942997 0.059034407 -0.011118783
-0.20628202 -0.54323196 -0.2522835 0.15080056 0.16603051 -0.16882645 -0.037101116 0.1296703
0.2869475 -0.21477039 -0.115372606 0.16718318 -0.1946575 -0.0847913 -0.18223847 0.33813494
-0.23890126 -0.093717925 0.22188263 0.24678667 0.16161859 -0.35092413 -0.14481573 0.34530154
-0.07044848 0.21879606 0.0046984223 -0.18791792 0.064543806 0.2225792 0.3036452 -0.1864836
-0.056821056 -0.4564147 0.23693033 -0.088305384 0.040106792 0.40006325 0.15274587 -0.31673414
0.11843024 -0.015373517 -0.16047077 0.32703608 -0.30482966 -0.049222983 0.24183041 0.24681398
0.052910883 -0.34305197 -0.014918358 -0.06118075 -0.049548775 -0.05133445 -0.045876097 -0.08640532
-0.1620643 -0.25677875 -0.31222308 -0.030241096 0.18226047 0.28039837 0.11358788 0.29258364
-0.17215551 -0.037026413 -0.2933878 -0.15327238 0.3049243 0.07768873 0.13434096 -0.44232586
0.12319408 0.15824503 -0.03810247 0.30323562 -0.14593634 -0.20487875 -0.071854874 0.39307767
-0.03032694 -0.07248936 0.25042418 -0.15846387 0.059871096 -0.17667806 0.35762176 -0.09814379
-0.24183449 0.09392887 0.30268988 -0.3550798 0.20916209 0.27252784 -0.48692605 -0.10861169
0.15668379 -0.07244619 -0.28108838 0.086353935 0.08550836 0.004088089 0.24988176 0.49600175
0.0058430433 -0.10038849 -0.3368882 -0.023423731 0.17476778 0.35952032 -0.14911573 0.2614036
-0.14604482 0.22553281 0.3297845 -0.15966105 0.21634583 -0.6455379 0.42304572 0.14470169
-0.098880194 -0.51752925 -0.05919811 0.031844657 0.02760492 -0.055600695 -0.16537188 -0.20192401
-0.119564235 0.16171123 -0.35191396 0.28445202 -0.238962 -0.24397525 0.15992734 -0.08020924
0.42512533 -0.05835351 0.24877864 0.09018241 -0.27313736 0.27955958 0.0059655993 0.17334926

gnn1_embed.convs.1.bias f4 [64]
00000000: 81b3 b6bb dd79 3abc 2939 ff3d 4a4f 893d
00000010: 70ae 17bd 540a 133c 058a 4cbd 5f69 dd3c
00000020: ed14 2b3b 748c 84bc e91d 113c f58b a9bd
00000030: f317 6fbd 7fac cb3c 508a 953d 7383 6a3d
00000040: 7442 2abc dc36 ce3c 3a4e d23b 5b3d 3c3d
00000050: 39f5 f5bc 5016 8bbc 81f1 00bd b986 ad3c
00000060: e8fc d53c 8838 89bc 8839 66bc 1b42 473d
00000070: 8191 673c e77d a63c 77b5 f8bc a24b edbc
00000080: f844 32bc 1d8a 913d 4da8 3f3b c38c 933c
00000090: b439 853d 2edf 79bd be68 6f3d 8780 213c
000000a0: 0eee 3cbd 61d7 9d3c d01a 6c3d bcc6 dabb
000000b0: 21e1 3dbd 9a74 653c fedd b2bb fbb0 ed3d
000000c0: 14b0 3e3c 1a5c c6bc 5700 793c 9b27 3b3d
000000d0: 95a2 913d 0d64 1d3d 6b2b 0b3c 4adf a6bc
000000e0: 5b8f 7bbc ed2a aebd 298b acbc a287 f3ba
000000f0: 1461 7cbd 9e39 3d3c ad37 c03b 4e48 92bd
-0.0055755978 -0.0113815935 0.12462074 0.06704576 -0.03703159 0.00897463 -0.049936313 0.027027784
0.0026105002 -0.016180255 0.008857229 -0.08278648 -0.05837245 0.024862526 0.07301772 0.057254266
-0.01039182 0.025172643 0.0064180167 0.04595695 -0.030024158 -0.016978413 -0.031480316 0.021182405
0.026121572 -0.016750589 -0.014051802 0.048647027 0.014133812 0.020323707 -0.030359967 -0.028966729
-0.010880701 0.07106421 0.0029244602 0.018011456 0.065051466 -0.061003856 0.0584495 0.009857303
-0.046125464 0.01926774 0.057642758 -0.006676523 -0.046357278 0.014004851 -0.0054585924 0.11606022
0.01163866 -0.02421384 0.015197835 0.045692068 0.07111088 0.038425494 0.008494238 -0.020370144
-0.015354003 -0.08504281 -0.02106245 -0.001857985 -0.06161602 0.011549382 0.005866012 -0.07142697
