model_state_32_8_4.pth (torch, 98732 bytes, 94 tensors)

gnn1_pool.convs.0.bias f4 [32]
000000 24 57 df 3c 7a 7a 51 bd 7e e4 cc bc 79 59 a9 bd
       0.027263232 -0.051142193 -0.025011297 -0.08269019
000010 a8 b3 b5 3c fb 5d 80 bd a3 37 67 3d d1 51 0f 3a
       0.022180393 -0.06267925 0.056449544 0.00054672087
000020 09 7c 8c 3d 54 10 b4 bd 99 93 30 3d bd 5d 22 3c
       0.06859595 -0.08792177 0.04310951 0.009910044
000030 5d b4 8f 3c 59 e5 46 bd d6 91 48 3d 01 b5 b5 bd
       0.017542059 -0.048558567 0.048967205 -0.088724144
000040 a9 c5 b0 bc d6 ba 2a be f7 0d 8c 3e 46 c1 73 3d
       -0.021578627 -0.16672835 0.27354404 0.05951049
000050 94 42 8d 3d e8 9f 73 bc 8f 0a a8 3c c8 dd f3 3d
       0.068974644 -0.014869668 0.020512847 0.11907536
000060 06 ec 2d bd 3c d0 22 bd 4f e0 85 bd 66 a3 87 bd
       -0.042461418 -0.03974937 -0.06536924 -0.06622963
000070 47 af 83 bd e2 bd 04 3e d5 cf 03 3e cd d3 b8 3c
       -0.06429916 0.1296306 0.1287225 0.022561932

gnn1_pool.convs.0.lin.weight f4 [32, 14]
000000 6a 01 7f be 33 6b f2 3e 0b d8 93 3d a8 76 85 be
       -0.24902883 0.47347412 0.07218941 -0.2606709
000010 b1 08 10 3e 0b aa 31 be 67 74 c5 3d fb 9d d4 be
       0.14065816 -0.17350022 0.096413426 -0.4152678
000020 d3 98 21 3e 2f 51 3e be 4d e4 01 be 58 47 62 3d
       0.15780954 -0.18585657 -0.12684746 0.05524382
000030 e8 fa 25 3e 94 47 17 be b6 f3 95 3d 7d 6f b2 3d
       0.16208994 -0.14773399 0.07321875 0.08712671
000040 b7 58 a0 bd 9d 22 74 be 97 2b 81 3e 0f 0d ba 3d
       -0.07829421 -0.23841329 0.2522857 0.09084522
000050 8a 0d bd be 0a e6 cb bd 2f 0e 9e 3e 0d 10 54 be
       -0.36924392 -0.09955986 0.30870196 -0.20709248
000060 c1 1a 1c 3e a6 a5 2e be 52 89 8b 3d 17 3d 17 3e
       0.15244581 -0.17055377 0.06813301 0.14769398
000070 ce b2 ed be 02 22 b2 be 93 77 9b be a8 8b e4 3d
       -0.4642548 -0.3479157 -0.30364665 0.1115945
000080 b1 c8 75 3e 14 24 4e bd 4a b9 04 3f 9a fe 58 3c
       0.24002339 -0.050327376 0.5184523 0.0132442955
000090 7c fb 35 3e a1 6a da be 7f 62 02 bf 1f bd a4 3c
       0.17771715 -0.42659476 -0.50931543 0.020109711
0000a0 f2 7b 80 be 04 22 f2 3d 05 65 e3 3d d5 a5 1e 3e
       -0.25094563 0.11822894 0.11103252 0.15492947
0000b0 fe a6 dd 3e 6b b0 39 3d 65 14 d9 3e d5 65 c8 3d
       0.43291467 0.04533426 0.42398372 0.09785048
0000c0 09 1c 6d 3e ad b2 96 bd 63 3c 8e bd cb df 7d bd
       0.23155226 -0.073582985 -0.069451116 -0.061981004
0000d0 0d 9a a3 be 4e e6 ba bd cd 83 7b be 04 15 05 3e
       -0.3195347 -0.091259584 -0.24561997 0.12996298
0000e0 28 ed f2 3d 81 f8 cc be fa fe d4 bd eb b7 95 3d
       0.1186164 -0.40033343 -0.104001954 0.0731047
0000f0 7c c5 e1 bd 48 6e 71 3d 32 79 89 3e 81 81 ac 3c
       -0.11023995 0.058943063 0.26850277 0.021057846
000100 fc 76 44 3d e6 1d e8 bd b3 61 07 bb df 36 3e 3d
       0.047965035 -0.11333828 -0.0020657599 0.046439048
000110 ed 3e 12 3d 26 19 82 bd ce be e8 3d b2 7f ef be
       0.035704542 -0.06352453 0.11364518 -0.4677711
000120 28 27 cb be 46 51 0f 3e 0a 6b f6 bd 57 ac 70 3d
       -0.3967831 0.13995847 -0.12032135 0.058758106
000130 ef 77 0e 3c 7b 0f 07 bf ea 30 b7 3d 16 ae 8d 3e
       0.008695587 -0.52757996 0.089448765 0.2767188
000140 1a 10 1b 3d 61 89 36 3d 40 0e f5 3b 85 bc 84 3e
       0.037857153 0.04456461 0.0074785054 0.2592508
000150 c7 3c c2 be 11 8e 01 bf db 15 5c 3d d9 52 ec bb
       -0.37936994 -0.506074 0.05373178 -0.0072120246
000160 a4 06 a5 3e 66 e1 a6 3e 78 a3 58 3e 20 93 9e be
       0.3223163 0.3259384 0.21156108 -0.30971622
000170 80 83 d7 be 5b 87 36 3e 4f 0c ca 3e b9 eb 33 3e
       -0.42092514 0.17825072 0.39462516 0.1757039
000180 18 d3 91 be b0 9b c0 3e 4a 33 2f 3e db de 98 bd
       -0.28481364 0.3761878 0.17109409 -0.07464381
000190 02 5b 57 bd 00 95 a0 3e 1c 5d 83 be 4c bd 31 bd
       -0.052577026 0.31363678 -0.25656974 -0.04339342
0001a0 b8 21 96 bb 71 26 d2 3e bd cf 0f be 5e bb cf bd
       -0.0045816563 0.41044953 -0.1404409 -0.10143159
0001b0 b4 d5 68 bd 75 3c 31 3d 06 22 f7 3b a2 28 b4 bd
       -0.05684443 0.043270547 0.0075418977 -0.087968126
0001c0 c8 28 25 be 3b ef 13 bf 09 85 bc bd f2 11 57 3e
       -0.16128838 -0.5778691 -0.09205062 0.2100294
0001d0 5f a0 e7 be 37 69 3d be 44 84 4f 3e e5 0a 8c bd
       -0.4523954 -0.18497168 0.20265299 -0.068380155
0001e0 4e d0 69 3e f8 8d 44 3e 9e 64 86 be aa 93 7a be
       0.22833368 0.19194782 -0.2624864 -0.24470392
0001f0 0d af 87 3e 93 e6 96 bd 68 78 2f be 4c 0f 0a be
       0.2650074 -0.07368197 -0.17135775 -0.13482398
000200 46 e3 bc bd 12 1a a9 3e 2b 03 3a 3e 45 f7 14 bd
       -0.092230365 0.33027703 0.18165271 -0.036368627
000210 0e 27 06 bf 91 73 cb 3e 25 2b 26 be 64 92 b7 3e
       -0.5240334 0.39736608 -0.16227396 0.35853875
000220 2d d3 ad be f3 95 f0 be 9b bd bb be b3 80 af 3c
       -0.33950177 -0.46989402 -0.36668095 0.021423673
000230 d0 28 f0 3d 6b f2 b5 be fb 29 9a bd 41 b4 0e be
       0.11726534 -0.35536513 -0.075275384 -0.13935949
000240 03 a7 8b 3c 56 8c 86 3c 5d cf a3 be 76 56 0a 3d
       0.01704741 0.01642434 -0.31994143 0.03377386
000250 f9 a2 4d bd ee d9 39 3e 13 97 58 bc b1 ac 30 3e
       -0.05020425 0.1814954 -0.013219613 0.17253377
000260 85 b4 87 3e b1 c0 36 3e 41 de 90 be 94 58 44 be
       0.26504913 0.17846943 -0.28294566 -0.19174415
000270 91 e6 d4 be ca 86 d5 3d 1e 4c 73 3e 9c c4 4a bd
       -0.41582158 0.104260996 0.23759505 -0.049503908
000280 67 3c d3 be 66 6c d5 be 34 30 11 3d b0 f2 7d be
       -0.4125702 -0.41684264 0.03544636 -0.24799609
000290 12 8d 8d 3c 8a 68 09 3e 0a f8 b0 bd 28 94 3b 3e
       0.017279182 0.13418785 -0.0864106 0.18318236
0002a0 fc be 15 be 81 eb cb be 14 cb ad 3e 39 ec c0 bb
       -0.14623636 -0.39828113 0.33944 -0.005887535
0002b0 19 02 c1 be e2 95 d0 bd 67 a5 84 bd c1 88 6b be
       -0.37696913 -0.10184838 -0.064768605 -0.23001386
0002c0 7c 7d d2 3c a9 ca 73 3c 9c 4d 55 3e 74 03 a5 be
       0.025694601 0.014879861 0.20830387 -0.32229197
0002d0 7d 75 be 3e 4d 82 3b bd 31 4b 8c 3e aa df d3 be
       0.3719901 -0.04577856 0.27401116 -0.4138158
0002e0 74 e9 92 bd f4 12 77 3d 8b fa 64 bd d2 93 36 3d
       -0.07173434 0.06032081 -0.055903 0.044574566
0002f0 81 b8 fe be 67 92 0a 3d c7 e6 5f 3e 88 d2 04 3d
       -0.4975014 0.033831026 0.21865378 0.03242734
000300 5c 93 90 3e ad 71 0a 3e 5e 35 61 3e 3b 77 f5 3d
       0.28237426 0.13519926 0.21993014 0.11985632
000310 9c 01 1d be 50 c2 3f be 75 1e ac 3d 74 38 b7 bd
       -0.15332645 -0.18726468 0.08404247 -0.089463145
000320 7e 26 a1 3e 1a 9c 20 bd 5f 46 47 bd 39 21 8d be
       0.3147468 -0.03921137 -0.048651095 -0.2756441
000330 9b fb 90 3e 7a 52 83 3d c5 6d 88 3e 9e ec 2f bd
       0.2831696 0.064122155 0.26646248 -0.042950265
000340 29 fe 08 be 18 fb 38 be 73 d0 b8 3d 62 07 ef be
       -0.13378204 -0.18064535 0.090241335 -0.4668532
000350 30 7d ca be 42 2b a9 be 99 91 01 3e 92 ea 07 bd
       -0.39548635 -0.33040816 0.12653197 -0.033182688
000360 46 71 b8 3d b8 c6 de bd dc b9 81 3d 11 16 72 3e
       0.0900598 -0.10877746 0.06334278 0.2364123
000370 a7 44 9c 3c 0c db 1e be 78 09 b4 be d8 1f 8f 3e
       0.019075705 -0.15513247 -0.35163474 0.27953982
000380 76 74 9e be f2 37 64 3e a2 c2 68 3e 1c 7a 25 3e
       -0.30948228 0.22286966 0.22730497 0.16159862
000390 89 4e bc bd 33 a1 06 be a6 4a 40 be 28 f3 21 be
       -0.09194667 -0.1314743 -0.18778476 -0.15815413
0003a0 d3 6a df be b3 66 4a 3e de ae 73 be 33 a8 c9 bd
       -0.43636188 0.19765739 -0.23797175 -0.098465346
0003b0 bc ba 42 be 6a 30 58 be 90 55 14 be 2c 5d d9 bb
       -0.19016546 -0.21112218 -0.14485765 -0.0066334214
0003c0 67 12 5d 3e 19 ac 04 3e 9c 19 b6 3c 0b 43 89 ba
       0.21589051 0.12956275 0.022229008 -0.0010472251
0003d0 fa 61 a0 3e 06 0d d2 3e 9a 99 9f be b2 91 73 bd
       0.3132475 0.4102556 -0.31171876 -0.059465118
0003e0 e9 33 5d 3e 38 a1 8a 3e fe 79 da 3d 69 86 1c 3e
       0.21601833 0.27076125 0.106677994 0.15285648
0003f0 84 c1 d1 3d aa a7 b4 be 9e 79 2a 3e ef 12 6b 3d
       0.10241988 -0.35284168 0.16647956 0.057391103

gnn1_pool.convs.1.bias f4 [32]
000000 0e 5c 9c 3c e9 7c 8f 3d 31 26 8c bb a3 d4 fb bd
       0.019086864 0.070062466 -0.0042770137 -0.122964166
000010 c3 4c 34 bd 2e 51 03 bc 95 a3 5d bb e5 d1 4b bd
       -0.04401852 -0.00801496 -0.0033819426 -0.049760718
000020 76 58 0a ba ac 5a e8 3c 1f 3f 3c bd 1c ca 2c bc
       -0.0005277464 0.028363548 -0.045958634 -0.0105462335
000030 c4 4d 82 3c 1f b3 09 3d f6 23 ad bb 64 81 41 bd
       0.015906222 0.03361809 -0.005283828 -0.047242537
000040 a8 bb 76 3d b9 91 bc bd 57 6b 32 bc 52 f7 22 3c
       0.060237557 -0.09207482 -0.01088985 0.009946661
000050 75 5f bb bb f0 76 ad 3d ab ab 36 bd cc bc 1e 3b
       -0.0057181665 0.08469951 -0.04459731 0.0024221418
000060 5d 6f a0 3d b7 30 ba 3c e9 42 a7 bc f7 67 84 bc
       0.07833741 0.022728307 -0.020417647 -0.016162856
000070 e1 dc e3 3c 10 d8 8e 3d 0c c8 3d 3d ab b3 c6 3c
       0.027815284 0.069748044 0.046333358 0.024255594

gnn1_pool.convs.1.lin.weight f4 [32, 32]
000000 5c 62 8b 3c 75 7c 8a bd ef 94 94 be ba 32 4e 3e
       0.017014675 -0.067620195 -0.29019877 0.20136538
000010 4c 14 62 bd fc cd 85 be c6 7d 31 be fc ee 47 bc
       -0.055195138 -0.26133716 -0.17333135 -0.012202974
000020 6c f7 2b be a1 7c 80 bd 7a d5 96 be cb 5b c6 be
       -0.16793603 -0.06273771 -0.29459745 -0.38741907
000030 98 f2 36 3e bd 29 d6 3d c7 d7 3a 3d d1 75 52 be
       0.1786598 0.1045718 0.045615938 -0.20552756
000040 3c 7d c5 3d dc ee 47 be 2f 28 76 3b e4 01 f3 bd
       0.09643027 -0.19524711 0.0037560572 -0.11865595
000050 14 20 f2 3d fd 7d 4e be 93 35 ef bb 39 46 b3 3d
       0.11822525 -0.20165248 -0.0073000877 0.08753628
000060 a3 e1 08 bf 5a f9 e4 bd ff e3 b0 bd a4 61 cd ba
       -0.53469294 -0.111803725 -0.08637237 -0.0015669358
000070 90 6f ae 3d b3 cb 6c be 8e 53 b8 be 30 34 5c 3e
       0.085173726 -0.2312458 -0.36001247 0.21504283
000080 04 ab cf 3d 87 cd 9c 3e 86 30 a3 bb 0c f8 33 3e
       0.101400405 0.30625555 -0.0049801497 0.17575091
000090 ad 66 61 3e 60 f4 2f 3e d0 89 91 be 20 f2 66 be
       0.22011824 0.17183065 -0.28425455 -0.22553301
0000a0 ff 85 82 3e 24 28 2e be 95 76 0f be ca 3f 3f be
       0.25492856 -0.170075 -0.14010079 -0.18676677
0000b0 43 76 0a be b9 d9 9c bd 95 c0 15 bd b7 03 95 3e
       -0.13521676 -0.07658715 -0.036560614 0.29104397
0000c0 b2 f4 23 be f4 63 0f be 91 44 5f be b2 24 b1 be
       -0.16011313 -0.14002973 -0.218035 -0.3459831
0000d0 49 97 a0 bb c5 6a 2f 3e a5 0b 49 be 30 6d 32 3e
       -0.004900847 0.17130573 -0.19633348 0.17424464
0000e0 ce d4 32 be 06 38 3d 3e a3 e0 af 3d dd 1e c0 3b
       -0.17463991 0.18478402 0.08587768 0.005863054
0000f0 a2 69 40 be d8 be 7d be ac 54 b3 3d c5 c7 35 3e
       -0.18790296 -0.24779832 0.08756384 0.17751987
000100 21 c9 8f be d2 82 1d 3e 91 aa ab 3e 82 c0 62 be
       -0.28083137 0.15381935 0.3352857 -0.22143748
000110 71 d7 d1 be 57 25 f7 be 92 b5 13 3d 2a fc a2 be
       -0.4098468 -0.48270676 0.03606183 -0.3183301
000120 b1 18 58 be a1 6a 64 3e 32 76 a8 be d5 71 2c bb
       -0.21103169 0.223063 -0.32902676 -0.0026312966
000130 9c 40 c2 bd 28 f1 93 3e 98 ac 23 3e f0 b7 31 be
       -0.094849795 0.28894925 0.15983808 -0.17355323
000140 8e 1e d1 be 83 d5 92 3d 33 ad 37 be 8a 93 da bd
       -0.40843624 0.071696304 -0.17937164 -0.10672672
000150 a4 1d 82 be 7c ce 2c be cd 3c 90 3e 9e 17 4e be
       -0.2541324 -0.16875643 0.28171387 -0.20126197
000160 d8 5d 36 be a9 43 36 be 25 0b 80 3d 88 1a f7 3d
       -0.17809236 -0.17799248 0.06252126 0.12065607
000170 a9 d5 80 be 5a c0 23 3e 94 14 29 3d 48 ed a1 3d
       -0.2516301 0.15991345 0.04127939 0.07906586
000180 da 14 83 be 09 00 8b be d5 d7 cb 3d 8c d5 10 3e
       -0.25601846 -0.27148464 0.09953276 0.14143962
000190 33 ad 84 be 9f 71 48 3d 85 ca 97 be d9 19 8c be
       -0.2591339 0.048936483 -0.29646698 -0.2736347
0001a0 3b 2c db be 84 51 38 3e 93 65 a3 be 6c f5 78 be
       -0.42807183 0.17999846 -0.31913432 -0.24312371
0001b0 de 97 2a 3e 85 7f de be ff 27 59 3e 8d 7f 1f bb
       0.16659495 -0.43456665 0.21206664 -0.00243375
0001c0 62 2e 65 bd 75 aa 27 3e 66 ee 29 be 6d 0e 89 be
       -0.055952437 0.16373618 -0.16594848 -0.26768818
0001d0 32 5f 13 be 8c 19 5b 3d da 7e 7c be 02 8f 6c 3e
       -0.14391783 0.05349116 -0.24657765 0.23101428
0001e0 67 4b 53 be cc db 22 3e c1 0f 50 bd 5c 91 ad be
       -0.20634232 0.15904158 -0.050796274 -0.33899963
0001f0 fa 68 55 bd fd e2 ad 3d b8 70 8d 3e 01 c0 8f 3d
       -0.052102067 0.0849056 0.2762506 0.07019044
000200 0a 03 ac bd 1f 23 82 3d 33 05 63 3e 75 d3 c6 3d
       -0.08399017 0.06354355 0.22169952 0.09708301
000210 25 66 ec be c0 1a b5 be 01 c3 fa 3d e6 ad 4f be
       -0.4617168 -0.3537197 0.12244225 -0.2028118
000220 6a 8f 6c be d1 6c 40 3e d9 f7 3c 3b a5 55 6a 3e
       -0.23101583 0.1879151 0.0028834252 0.22884233
000230 83 4c e5 be 93 33 fa 3d d7 fc bb ba 12 21 a2 be
       -0.44784936 0.12216868 -0.001434232 -0.31665856
000240 46 a8 88 be 39 01 33 be 49 5f 2c 3d 2e fd 48 be
       -0.26690882 -0.17480935 0.04208306 -0.1962783
000250 58 30 1f be d5 be 1f bb 7e 04 a1 3d 4c 2c 8a be
       -0.15545785 -0.002437522 0.07862185 -0.2698692
000260 fe c7 c8 b9 74 1a 74 bd fb 35 26 be 51 6b 0e be
       -0.00038295978 -0.05959554 -0.1623153 -0.13908125
000270 14 8c 54 bc b6 6f c1 3e 60 c0 c6 3d 13 5b 4f 3e
       -0.01297285 0.3778054 0.09704661 0.20249586
000280 23 69 b8 3d 0d 13 45 bd fc e8 74 3e c0 3c f2 3b
       0.09004428 -0.04811387 0.23917001 0.007392496
000290 e0 f8 6f 3e a6 f5 8e be c2 b6 61 3e 36 b4 90 3d
       0.23434782 -0.2792179 0.22042373 0.070656225
0002a0 90 9f 52 3d 72 f5 af be f9 ff 23 be 1a bd 78 bd
       0.051421702 -0.34366947 -0.16015615 -0.060727216
0002b0 d4 ac 78 3e 2d 3c 36 be ca 78 2d 3c 4f 45 02 3e
       0.24284679 -0.17796393 0.01058788 0.12721752
0002c0 87 86 15 be 0a 03 e8 bd fb 94 cc 3d 7c c6 31 bd
       -0.146021 -0.11328705 0.09989353 -0.04340218
0002d0 b4 f9 e5 3d ee 52 22 3e b0 4a c1 be 51 cd 79 be
       0.11229268 0.15851948 -0.37752295 -0.24394728
0002e0 f2 12 0a bf 00 3f 4d 3a b6 d2 93 be 88 11 df be
       -0.5393516 0.0007829517 -0.28871697 -0.43568063
0002f0 d6 01 05 be 7f cb 9e be 0c c1 4a 3d 16 fd 2f be
       -0.12988982 -0.3101463 0.04950051 -0.17186388
000300 e1 77 49 bd ae cb b4 bd 0c e9 93 bd 42 f6 5a 3d
       -0.04918659 -0.08827911 -0.072221845 0.053457506
000310 de b5 30 3c 12 c2 fc bd 10 01 32 be b9 db 41 bd
       0.010785548 -0.123417035 -0.17383218 -0.047328684
000320 6d af 09 bf c0 ab bb bd f3 c3 8b 3e 01 f4 9b 3d
       -0.53783303 -0.09163618 0.27297935 0.076148994
000330 b4 2e ab be c5 a2 bb bc f6 5b c0 be ca 08 91 bd
       -0.3343407 -0.022904763 -0.3757016 -0.070817545
000340 c8 bc 95 3d b2 fd ca be 58 f9 2d be c2 35 dc 3d
       0.07311398 -0.3964668 -0.16989648 0.10752441
000350 78 ac 7e be 52 71 0e bd a1 bc 88 be 5a 0c 1f be
       -0.24870479 -0.03477604 -0.26706412 -0.15532055
000360 e3 d9 82 3e 35 21 25 3e 53 11 d5 bc 69 d0 97 bd
       0.2555686 0.16125949 -0.026009237 -0.07412798
000370 18 5e 88 be 72 29 4e 3d 25 c2 d5 be a0 0d 85 bd
       -0.26634288 0.050332494 -0.41749683 -0.064967394
000380 93 2d 2f be 24 e5 c8 bd 31 0a c3 3d 4b 11 1b 3e
       -0.17107229 -0.0980933 0.09523428 0.15143315
000390 84 b9 75 bd 22 6a 83 be 1f 86 f9 3c 38 13 5f 3e
       -0.059991375 -0.2566691 0.030459462 0.21784675
0003a0 80 7b 2c bf d6 9e 19 be 64 a4 fa 3d e9 dd 80 bd
       -0.67375946 -0.15001997 0.12238386 -0.06292326
0003b0 bc ab a7 3c 39 f6 a7 3e 16 ed cb bd 38 45 85 be
       0.020467632 0.3280504 -0.0995733 -0.26029372
0003c0 67 a6 11 be 2d 8e b9 bd ac 66 db bd 7f 6e 20 bc
       -0.14223634 -0.09060321 -0.107129425 -0.009791969
0003d0 68 ef e6 be e1 59 b7 bd 0a e5 c1 3e dd 86 9c be
       -0.45104527 -0.0895269 0.37870055 -0.30571643
0003e0 d3 8e 45 bd 9a c5 ef bd 7a 65 18 be f4 89 6c 3e
       -0.04823191 -0.117076114 -0.1488246 0.230995
0003f0 de 99 84 bd 40 e4 93 3e a6 32 9e be 32 5c a0 be
       -0.0647466 0.28885078 -0.30898017 -0.3132034

gnn1_pool.convs.2.bias f4 [8]
000000 f2 72 04 bd bd e7 8f bd 4e 94 69 bc f3 8e c2 3c
       -0.032336183 -0.070266224 -0.01425655 0.023749804
000010 8c 6f 26 bd 5f 72 b8 3d 22 88 9a bd 82 0e 92 bd
       -0.040633723 0.090061896 -0.075454965 -0.071316734

gnn1_pool.convs.2.lin.weight f4 [8, 32]
000000 b5 cf b2 3e 67 02 e4 be f2 22 b5 3e 21 9c a8 3c
       0.34924093 -0.44533083 0.35378224 0.02058226
000010 af e7 d5 bd d6 f6 ef bd ea cb 89 be 1d 94 80 3d
       -0.10444581 -0.11717002 -0.26913387 0.0627825
000020 04 37 1a 3e 54 59 7c 3d 35 42 e3 be ac 5e d6 3d
       0.1506005 0.061608627 -0.4438645 0.10467276
000030 88 73 87 be 1c f9 9d be 2a 02 5d be 7c 17 76 be
       -0.2645533 -0.30854118 -0.21582857 -0.24032396
000040 95 0e e2 3e fc dc 94 be 68 dd 3f be 5d 4b 8d 3e
       0.4415175 -0.29074848 -0.18736804 0.2759656
000050 25 f0 a8 bd f8 0c 5a 3e 76 5b 0c 3e ca 03 b9 be
       -0.08248929 0.2129401 0.13706765 -0.36135703
000060 de 7a dd bd a4 92 58 3e 8b 45 b0 3d c0 e2 98 be
       -0.10814451 0.21149689 0.08607014 -0.29860497
000070 8a 22 84 bd 71 dc fe bd 6d 01 ef 3e 44 d8 86 bd
       -0.064519 -0.124443896 0.46680775 -0.06584218
000080 b8 9f 75 3d fd a7 a1 3e 91 a6 e6 3d d3 40 71 be
       0.059966773 0.31573477 0.11262239 -0.23559885
000090 d0 e8 a5 bd 67 5a a5 3e 6d e8 84 3d 69 d9 af 3e
       -0.08101046 0.32295534 0.06489644 0.34345558
0000a0 6b 81 87 3e 32 7c 90 3d da a2 7e 3f d7 06 6e be
       0.26465926 0.070549384 0.9946724 -0.23244797
0000b0 20 44 8c be 5d 5e 3e 3e 72 74 58 bd 02 7d a8 be
       -0.27395725 0.18590684 -0.052845426 -0.32907873
0000c0 0f 32 53 be c1 b9 1b bd 36 97 75 bd 0b 52 47 be
       -0.20624565 -0.038018946 -0.05995866 -0.1946489
0000d0 20 ef 82 3a 10 3f f0 3c 4e aa 02 be a4 da 8f be
       0.0009989478 0.029326946 -0.12760279 -0.28096497
0000e0 85 fc ab be 58 86 9e 3e ef 2d 58 be 67 24 a1 3d
       -0.33591095 0.3096187 -0.21111272 0.07868271
0000f0 8e 04 ca bd 48 25 5d bd e6 d6 b5 3e 9e b7 a4 bc
       -0.0986415 -0.053990632 0.35515517 -0.020107087
000100 6a 14 7c bc 44 9c bc 3e 3a 3e c4 3d c3 3c 06 bd
       -0.0153857265 0.3683797 0.09582181 -0.03277279
000110 75 8c 02 3d 2a 68 ad be d4 5e 35 3e 0c 23 fd bc
       0.03187223 -0.33868533 0.17711955 -0.0309005
000120 04 9f 91 3e 02 7c 0b 3e ef 41 8b be c4 bc cb bc
       0.28441632 0.13621524 -0.2719874 -0.024870284
000130 a8 35 9e 3d 6f 5d a5 be 3d 05 58 3e 04 22 c1 bd
       0.07725078 -0.32297847 0.21095748 -0.09430316
000140 fe 81 1c 3e 68 0a 9f be f3 fc a6 bd 2b 61 45 be
       0.15283963 -0.31062627 -0.08153715 -0.19275348
000150 b6 a3 98 be 9e 0d 99 3e b3 be 0f bc 99 e8 89 bd
       -0.29812402 0.29893202 -0.008773494 -0.067338176
000160 79 ed 03 3f 15 e6 b7 3c 7b 8a 8a bd 9e 25 18 3e
       0.5153423 0.022448579 -0.06764694 0.148581
000170 09 8f 27 3b 4f 9f e1 be 43 c5 84 be 3f 4c 32 3e
       0.0025567433 -0.44066855 -0.2593175 0.17411898
000180 36 9e 54 bd 12 e6 df bc 59 f1 a2 3e e5 53 8a 3d
       -0.051908694 -0.027331386 0.3182476 0.06754283
000190 c7 2b dd bd 07 85 a2 3e 06 3a 29 3e 62 6b fe bb
       -0.107993655 0.31742117 0.1652604 -0.007764266
0001a0 d4 6c b0 bb 64 5f 48 bd bb 95 06 3e 1b ba 01 be
       -0.005384067 -0.048919097 0.13143055 -0.1266865
0001b0 34 43 57 3d b1 c3 37 3d f9 9d dc bc 8c 62 e4 bc
       0.052554324 0.04486436 -0.026930796 -0.027879022
0001c0 3b 39 82 bd a2 e6 a6 3b 5d 24 54 3e d2 28 5e 3e
       -0.06358572 0.0050934115 0.20716996 0.21695259
0001d0 b9 bf 74 bc 1c f2 02 bd 16 ed 99 bd b6 12 13 3e
       -0.014938288 -0.031969175 -0.07515924 0.14362606
0001e0 a9 ae b2 bc a6 1d 19 be 0f 9d ac 3f 50 88 d1 3c
       -0.0218118 -0.14952716 1.348543 0.025577694
0001f0 7f 97 53 3d 31 ba ab 3d a7 e7 8a 3d 31 b8 cd 3f
       0.05165815 0.083851226 0.067824654 1.6071836
000200 23 cf a7 be f2 a0 99 be f3 48 db 3e 36 7b 4e 3e
       -0.3277522 -0.30005604 0.42829093 0.20164189
000210 f5 1d 5c 3e 96 f8 78 bd 06 2e 9f 3d cc f6 63 3e
       0.21495803 -0.060783945 0.0777245 0.22262114
000220 09 66 00 be 3e 00 36 3e f3 18 1c be 7f 1e c4 3d
       -0.12538923 0.1777353 -0.15243892 0.09576129
000230 0b d1 4a be 56 e0 f3 bd 27 e2 57 be dc fe 5f 3e
       -0.19806306 -0.11908023 -0.21082364 0.21874565
000240 6c 20 81 3c 81 dd 08 3f 50 26 ac be 79 45 01 bf
       0.01576253 0.5346299 -0.3362298 -0.5049663
000250 54 e1 0a bf cf 6c 5a 3e 29 c0 0d 3e c5 23 41 be
       -0.54250073 0.2133057 0.13842835 -0.18861301
000260 d2 18 04 3c 5b 9f c2 be 61 71 93 bd c9 56 b1 3e
       0.008062558 -0.38012204 -0.0719936 0.34636524
000270 88 c0 aa 3e e3 79 93 3c f0 3d e2 3d 9a a6 72 bd
       0.33350015 0.018002456 0.1104697 -0.059240915
000280 4a 45 64 3e eb 65 5a be 6c 79 a8 be 2c a2 80 3e
       0.22292057 -0.21327941 -0.32905138 0.25123727
000290 95 98 49 3e ef f3 1c bd 28 0a a7 3d a5 6b 8c 3d
       0.19687112 -0.03831857 0.08156234 0.06856469
0002a0 f3 99 c1 3e aa a2 15 3e 43 b2 78 3d 59 48 50 be
       0.37812766 0.14612833 0.06071688 -0.20340098
0002b0 36 c8 6c 3d 25 a8 90 3e 74 53 87 bd 62 7a 3e be
       0.057808124 0.28253284 -0.06607714 -0.18601373
0002c0 e5 c7 db bd 7b bd 9c be f8 1b f1 bc 6f 50 43 be
       -0.10731486 -0.30613312 -0.029432282 -0.19073652
0002d0 6d 94 d2 be 1f aa a4 be 51 a1 d9 3e 14 f4 86 be
       -0.41128865 -0.32161042 0.42505887 -0.26358092
0002e0 b2 49 e4 bd 34 60 02 be b1 8d f6 3d f6 64 e2 3d
       -0.11146869 -0.12732011 0.12038744 0.11054413
0002f0 6a 91 93 bd 08 19 2b bf 3a 68 e2 bc 65 22 0e 3d
       -0.0720547 -0.6683507 -0.02763759 0.03470077
000300 a9 37 24 be 9c fd 8d be 31 9c 99 be 44 f2 30 be
       -0.16036858 -0.2773255 -0.30001977 -0.17279917
000310 7d 65 2c 3d d6 7a a8 3d 69 72 01 3d 68 7b e3 be
       0.042088974 0.08226554 0.03160325 -0.4443009
000320 07 1d 32 3e 45 dd 85 3e d5 ee e0 bd 8a 25 20 be
       0.17393886 0.26145378 -0.109830536 -0.1563932
000330 dc f4 0a 3e 92 72 a8 be 62 4a 99 be b0 c9 fe 3e
       0.13569969 -0.3289991 -0.29939562 0.4976325
000340 6b 61 59 3e 4a 6b ab bc b2 fb 0b 3e 70 27 6a 3e
       0.21228568 -0.020925183 0.13670233 0.22866607
000350 2c b6 50 3e b1 20 86 3d c3 bc e5 bd 0c 3c d5 3e
       0.20381993 0.06549204 -0.11217644 0.41647375
000360 75 45 c9 3d 7d 79 c8 be b0 49 5f bc 18 54 89 be
       0.09827701 -0.39155188 -0.013628408 -0.2682197
000370 df cb b8 3e 4c 0b ae 3e a6 4c 78 be 81 c3 2b bc
       0.3609304 0.33992994 -0.24247989 -0.0104836235
000380 82 5a 76 3e 6c 27 87 be 77 b1 8d 3e eb e0 0b 3e
       0.24057963 -0.26397264 0.27674457 0.13660018
000390 b3 7d 20 bb ce fb 36 be 21 08 f8 bd 0c 24 0b 3e
       -0.0024488985 -0.17869493 -0.121109255 0.1358797
0003a0 ac 5a 79 3e ce bf 04 bf 9c 8e 85 be ac 18 65 be
       0.24350995 -0.5185517 -0.26085365 -0.22372693
0003b0 52 d5 49 3e 5a 5e b9 bd f1 16 c8 3e ff 9d 7d bd
       0.19710281 -0.09051199 0.39080003 -0.061918255
0003c0 ed 7a 47 bc eb c0 b3 be 14 35 6a be 14 39 33 3d
       -0.012175304 -0.35108122 -0.2287181 0.043755606
0003d0 b7 f8 8c 3e 47 82 4b 3e 54 ac 55 3d ea 65 cd bc
       0.27533504 0.19873916 0.052166298 -0.02507301
0003e0 0a 87 42 3e 89 c5 e6 bd 8c 2e de bd 7f 05 b3 3e
       0.18996826 -0.112681456 -0.10848722 0.3496513
0003f0 09 f2 08 be bc 26 e0 3d e8 6b b9 be 9f b0 d1 3d
       -0.13373579 0.10944888 -0.36215138 0.10238766

gnn1_pool.bns.0.weight f4 [32]
000000 18 26 77 3f 5f a4 90 3f 15 9b 66 3f e8 f5 6d 3f
       0.965425 1.1300162 0.90080386 0.9295335
000010 97 0f 8d 3f e0 ce 83 3f 46 a8 74 3f 0c 4c 73 3f
       1.1020383 1.0297508 0.95569265 0.95037913
000020 9f 75 8d 3f f0 96 5e 3f a5 e3 a2 3f 5c ab 4e 3f
       1.105152 0.8694906 1.2725722 0.80730224
000030 18 54 3e 3f da f6 5c 3f 85 3a 61 3f fc 5d 9d 3f
       0.74347067 0.86314166 0.8797992 1.2294307
000040 d4 c0 87 3f 29 5b 65 3f 2d 61 87 3f 78 75 6b 3f
       1.0605721 0.89592224 1.0576531 0.9197612
000050 94 07 84 3f 11 95 81 3f 03 b1 8e 3f fb d8 67 3f
       1.0314813 1.0123616 1.114777 0.9056546
000060 2e 6c ba 3f 50 42 6d 3f d0 c2 3b 3f 76 6c 63 3f
       1.4564264 0.9267931 0.73344135 0.88837373
000070 cd 1e 83 3f ce 51 8c 3f 64 53 56 3f 3d f8 84 3f
       1.0243775 1.0962465 0.83720994 1.0388256

gnn1_pool.bns.0.bias f4 [32]
000000 fd 75 3b bd 33 35 d4 3c 26 51 85 3e 72 c0 82 3e
       -0.04576682 0.025904274 0.26038474 0.2553745
000010 f6 96 81 3e 9d 14 62 bd d2 7d c0 3d a3 04 03 be
       0.25310487 -0.05519544 0.09398998 -0.12794738
000020 28 bc a6 3e ab 90 0d 3d 9c 28 a8 3c 05 e2 24 be
       0.32565427 0.034561794 0.020527177 -0.16101845
000030 77 a7 65 bd 31 58 33 bd 56 cc a9 3d ae 2b 8b 3e
       -0.05606791 -0.043785278 0.08290927 0.27181762
000040 a8 46 3c 3e be 01 67 be 71 72 f7 3c 7b 25 96 3d
       0.18386328 -0.22559258 0.030205937 0.073313676
000050 15 88 c9 3d 56 81 8d bd e8 8a 6a bd 7a 63 8b 3d
       0.09840409 -0.069094345 -0.057261378 0.06806083
000060 e7 ec ca 3e ff 40 5e 3b 3d 30 62 bd 79 df 4c bd
       0.39633867 0.0033913252 -0.055221785 -0.050017808
000070 44 14 0a be 88 a3 aa 3d 88 47 a4 bd 70 fe 51 3e
       -0.13484293 0.08331972 -0.08021456 0.20507216

gnn1_pool.bns.0.running_mean f4 [32]
000000 a0 2f 3e bd 7e be 87 bd 1c f0 df bd 0e 76 1a bd
       -0.046432137 -0.066281304 -0.10934469 -0.037710242
000010 98 c6 2d 3d 88 4c 21 bd 65 2d fd bc f4 5f 9b 3d
       0.042425722 -0.039379627 -0.030905435 0.07586661
000020 02 32 23 3d 6c 15 8e bd 64 3a 00 3d ad 35 08 bd
       0.039842613 -0.0693768 0.031305686 -0.033254314
000030 ce f4 10 bd c8 41 60 3a 60 d1 7b 3b 9e 01 0f be
       -0.035389714 0.0008554724 0.0038424358 -0.1396546
000040 52 54 5e bd 1b 6e 30 be 81 64 92 3e 4b b2 ba bc
       -0.054279633 -0.17229502 0.28592303 -0.022790095
000050 c6 36 8f 3d 11 44 c9 3c 2c 83 df 3d 59 64 17 3e
       0.06992869 0.02456859 0.10913691 0.14784373
000060 fd f0 49 bd 31 58 08 3d 6c f4 0e be ab b5 41 be
       -0.04930209 0.03328723 -0.13960427 -0.18916957
000070 75 3c 72 bd 37 34 13 3e 00 59 cd 3d 9b a1 66 3d
       -0.059139688 0.14375387 0.10026741 0.056306463

gnn1_pool.bns.0.running_var f4 [32]
000000 7a 75 79 3c c9 ea 75 3b ac 51 8d 3c 92 1b 82 3b
       0.0152257625 0.0037523976 0.017250858 0.003970572
000010 01 d2 89 3b 1f 9d dd 3b 6a ce 81 3c e5 8a 3a 3c
       0.0042059426 0.006763115 0.015845496 0.011385654
000020 3b 2e 3b 3c 40 ca d8 3b 6c 6e 3a 3b c3 2e dc 3b
       0.011424596 0.006615907 0.0028447164 0.0067194416
000030 bb ac d7 3b 70 8a 10 3c ef e8 83 3b a9 04 07 3c
       0.0065818704 0.008822069 0.0040255706 0.008240857
000040 17 b6 dd 3b 77 f0 eb 3a 33 4f 83 3b 65 73 27 3c
       0.0067660916 0.0018000741 0.004007244 0.010220383
000050 26 82 ba 3b 3f 77 92 3b 04 2a 4b 3c 41 6a 82 3b
       0.0056917844 0.0044697816 0.012400154 0.0039799516
000060 63 3c e8 3b d1 96 09 3c a2 c4 3f 3c 57 ef af 3c
       0.007087277 0.008397774 0.011704596 0.02147643
000070 0f 59 8c 3b ac ea e8 3a 4d 4a 11 3c bf da 97 3b
       0.0042830775 0.0017770133 0.008867812 0.004634231

gnn1_pool.bns.1.weight f4 [32]
000000 2b 12 8a 3f 9a 4f 84 3f 06 da 72 3f a2 51 3d 3f
       1.0786794 1.0336792 0.9486393 0.73952687
000010 5d e0 3f 3f d2 a7 57 3f 1f 81 3e 3f be 90 62 3f
       0.74951726 0.8424045 0.74415773 0.8850211
000020 c0 cb 4d 3f aa a4 87 3f e5 94 aa 3f 05 2d 4e 3f
       0.8038902 1.0597126 1.3326689 0.80537444
000030 56 87 77 3f b7 cd 80 3f 60 3a 80 3f 8c bc 88 3f
       0.9669088 1.0062779 1.0017815 1.068254
000040 83 e5 87 3f b6 0c 7b 3f d4 b3 5a 3f d2 dd 8b 3f
       1.0616916 0.9806627 0.85430646 1.0927069
000050 ce e4 8c 3f e6 3d 57 3f 2a c9 86 3f 0a e5 93 3f
       1.1007326 0.84078825 1.053014 1.1554272
000060 51 2e 72 3f 49 0b 55 3f 6c 2a 68 3f 6b 06 8d 3f
       0.94601923 0.83220345 0.9068973 1.1017584
000070 73 d4 78 3f a6 99 bc 3f 62 4b 85 3f d2 c0 5d 3f
       0.9719917 1.473439 1.041363 0.86622345

gnn1_pool.bns.1.bias f4 [32]
000000 1c 84 8a be 02 c3 36 be 6f 20 61 3b b3 57 4c bc
       -0.27053916 -0.17847827 0.0034351607 -0.012472081
000010 b7 f0 0e be d4 23 9f bd 3d 35 29 bd 94 d5 9f be
       -0.13959013 -0.077705055 -0.041310538 -0.31217635
000020 e1 6d ae be 0f ec 8b 3d 0d 58 e7 be f2 58 eb 3c
       -0.34068206 0.06832134 -0.45184365 0.028728936
000030 da 96 5f 3e 2d cb 18 be f0 dd 84 be b2 aa a4 bd
       0.21834889 -0.14921255 -0.25950575 -0.0804037
000040 32 d7 79 3e 4c 9e e0 be e8 75 22 3c d6 7b 01 3e
       0.24398497 -0.4387077 0.009915806 0.12644896
000050 80 7a 6a be 63 a1 80 bd 47 5d 57 be 59 f5 8a 3e
       -0.22898293 -0.06280782 -0.21031676 0.2714031
000060 43 63 51 be 01 1a ba be ba 87 f7 3d f8 ec 5c be
       -0.20448022 -0.36347964 0.12086435 -0.21574771
000070 de 56 1a ba d3 cd c5 bb c1 3d e1 be d1 e1 91 3c
       -0.0005887578 -0.006036499 -0.43992427 0.017807873

gnn1_pool.bns.1.running_mean f4 [32]
000000 77 11 94 bf a1 f4 f1 3c 1c d2 8a bf 2a 89 a5 bf
       -1.156783 0.029535593 -1.084537 -1.2932484
000010 0e 41 47 bf 8b 9b 60 bf f5 fd 78 bf 34 02 74 bf
       -0.7783364 -0.8773734 -0.9726251 -0.9531586
000020 9c ac ff 3e d0 eb 6e 3e bd 2f 8a bf 07 e5 65 bf
       0.49936378 0.23332143 -1.0795819 -0.89802593
000030 3a 7d 25 bd 36 31 81 3f 80 15 8d bf 94 08 6c bf
       -0.04040263 1.0093143 -1.1022186 -0.9220059
000040 fa dd 40 bf 85 01 63 bf 03 ed c6 be 36 cf fb be
       -0.7533871 -0.88674194 -0.388527 -0.49181527
000050 80 34 de bf fa 10 fa be 07 73 71 3f 30 ba 63 bf
       -1.7359772 -0.48841077 0.9431614 -0.88955975
000060 77 07 0d 3f f6 25 c9 be f1 6b 9e be 38 78 a1 be
       0.55089515 -0.39286774 -0.30941728 -0.31537032
000070 03 17 bb be 9b 7c 99 bf 02 ea 8b be 44 00 84 bf
       -0.36540994 -1.1991152 -0.2732697 -1.0312581

gnn1_pool.bns.1.running_var f4 [32]
000000 b5 5c f1 3e 66 a6 3d 3e 11 58 42 3f f9 00 ce 3e
       0.47141042 0.18520507 0.7591563 0.40235117
000010 9e a2 66 3e 3e e7 73 3f fe 5e 31 3f 71 15 3d 3f
       0.22522971 0.9527472 0.6928557 0.7386084
000020 91 4b 84 3f 9c 0b 0f 3f 26 52 f4 3e e3 cc 38 3f
       1.0335561 0.5587709 0.47718924 0.7218763
000030 63 4b 92 3f a2 17 2a 3f b6 98 87 3f f5 fa 2f 3f
       1.1429256 0.6644231 1.0593479 0.68742305
000040 af 15 cc 3e 3c 34 cf 3e cb 12 42 3f 4c 72 82 3f
       0.39860293 0.4046954 0.75809926 1.0191131
000050 de 14 ad 3e cd a9 c1 3e 40 93 f6 3e 62 3a 42 3f
       0.33804983 0.3782486 0.48159218 0.75870335
000060 9d 52 9e 3e f3 c9 5f 3f 48 56 a8 3f 49 9d 1f 3e
       0.30922404 0.87417525 1.3151331 0.15587343
000070 00 11 41 3f 6f 01 c3 3e d1 f0 99 3e d6 48 cf 3f
       0.75416565 0.3808703 0.3006654 1.6194103

gnn1_pool.bns.2.weight f4 [8]
000000 0f b6 15 40 bd 2d 88 40 f7 3d 3b 40 c2 15 c6 40
       2.339237 4.2555833 2.925657 6.190156
000010 e9 9c 6a 40 72 88 39 40 fa 12 95 40 d5 5c 5b 40
       3.665827 2.898953 4.6585665 3.427541

gnn1_pool.bns.2.bias f4 [8]
000000 b9 33 22 bf e8 ca ab 3f 07 62 d0 3d db b0 9b 40
       -0.6336017 1.3421297 0.10174947 4.865339
000010 13 82 e9 3e b8 eb a7 bd 57 3a c6 3f 38 cb 6b 3e
       0.4560705 -0.08199257 1.5486554 0.2302674

gnn1_pool.bns.2.running_mean f4 [8]
000000 57 fd 8f be 7c a1 f7 be 8b 36 ac bd 91 24 e4 3f
       -0.2812297 -0.4836539 -0.08408841 1.7823659
000010 be 6f 16 be a6 4d 0c bf d8 f6 0f 3f ef 53 3b be
       -0.14691064 -0.5480598 0.5623603 -0.18293737

gnn1_pool.bns.2.running_var f4 [8]
000000 17 8a 98 3f d2 36 ac 3e 3e 71 df 3e 4e d5 11 40
       1.1917142 0.33635575 0.43641084 2.278644
000010 40 23 c5 3e cc 12 8f 3e 1a 23 26 3e 1c b9 51 3e
       0.38503456 0.27944028 0.16224328 0.2048077

gnn1_embed.convs.0.bias f4 [32]
000000 5d 4a 8c be 12 7f 74 bd c6 83 28 bd a4 91 91 bc
       -0.27400485 -0.059691496 -0.041141294 -0.017769642
000010 58 9a e9 bd 80 59 f8 bc bf 7e b1 3d 14 32 da 3d
       -0.11406392 -0.030316114 0.08666753 0.10654083
000020 d0 00 04 bd c7 4f 81 bc 56 db 8f 3d 93 d2 37 be
       -0.032227337 -0.015785111 0.07024257 -0.17951421
000030 cf 72 5b 3d 90 04 42 bd 94 ae c7 bd f3 d1 03 3d
       0.053576287 -0.047367632 -0.09750095 0.032182645
000040 c8 0d 34 bd ad d1 98 3d e2 3a 76 3c a6 72 6c 3d
       -0.043958455 0.074618675 0.015028687 0.057726525
000050 57 39 f3 bb 1f c7 2a be 07 e0 a4 3d 2a 10 08 3e
       -0.007422607 -0.16677521 0.08050542 0.13287416
000060 d9 3f fb bc b2 a9 af bd ba e2 bf 38 0b c4 4b 3e
       -0.030670093 -0.08577289 9.149821e-05 0.19899003
000070 b3 ed 2d be e1 c2 46 bd 0e 7e 58 3e b9 35 80 bd
       -0.16985206 -0.048525695 0.21141836 -0.06260247

gnn1_embed.convs.0.lin.weight f4 [32, 14]
000000 4b cd 67 3e 12 dc bc be d3 e7 55 3d 78 1d 31 bd
       0.22636907 -0.3688665 0.052223038 -0.043240994
000010 00 30 b8 3e 6d fd 1f be 45 92 77 3e 9e 2c bf be
       0.3597412 -0.15624018 0.24176891 -0.37338728
000020 e8 a4 5a bd 43 0b 49 be ea 09 78 be b0 e0 0c bd
       -0.053379923 -0.19633202 -0.24222532 -0.034393966
000030 6d 3d c8 3e 2c ca 9a be c0 a0 8e 3c df 21 36 3e
       0.39109364 -0.3023237 0.017410636 0.17786358
000040 db f8 19 bf 9d e2 ff 3d 25 4e 39 3d c0 80 4c 3e
       -0.6014535 0.12494395 0.04524054 0.19970989
000050 fe 9e 36 3d f9 a3 72 3e b6 fe e7 bd a3 35 b3 be
       0.04458522 0.23695363 -0.11327879 -0.3500186
000060 52 bf 0b 3e 04 65 a2 3e b4 7b a7 be f1 47 5c be
       0.13647202 0.31717694 -0.32711565 -0.21511818
000070 01 ed 23 3e db d9 79 3e 86 4c 33 3e b3 9b 1f 3e
       0.16008379 0.24399512 0.1750966 0.15586738
000080 18 17 f5 be f0 b9 4e be ac 26 aa be bb 62 5c bd
       -0.47869182 -0.20188117 -0.3323263 -0.053805094
000090 d9 31 51 3e 0b 71 b4 be 7c 72 47 3e aa 61 b7 be
       0.20429172 -0.35242495 0.19477266 -0.358167
0000a0 48 e1 f6 3d a0 75 07 be 75 17 86 3d d3 a1 15 bc
       0.12054688 -0.13228464 0.06547443 -0.00913282
0000b0 b4 19 d1 be d1 6e 8b be d5 c0 8d 3e 5a 94 2d bb
       -0.40839922 -0.27232984 0.27686182 -0.002648613
0000c0 f4 6a ab 3e 13 fc 02 be 2e 93 f2 bb 6f 3f 63 be
       0.33480036 -0.12791471 -0.007402799 -0.22192167
0000d0 5a 68 e4 be f6 af 38 3d f7 4f 62 bd b4 e5 ae bd
       -0.44610864 0.045089684 -0.05525204 -0.08539906
0000e0 43 ff cf bd 2a c9 b6 bd 1b b6 3b bf f9 fa 81 be
       -0.10156109 -0.08925088 -0.73324746 -0.2538679
0000f0 a1 0d a4 3e 2c 34 8a be a7 68 ad be aa 54 a1 3e
       0.32041648 -0.2699293 -0.33868906 0.31509906
000100 79 b7 c6 be 70 19 f3 3e 53 c0 d6 3e 67 ee e2 3e
       -0.38811854 0.47480345 0.41943607 0.44322512
000110 23 29 8d 3e 74 a2 89 3e 80 b2 c2 3e 2c 51 80 be
       0.27570447 0.26881754 0.3802681 -0.2506193
000120 55 32 31 3e 8f 67 a2 be aa c3 a8 be 87 52 94 3d
       0.17304356 -0.31719634 -0.3296178 0.07242303
000130 3e 59 34 bd 81 bc ce 3d 1a 35 e3 be bd 0a a5 3d
       -0.04403042 0.10094548 -0.4437645 0.08058689
000140 d5 f4 75 3e 85 90 07 3e b2 cf 99 be 44 56 97 be
       0.24019177 0.13238724 -0.3004127 -0.29558003
000150 23 3e a4 3d b8 81 64 be e8 de 9f be b5 70 84 3c
       0.08019664 -0.22315109 -0.3122475 0.016167024
000160 f3 7f 66 be bf 29 7a 3e c2 47 82 bd 30 28 83 3e
       -0.22509746 0.24429987 -0.06361343 0.25616598
000170 59 9f 90 3e 88 39 7c be 31 78 da bd 66 f6 54 be
       0.28246573 -0.24631321 -0.10667456 -0.20797119
000180 ed 3a 1f be f5 aa b4 3e 6b 09 d7 3d f0 58 85 be
       -0.15549822 0.3528668 0.10499843 -0.26044416
000190 ce b3 98 be 7c a8 7f be f8 32 63 3d d9 c9 25 3d
       -0.2982468 -0.24966615 0.05546853 0.0404757
0001a0 28 45 a2 be 13 44 9c 3e 70 99 40 3e 5d 6b a5 be
       -0.31693387 0.30520687 0.18808532 -0.32308474
0001b0 fa 16 69 be a1 56 cb 3d 8b 5f dc 3c 19 51 17 be
       -0.22762671 0.099286325 0.026901027 -0.1477703
0001c0 13 23 74 be c2 0b 81 3e 2c 85 dd 3d 02 4c 11 3e
       -0.23841505 0.25204283 0.10816416 0.14189151
0001d0 54 f3 d2 3e 4e 67 81 3e cd f0 ba be de 2e 3e be
       0.4120127 0.25274128 -0.3651184 -0.18572566
0001e0 d5 e3 54 be 6b 25 08 3e 1d fe df bc eb 38 f3 3e
       -0.20790036 0.13295524 -0.02734285 0.47504362
0001f0 f3 f7 ee bd 5c a8 a4 be d4 3e 6d be 56 c3 4d 3e
       -0.11668386 -0.32159698 -0.23168498 0.20094046
000200 b2 85 8d be e3 05 37 be cc f9 e5 3e 41 d0 58 3e
       -0.27641064 -0.1787334 0.44917142 0.21173193
000210 c8 a8 d2 3d f2 c8 20 3e 57 6b 68 be 36 68 46 be
       0.10286099 0.15701655 -0.22697197 -0.19375691
000220 ec ca f1 3c 8e cc d6 bc f2 7a 96 be 92 4e 43 be
       0.029515706 -0.026220586 -0.29390675 -0.19072941
000230 a7 ca c5 3d 5f ab 95 be 6e bd 85 3e 07 b6 10 be
       0.096577935 -0.29232308 0.26121086 -0.14131938
000240 8b c7 a4 be df f2 ba be 0b c6 c6 3e 4e 24 6b 3e
       -0.3218349 -0.3651342 0.3882297 0.22963068
000250 55 0d 86 3e af 31 15 3c 8f 8e 04 bf 76 fe 0a bd
       0.26182047 0.009106084 -0.5178003 -0.03393408
000260 2e 8b 89 3e a0 fb 89 3e 39 49 98 be b6 c7 2d 3e
       0.26863998 0.26949787 -0.29743364 0.16970715
000270 78 05 3f bd 6d 39 91 3d 81 0c f1 be 2e 84 e6 be
       -0.046636075 0.07091031 -0.47079852 -0.4502272
000280 93 dd 1f 3e a3 3b 14 be 01 04 0c 3e 87 98 77 3e
       0.15611868 -0.14475875 0.13673402 0.24179278
000290 a4 d7 ad be 12 8e bd 3e 54 b1 b0 3e a2 18 0e 3d
       -0.33953583 0.37022454 0.3451029 0.03469146
0002a0 fa e9 6a 3e 45 19 c0 3e c1 2c 95 3e 74 c8 8a be
       0.22940817 0.3751928 0.29135707 -0.2710606
0002b0 4d a8 94 3e 62 56 9f 3e 31 cd 8b be dd 10 40 bc
       0.29034653 0.31120592 -0.27304986 -0.0117227705
0002c0 bc c5 c1 bc 13 f7 0b bf 89 21 2b be 0e 0b 02 bf
       -0.023653857 -0.5467388 -0.16712011 -0.5079812
0002d0 f0 72 42 3e 49 0b 76 be a5 44 ae be 60 fc c2 3d
       0.18989158 -0.24027742 -0.34036747 0.09520793
0002e0 7c d4 b9 3e 36 5b 23 3e 3e 1b 95 3e 43 7a 18 3e
       0.36294925 0.15952763 0.29122347 0.14890389
0002f0 23 8d a8 be 82 a2 c9 be 1e 09 01 bf 80 26 a6 bc
       -0.3292018 -0.39381796 -0.50404537 -0.02028203
000300 40 0e 53 be e1 17 88 bd c2 59 07 be 94 0b 55 be
       -0.20610905 -0.066451795 -0.13217834 -0.20805198
000310 03 6a 97 3e 0e 5a 1d be c0 77 e0 3d 35 da d5 bc
       0.29573068 -0.15366384 0.109603405 -0.026105026
000320 e4 b5 d7 be a8 53 c1 3e 3d 93 85 3e 89 ff a6 be
       -0.4213096 0.37759137 0.26088896 -0.32616833
000330 b3 82 09 3e 51 ba f5 be 37 d2 f1 bd 0a 72 d8 be
       0.13428764 -0.4799371 -0.118076734 -0.42274505
000340 c8 fe b5 be b7 da af 3c 06 55 b2 bd 9f 92 91 be
       -0.35545945 0.021466596 -0.08707623 -0.28432176
000350 b6 75 8b 3d c1 3c 6b ba 42 51 48 be 57 46 7b 3e
       0.06809561 -0.00089735916 -0.19562247 0.24538551
000360 06 69 26 3e 5e b7 a3 3e 02 fe 53 3e 64 d1 c7 be
       0.16251001 0.31975836 0.20702365 -0.3902694
000370 0f 91 8a 3d 3a 15 de be 99 3f c1 3d f1 ca bf be
       0.06765949 -0.4337557 0.094359584 -0.3745952
000380 48 1c 94 be bd 51 40 3e 32 a3 5a be f3 3c 76 3e
       -0.28927827 0.1878118 -0.21351317 0.24046688
000390 73 97 fb bd 1c 32 7f be 23 9b 08 bf 57 c9 52 be
       -0.12284746 -0.24921459 -0.5336172 -0.20584618
0003a0 a7 e8 07 be 72 8d 6e bd 30 f0 cf bd a8 6f 85 bd
       -0.13272344 -0.05824036 -0.10153234 -0.06515437
0003b0 6e d6 e2 bc ce 38 a4 3e ce a4 05 be 16 76 8d 3e
       -0.027690139 0.3207459 -0.13051149 0.27629155
0003c0 45 46 80 be 5c 05 d2 bd 9f c3 cf be cb 1d 6b 3e
       -0.2505361 -0.102549285 -0.40578935 0.22960584
0003d0 06 9c 58 bd 13 ff 39 3e 3d b8 1f be bf c1 e7 3e
       -0.05288317 0.1816371 -0.15597625 0.45265004
0003e0 64 91 aa 3e 68 1f 98 bd fe 44 83 3e 9d e0 8b bd
       0.3331405 -0.07427865 0.25638574 -0.06829951
0003f0 48 1d a9 3d d5 95 9c 3e fc 9b 22 3e b1 1e b7 3e
       0.08257538 0.30583063 0.15879816 0.35765603

gnn1_embed.convs.1.bias f4 [32]
000000 98 20 16 bd 58 d9 8a bc b7 65 0e 3d 1e 6e 50 bd
       -0.036652178 -0.01694934 0.03476497 -0.050886266
000010 a0 2b a1 bd 90 c4 ce bd d9 47 09 3e c3 10 0d be
       -0.07869649 -0.10096085 0.13406314 -0.13775925
000020 c3 89 2e 3c b4 e5 60 bc 7f f8 94 3d ec 69 ee bd
       0.010652962 -0.0137266405 0.07273959 -0.11641297
000030 31 88 08 3d 94 aa 48 bd 89 0d 13 3c a0 65 2e bd
       0.033333007 -0.0489908 0.008975395 -0.042577386
000040 a8 25 4c bc 54 eb 09 3d be 38 0e bc 72 9e b0 bc
       -0.01246015 0.033671692 -0.008680521 -0.021559928
000050 40 ff 40 bd d7 ad 7f bd 69 53 9a 3d 1e 61 2b bd
       -0.047118425 -0.062421646 0.075354405 -0.041840665
000060 d0 0a 1c bd 7c b8 88 bd 6b b3 98 bd 12 3e a9 bd
       -0.03809625 -0.066758126 -0.07456096 -0.08263792
000070 a9 8e 41 bc 8f 38 91 3d c7 2b 37 3d e7 f5 8a bd
       -0.011813798 0.07090866 0.044719484 -0.067851834

gnn1_embed.convs.1.lin.weight f4 [32, 32]
000000 fd 4d 6c be 43 50 8a be 6f 03 1f 3e 33 18 b0 3e
       -0.23076625 -0.2701436 0.15528654 0.34393463
000010 5c 9d 2e be 69 23 94 3c 2b 60 70 3d b9 f9 f7 3e
       -0.17052215 0.018083291 0.058685463 0.4843271
000020 49 60 bc be 2a 6e 3f be 52 a0 16 bc b8 75 44 be
       -0.3679221 -0.18694368 -0.009193497 -0.19185531
000030 b2 73 86 3e 44 e4 85 3e f3 51 1c bd 47 e1 31 3e
       0.26260144 0.26150715 -0.03816409 0.17371093
000040 bd 8a 94 be aa 04 3f be 90 93 db 3d 08 19 03 be
       -0.290121 -0.18654123 0.10721505 -0.12802517
000050 b4 f5 7d 3e 0e 47 9f 3d d2 d4 34 be 12 c1 5d 3d
       0.2480076 0.077772245 -0.1765931 0.054139204
000060 94 56 8e 3e 5c d9 a6 be 39 da 7a 3c e0 ef c0 3c
       0.2780043 -0.32587707 0.015310817 0.023551881
000070 ba 66 62 bb 08 a6 38 3d b3 64 a2 be 15 74 4b 3e
       -0.0034546093 0.045080215 -0.31717452 0.198685
000080 46 b1 ab 3e af 8e 06 be 57 03 7d bc 62 98 31 be
       0.33533686 -0.13140367 -0.015442691 -0.17343286
000090 17 20 a3 be 2b 74 2f 3e 91 90 d4 bd dd 63 00 3e
       -0.3186042 0.17134158 -0.10379136 0.12538095
0000a0 e2 ce 2e be c5 70 b6 3d 4c 56 8f 3c 5f 3b 93 3e
       -0.17071107 0.08908228 0.017497204 0.28756234
0000b0 26 de 57 be 75 c6 28 be 43 48 b9 3e c1 24 84 be
       -0.21080837 -0.16481955 0.36187944 -0.2580929
0000c0 6f 02 2f 3c 1a 14 87 3e 1c d0 3a be 51 9c db 3d
       0.010681733 0.26382524 -0.1824345 0.10723174
0000d0 a9 f1 b3 3d 82 8a 39 3e 5f ce 85 be 8f 26 b1 be
       0.087863274 0.18119243 -0.2613401 -0.3459973
0000e0 6d 4f 7c be 62 e5 a2 3e c7 03 90 3e 8d 1a cc 3e
       -0.24639674 0.3181563 0.28127882 0.39864007
0000f0 16 1c 73 3e c2 f1 23 bd bf 4c c4 3d b9 2f ea bd
       0.23741183 -0.04002548 0.09584951 -0.114348836
000100 97 a6 db 3d c2 40 84 be 7c 91 9d 3e be b1 4d 3e
       0.10725134 -0.25830656 0.30775058 0.20087335
000110 c1 bf 81 3e 2f e5 60 be 88 5d 01 3e 0a b9 4c 3e
       0.2534161 -0.21962427 0.12633336 0.19992462
000120 81 1b 8f bc 57 61 05 3e b2 6d 84 3d 32 96 52 3c
       -0.01746917 0.13025413 0.06466235 0.012853192
000130 2f 66 96 3e 0b 12 30 3c 99 f0 bb bc 41 14 48 bc
       0.29374835 0.010746489 -0.022941874 -0.01221186
000140 80 d5 bb be 24 d0 31 be 89 9a 2d be 17 ef be 3d
       -0.36686325 -0.17364556 -0.16953482 0.093229465
000150 e5 6a 46 3e c0 a7 cf bd bf cc 8a 3e 78 7d 29 3e
       0.19376715 -0.10139418 0.27109334 0.16551769
000160 44 0e a8 3d 0b fd 37 be fd 6d e7 3e 53 d8 11 be
       0.08205846 -0.17967622 0.45201102 -0.14242677
000170 01 29 5c be c7 1a 06 be 91 bc 01 3e bb 5e 7c be
       -0.21500017 -0.13096152 0.12669589 -0.24645512
000180 52 f8 82 be 97 cf 21 3e 7e 24 6e 3e 4d 2f 15 be
       -0.25580078 0.15801845 0.23256108 -0.14568825
000190 53 dd c1 3e 2c 0c 94 3d 63 e0 79 be 1c 8f 65 3e
       0.3786417 0.07228884 -0.24402003 0.22417873
0001a0 a8 fe 88 3e f7 75 85 3e da 2a f0 bd 19 bc c2 3e
       0.26756787 0.26066563 -0.11726923 0.38034132
0001b0 90 82 a7 3c 07 26 c7 bd 68 73 26 3e be 1f a2 3d
       0.020448 -0.0972405 0.16254961 0.079162106
0001c0 a5 c2 af 3c 9c 4f a2 3e 94 e1 b9 bd 08 4c e2 3d
       0.021455118 0.31701362 -0.09076229 0.11049658
0001d0 c1 13 16 be 10 a9 49 3e c2 fc 05 3e ba b6 78 be
       -0.14655973 0.19693398 0.130847 -0.24288455
0001e0 77 8b d9 3e 7c 7e af be b2 dd 8f be 8f 03 dd bd
       0.42489216 -0.34276187 -0.28098828 -0.107916944
0001f0 46 04 07 bd 1b 8a cb 3e 66 a6 c4 3d fb 6b 85 3e
       -0.03296306 0.39753804 0.096020505 0.26058945
000200 8a e5 93 be d4 1b a3 3c b4 68 69 3e f7 48 16 3d
       -0.28886062 0.01991073 0.22793847 0.03669068
000210 89 69 25 be f3 a2 47 be 01 03 0a be d8 2b 13 bf
       -0.1615354 -0.19495754 -0.13477708 -0.57488775
000220 06 66 48 be a0 23 7d 3d ab aa ae bd e0 19 95 be
       -0.19570169 0.061801553 -0.08528646 -0.29121304
000230 38 05 9b 3c 13 6d 8c bd 82 51 41 3e 5a 92 4b 3d
       0.018923387 -0.06856742 0.18878749 0.04970012
000240 b2 87 6d bd 93 75 f9 be f9 89 3b 3e 7b e0 35 3d
       -0.057990737 -0.48722515 0.18314351 0.044403534
000250 bd 11 e1 bd 73 f5 93 3e a8 72 80 3d b0 5a 16 be
       -0.109897114 0.288982 0.06271869 -0.14683032
000260 fe a6 ab be 96 e2 d6 bd 6a 7f a4 bd aa d2 8d be
       -0.33525842 -0.104924366 -0.08032115 -0.27699786
000270 84 98 07 be 69 0d de be 28 96 ed 3d 71 90 c0 3d
       -0.13241774 -0.43369606 0.11600906 0.0940255
000280 01 ef 78 be 22 2c 8d 3c fb 0e 96 bc 86 3b 93 be
       -0.24309923 0.017232958 -0.01831769 -0.2875635
000290 bf 99 86 be f4 f5 33 be e1 21 94 3e 30 a4 32 3e
       -0.26289174 -0.17574292 0.28932098 0.17445445
0002a0 12 39 7b bb 36 43 f4 bc f7 62 2b 3e 0f d5 e8 bc
       -0.0038333577 -0.029817205 0.16736971 -0.028421907
0002b0 39 b4 7c 3d 0b 98 e5 3c ef a5 65 3e 34 75 21 3d
       0.06169531 0.028026601 0.2242658 0.039418414
0002c0 46 77 a3 3e 20 35 34 be bf 82 77 3d 12 19 0a 3e
       0.31926936 -0.1759839 0.060427424 0.13486126
0002d0 da 77 9f 3b 40 6c 88 be 4d 42 5f be fe 1f 34 bd
       0.0048665823 -0.26645088 -0.21802635 -0.043975823
0002e0 c7 ff 28 be f7 66 8c be 78 61 97 3d ae fb 6a 3d
       -0.16503821 -0.27422306 0.073916376 0.057368927
0002f0 19 46 c3 3e 47 db 9c 3e 21 a5 26 3e 82 52 fc bd
       0.38139418 0.30636045 0.16273929 -0.123204246
000300 91 f8 73 3e ea d4 dc bd 5b 59 cb bc 7a f8 84 be
       0.2382529 -0.10782798 -0.024822881 -0.25970823
000310 dd 6f 68 3e 15 ed 8d 3d 42 e4 84 bd b5 96 4f be
       0.22698922 0.069299854 -0.06488849 -0.20272334
000320 a4 92 80 3e 0f ae 27 bd c1 ed 7c be ac d0 46 be
       0.25111878 -0.04093748 -0.24700071 -0.1941554
000330 5a b4 72 3d ef 72 b2 bc ff ce 93 3e 40 ee 17 bd
       0.059254028 -0.02178332 0.28868863 -0.037092447
000340 e7 ba c2 3e 23 be a7 be bc 1d 41 be dc 05 15 3d
       0.3803322 -0.3276225 -0.18858999 0.03638254
000350 7b e6 0f 3e 36 c7 6a 3d d9 0d 6f be a6 93 dd bd
       0.14052765 0.05731889 -0.23345126 -0.10819177
000360 17 fd b2 3e d4 91 12 3d 3b 82 51 be b2 dc 5c 3e
       0.34958717 0.035783604 -0.20459835 0.21568564
000370 38 db e2 3d 1d 27 53 3d c0 5e fb 3d 98 1c b2 3d
       0.11076969 0.051550973 0.122739315 0.0869686
000380 0d d2 6c 3e cd a6 a7 bd ae a7 ec 3c f0 9a e7 bd
       0.23127003 -0.081861116 0.02888855 -0.11308849
000390 0b a7 2f be 5d 61 8d be 32 25 1c 3e 99 72 8c be
       -0.17153566 -0.27613345 0.15248564 -0.2743118
0003a0 8c 6a 31 bc e8 dd 19 be f3 0d 98 be fa cc b6 bd
       -0.010828625 -0.15026057 -0.29698142 -0.08925815
0003b0 3a 5d 28 be c4 f9 0e be 23 25 5d be d5 e4 a6 3e
       -0.16441813 -0.13962466 -0.21596198 0.3259646
0003c0 f1 8b 02 be 6c cb da 3e b0 d4 94 3e 7e c0 58 3e
       -0.12748696 0.42733324 0.29068518 0.2116718
0003d0 35 b1 57 3e 14 9c 3b be a3 ef 38 3e 29 27 85 3d
       0.21063693 -0.18321258 0.18060164 0.0650161
0003e0 7d 8e d4 3e 95 ea 21 3e 61 89 8f bd 29 5a 0a 3d
       0.4151496 0.15812142 -0.07008625 0.03377739
0003f0 f3 10 35 be 51 78 57 be 81 f0 bd bc 53 94 e7 be
       -0.17682247 -0.21041991 -0.02318597 -0.4523035

gnn1_embed.convs.2.bias f4 [32]
000000 37 09 ca bc 18 d4 2d bd 8d b9 9a 3b 91 2b bc bd
       -0.024662597 -0.042438596 0.0047218264 -0.09187997
000010 af fc 7e 3d 44 33 03 3d 34 2e d9 3c d0 1f 56 bd
       0.062252697 0.032031313 0.02651129 -0.052276433
000020 53 1f 38 3d 2e 03 23 3c ca f5 e4 bc c9 f7 99 3c
       0.044951748 0.009949489 -0.027949233 0.018794911
000030 87 23 00 bb 53 2e 40 3d c5 72 e5 3d cb cf 1f bd
       -0.0019552426 0.04691918 0.11203531 -0.039016526
000040 48 12 19 3c 5b ce df bc 07 1f 66 3c 6a 39 3a 3d
       0.0093427375 -0.027320078 0.014045483 0.04546491
000050 eb 62 80 3d 21 4a b5 bc 4d ba 93 3c f9 59 d0 bc
       0.06268867 -0.022130074 0.018033171 -0.025433527
000060 22 2b 3d bd 86 38 c2 3c 4d 5e 37 3d 32 05 e8 3d
       -0.046183713 0.023708593 0.044767667 0.11329116
000070 bb f9 8a bd 1f c7 f9 bb c9 9a 46 3d 23 d2 eb bc
       -0.067859136 -0.007622614 0.04848746 -0.028786724
