model_state_dict.pth (torch, 35183 bytes, 20 tensors)

conv1.bias f4 [32]
0	0xbc575cb7	-0.013144664
1	0xbc2daae4	-0.0105998255
2	0xbdb6f0c2	-0.0893264
3	0xbd792a00	-0.06083107
4	0x3c34b31b	0.01102903
5	0xbbb4587a	-0.0055037113
6	0x3ae0c112	0.0017147383
7	0x3e05642f	0.13026498
8	0x3c706005	0.01467133
9	0xbc963b11	-0.018338712
10	0x3d58fd41	0.052975897
11	0xbb8ac890	-0.0042353347
12	0x3c1e76fc	0.009671923
13	0xbc008dd6	-0.007846316
14	0xbc89fa81	-0.016843082
15	0x3d820cfc	0.06350133
16	0xbd31a47e	-0.043369763
17	0x3d5eab9c	0.05436288
18	0xbd5d3f67	-0.054015543
19	0xbd8fde48	-0.07024819
20	0x3ceef213	0.029168164
21	0x3d728cc8	0.05921629
22	0x3c84db34	0.016217805
23	0x3daf0ac7	0.085469775
24	0x3d46374d	0.048392583
25	0xbb90ac88	-0.0044150986
26	0x3cde64f0	0.02714774
27	0x3deb0d0f	0.114771
28	0x3cc409dc	0.023930483
29	0x3ca285ae	0.019839134
30	0xbdbe3b05	-0.09288601
31	0xbbdd111e	-0.0067464253

conv1.lin.weight f4 [32, 14]
0	0xbe8ba7e5	-0.2727653
1	0xbe6efd62	-0.23338845
2	0x3e37bfc9	0.17944254
3	0x3db82392	0.089911595
4	0x3ebaa75e	0.36455816
5	0x3f11fe69	0.57028824
6	0x3cad05f7	0.021121008
7	0xbf049edc	-0.518049
8	0xbf171a52	-0.59024537
9	0x3e30c15b	0.1726126
10	0x3e0ea29f	0.13929223
11	0xbe4688b9	-0.19388093
12	0x3eb3b4f6	0.35099
13	0xbd93d0d9	-0.07217569
14	0xbdd20c55	-0.102562584
15	0x3d69b059	0.057052944
16	0x3f3d3d28	0.7392144
17	0xbee314c6	-0.44351786
18	0xbf2f6144	-0.6850779
19	0x3efa3b69	0.4887345
20	0xbf4cfc50	-0.800725
21	0x3ecb81d4	0.39747488
22	0xbf532299	-0.82474667
23	0x3fb4b2dc	1.4117084
24	0x3ee7ca5a	0.4527157
25	0x3f7d28a5	0.98890144
26	0x3f05f5f1	0.523284
27	0xbe0db75f	-0.13839482
28	0x3e7c7f5d	0.2465796
29	0xbe877006	-0.26452655
30	0xbf379c4e	-0.7172288
31	0x3e99e038	0.30053878
32	0xbe396366	-0.18104324
33	0xbe8527f4	-0.26007044
34	0xbf2ea4de	-0.6822032
35	0xbee45e95	-0.4460341
36	0xbe935f10	-0.28783464
37	0xbdda64f5	-0.10663787
38	0x3c1d15b5	0.009587695
39	0xbe0b0ac9	-0.13578333
40	0x3d59f517	0.05321225
41	0xbcac81ce	-0.02105799
42	0x3e95b7db	0.29241833
43	0xbe17ff19	-0.14843406
44	0x3de6c6de	0.112684
45	0x3e613463	0.2199264
46	0x3ed874a4	0.4227649
47	0x3f0bd6c9	0.5462461
48	0x3c9485a9	0.01813014
49	0xbf101f8a	-0.56298125
50	0xbf639c3c	-0.8891027
51	0x3f264a43	0.64957064
52	0x3f0b8c8c	0.5451133
53	0xbdc09bc2	-0.094047084
54	0x3f7229f4	0.94595265
55	0xbeade99a	-0.33967286
56	0x3eaa6638	0.33281112
57	0x3df53625	0.11973218
58	0xbf0794a6	-0.52961195
59	0xbf562bf1	-0.836608
60	0xbe9a90ba	-0.30188543
61	0x3e982e73	0.29722938
62	0xbf0910ad	-0.5354107
63	0xbf1c2008	-0.60986376
64	0x3ea3d1fc	0.31996143
65	0xbe22162d	-0.15828772
66	0xbe67f75e	-0.22652957
67	0xbd0318c8	-0.032006055
68	0x3dc18c8c	0.09450635
69	0xbd1eba21	-0.038751725
70	0x3eeb433e	0.4594974
71	0xbfd6541a	-1.6744416
72	0x3e1d5b2c	0.1536681
73	0x3eb6edbc	0.35728252
74	0x3d8f70af	0.070039146
75	0xbef4b844	-0.47796834
76	0xbe9d54c8	-0.30728745
77	0x3dff8346	0.1247621
78	0xbe815732	-0.25261837
79	0x3eb2fcae	0.34958404
80	0x3ecc3ebb	0.3989161
81	0xbbd35e6f	-0.0064504663
82	0xbce58bdb	-0.02802079
83	0xbc81b0ac	-0.015831314
84	0xbd722da6	-0.059125565
85	0xbf345a41	-0.70450217
86	0x3f11eb31	0.569995
87	0xbf28dd8e	-0.65963066
88	0x3ce0c091	0.027435573
89	0xbf92fd6b	-1.1483587
90	0x3f06913c	0.5256536
91	0x3bcd24e8	0.006260503
92	0x3e17158f	0.14754318
93	0x3cc7ec45	0.024404654
94	0xbe135058	-0.14386117
95	0xbe46cd4f	-0.19414257
96	0xbcb16684	-0.021655329
97	0x3f265353	0.6497089
98	0x3e86f538	0.26358962
99	0xbe2879f1	-0.16452767
100	0xbeda6a60	-0.42659283
101	0xbf9272f4	-1.1441331
102	0x3f0cf877	0.5506663
103	0xbd0ae31e	-0.033908002
104	0xbe240dd7	-0.16020904
105	0xbe0b22f5	-0.13587554
106	0x3e8c874e	0.2744698
107	0xbf72386c	-0.9461734
108	0xbe0b2d8b	-0.13591592
109	0xbe1171fb	-0.14203636
110	0x3e99c3b7	0.3003213
111	0x3d939e1f	0.072078936
112	0xbf042d4b	-0.5163161
113	0x3ea3776a	0.31927043
114	0x3f6557a4	0.89586854
115	0x3e8b57e1	0.27215484
116	0x3dd4e518	0.10395259
117	0x3d878eb0	0.06619012
118	0x3f87e8b8	1.0617895
119	0x3eb87555	0.36027017
120	0xbef03806	-0.46917742
121	0xbe43b086	-0.19110307
122	0x3e9084b9	0.2822626
123	0xbde6e051	-0.11273254
124	0x3f3390c8	0.70142794
125	0x3f3b1fe7	0.73095554
126	0x3e88a199	0.2668579
127	0x3ebede3b	0.37278923
128	0x3f0047c0	0.5010948
129	0xbe3bb025	-0.18328913
130	0xbe5de3fd	-0.21669002
131	0xbeeee7b9	-0.46661165
132	0x3ddbd2d1	0.107335694
133	0x3e9bcace	0.30428165
134	0xbefbc2e0	-0.49172115
135	0x3ee073c6	0.43838328
136	0x3f04bb6f	0.518485
137	0xbc65255d	-0.013985959
138	0xbd9cb1ae	-0.07651077
139	0x3f0bf12e	0.54664886
140	0xbe7902a8	-0.2431742
141	0xbda1305c	-0.07870552
142	0xbf63d37c	-0.88994575
143	0x3eb4017b	0.3515738
144	0xbf76b5f6	-0.963714
145	0x3e67668d	0.22597714
146	0x3f175e9f	0.59128755
147	0xbf30ee9c	-0.6911409
148	0x3e2c50ae	0.16827652
149	0x3f5a79c8	0.85342073
150	0x3ef85713	0.48503932
151	0xbddce9c7	-0.10786777
152	0x3f104976	0.5636209
153	0x3fb8c2da	1.4434464
154	0x3ea1be0b	0.31590304
155	0x3ee41971	0.4455066
156	0x3f039162	0.5139371
157	0x3c451e40	0.012031138
158	0xbf27c2cc	-0.6553161
159	0xbe72e89f	-0.2372155
160	0x3e0f79df	0.14011334
161	0x3d404e23	0.046949517
162	0x3e92e3ae	0.2868933
163	0xbcb9a20c	-0.022660278
164	0xbe7213ff	-0.2364044
165	0xbe4622ef	-0.19349264
166	0xbe2a8a71	-0.16654374
167	0x3f0688ba	0.5255238
168	0xbe504d27	-0.20341931
169	0x3e9d753f	0.30753514
170	0xbd23a957	-0.039956417
171	0xbe4857d5	-0.19564755
172	0x3ef729d8	0.48274112
173	0x3f0a7257	0.5408072
174	0xbec66f91	-0.38756993
175	0xbeb6c9a4	-0.35700715
176	0x3c4b200f	0.01239778
177	0x3f2adc02	0.66741955
178	0x3f2ef617	0.68344253
179	0xbd2e387a	-0.04253433
180	0xbe8b0422	-0.2715159
181	0x3f8ee285	1.1162878
182	0x3e047b90	0.1293776
183	0xbec3246a	-0.3811372
184	0xbe4e667a	-0.20156279
185	0x3e9cef54	0.30651343
186	0xbdf6c9e5	-0.12050227
187	0xbe0f0bc4	-0.13969332
188	0x3d587194	0.05284269
189	0x3e8cffe2	0.27538973
190	0x3ebe1af6	0.37129945
191	0xbdc90a85	-0.098164596
192	0x3e186ea1	0.14885952
193	0x3e6d0ae2	0.23148683
194	0xbe6061c0	-0.21912289
195	0xbe804e1d	-0.25059596
196	0xbe0d7fe4	-0.13818318
197	0x3db46345	0.08807997
198	0x3f0f1637	0.5589327
199	0xbf153b13	-0.58293265
200	0xbe6e0eb8	-0.23247802
201	0xbfa1ef9e	-1.265125
202	0x3d8b3fdc	0.067992896
203	0x3ebc6184	0.3679315
204	0xbef61142	-0.48060042
205	0x3f3734e2	0.7156507
206	0xbe7b4da1	-0.24541332
207	0xbea10bf1	-0.31454423
208	0xbcec85b8	-0.028872356
209	0x3f390683	0.7227556
210	0xbf37a314	-0.7173321
211	0x3c61a484	0.013772134
212	0xbd0706af	-0.03296536
213	0x3e9a64d9	0.30155066
214	0x3f18da22	0.59707844
215	0xbdd46d22	-0.10372378
216	0xbe68cfc1	-0.22735502
217	0xbe60a479	-0.21937741
218	0xbf4d18db	-0.8011605
219	0x3d907e55	0.07055346
220	0xbeb7539a	-0.3580597
221	0x3f36b87c	0.7137525
222	0xbdb2b252	-0.08725418
223	0x3ce6e8bb	0.028187146
224	0x3eea88dd	0.45807543
225	0xbf1e6494	-0.6187222
226	0xbec0aac3	-0.3763028
227	0xbe8f5a1b	-0.27998433
228	0xbe0329ef	-0.12808965
229	0x3edeb05a	0.4349392
230	0xbf4a6ec1	-0.7907525
231	0x3e2ef7d0	0.1708672
232	0xbf45bc5d	-0.77240545
233	0xbe0dcacd	-0.13846894
234	0xbea89a2f	-0.32930133
235	0xbe55eaa6	-0.20890293
236	0x3f5c9618	0.86166525
237	0xbda9ba5f	-0.082875006
238	0xbe32aecc	-0.17449492
239	0xbec954d5	-0.39322534
240	0xbf53da44	-0.8275492
241	0x3ee25ee0	0.4421301
242	0xbedf75a0	-0.43644428
243	0x3eddc7df	0.43316552
244	0xbf5f08ed	-0.87122995
245	0xbeefe301	-0.46852878
246	0x3eef4947	0.46735594
247	0x3f5473e2	0.82989323
248	0x3e49ab4f	0.19694255
249	0xbe63b95b	-0.22238676
250	0x3eaa96b1	0.33318093
251	0xbe15797b	-0.14597122
252	0x3e51e88c	0.20498866
253	0xbdb1d483	-0.086831115
254	0xbd504959	-0.0508512
255	0xbd7edc77	-0.06222197

conv2.bias f4 [32]
0	0x3cb0f3ef	0.021600692
1	0x3e0599a1	0.13046886
2	0x3cbe2c62	0.023214523
3	0xbdbab07b	-0.09115692
4	0x3de5074b	0.11183032
5	0x3e12aad0	0.14322972
6	0xbcf19750	-0.029491097
7	0xbe14012e	-0.14453575
8	0xbdb52ab3	-0.08846035
9	0xbd4325e9	-0.047643576
10	0xbb696587	-0.0035613494
11	0xbddd7340	-0.10812998
12	0xbc4516a4	-0.012029324
13	0xbe1e8aad	-0.15482588
14	0xbbefb2f1	-0.0073150326
15	0x3c04661a	0.008080984
16	0x3d7d443b	0.061832648
17	0xbd625566	-0.055257224
18	0xbd692296	-0.05691775
19	0xbd9dd37c	-0.07706353
20	0xbbf84619	-0.0075767157
21	0xbb9cb8ad	-0.0047827573
22	0x3d17e9b9	0.03708813
23	0x3ce59019	0.028022813
24	0xbcca9482	-0.024729017
25	0xbddfb65d	-0.10923455
26	0x3ca8605a	0.020553757
27	0xbd8632ea	-0.0655268
28	0xbdede72a	-0.11616357
29	0xbd9b9884	-0.075974494
30	0x3c1951e8	0.009357907
31	0x3c6eb260	0.014568895

conv2.lin.weight f4 [32, 32]
0	0x3e0a90cf	0.13531803
1	0xbef1ebf9	-0.47250345
2	0x3e5d523d	0.21613403
3	0xbd69a6c8	-0.05704382
4	0x3eb32df2	0.3499599
5	0xbe9ec224	-0.31007493
6	0xbd6491bb	-0.055803042
7	0x3f1b0f77	0.6057047
8	0x3cd4b8c6	0.025967013
9	0x3d110b98	0.035411447
10	0xbe2e3ad2	-0.17014626
11	0xbe1df5aa	-0.15425745
12	0xbe959070	-0.2921176
13	0xbe898857	-0.26861832
14	0xbe106c25	-0.14103754
15	0x3e8731a0	0.26405048
16	0x3efc7c14	0.49313414
17	0xbe2f1574	-0.17098027
18	0x3e872465	0.26394954
19	0x3e161023	0.14654593
20	0x3ee4fdc5	0.4472486
21	0xbddb6250	-0.10712111
22	0x3dca0289	0.09863765
23	0x3e7b53ab	0.24543636
24	0x3eddee25	0.43345752
25	0xbeaf59f9	-0.3424833
26	0x3ec31294	0.3810011
27	0x3da5d78e	0.080977544
28	0xbea962ad	-0.33083096
29	0xbeb38df8	-0.3506925
30	0x3dc677c4	0.09690812
31	0x3d6f8bcf	0.05848294
32	0xbed97f95	-0.4248015
33	0x3e575a7d	0.21030612
34	0xbd1fcbb6	-0.039012633
35	0x3d9b3e47	0.07580238
36	0xbd1a3c65	-0.037655253
37	0xbe813ab4	-0.252401
38	0x3f03a40b	0.51422185
39	0xbe14879b	-0.14504854
40	0x3eab0a8a	0.33406478
41	0x3eb2ebe6	0.349456
42	0xbe96a405	-0.29422012
43	0x3edaf541	0.4276524
44	0xbd07ee31	-0.03318614
45	0x3dec97c4	0.115523845
46	0x3e2bd89b	0.16781847
47	0xbe952d82	-0.29136282
48	0xbf79e257	-0.9761099
49	0x3da959e9	0.08269102
50	0xbd042436	-0.032261096
51	0xbd1df2a5	-0.038561482
52	0xbd40c2ab	-0.04706065
53	0x3d3436d2	0.043997593
54	0xbead2531	-0.33817437
55	0xbdee8b0c	-0.11647615
56	0xbeb3d047	-0.3511984
57	0xbd7768c1	-0.060402635
58	0x3e0661b6	0.13123211
59	0xbf301f70	-0.6879797
60	0x3b1c5337	0.002385331
61	0x3e1d1bf8	0.153427
62	0xbc1694af	-0.009190722
63	0x3ed231a7	0.41053507
64	0xbc4b1396	-0.012394806
65	0xbe2c9736	-0.16854557
66	0xbea4fad6	-0.32222623
67	0xbeda57eb	-0.426452
68	0x3f020875	0.50794154
69	0xbc781a12	-0.015142934
70	0xbd884457	-0.0665366
71	0x3edb34b1	0.42813638
72	0x3dde7a94	0.10863224
73	0x3e17b21e	0.1481404
74	0xbec19113	-0.37805995
75	0xbdb104ce	-0.086434945
76	0xbeedbc04	-0.46432507
77	0xbe4b4fa4	-0.19854599
78	0xbe1bf533	-0.15230255
79	0x3e2a8eff	0.16656111
80	0x3ef903e4	0.4863578
81	0xbe9c7ebe	-0.30565447
82	0x3d9c809c	0.07641718
83	0xbe68d743	-0.22738366
84	0x3e211914	0.15732223
85	0x3d53733e	0.051623575
86	0xbe5b3fa9	-0.21411003
87	0x3da38db4	0.07986012
88	0x3ecfcdc7	0.40586683
89	0xbeea5f79	-0.45775965
90	0x3db6f168	0.08932763
91	0xbe655395	-0.22395165
92	0xbe3e59a8	-0.18588889
93	0xbe9c7ec3	-0.30565462
94	0xbdb97dba	-0.090571836
95	0x3e402224	0.18763024
96	0x3e3cb1e9	0.18427242
97	0xbe46e545	-0.19423397
98	0xbe36b9a5	-0.17844255
99	0xbe993d0d	-0.2992939
100	0x3e69e1f0	0.22840095
101	0x3dc2ae5e	0.09505914
102	0xbeddccc7	-0.43320295
103	0xbe376dac	-0.1791293
104	0xbe074810	-0.13211083
105	0xbe10371a	-0.1408352
106	0x3c40c1af	0.011764928
107	0xbe6d38db	-0.2316622
108	0xbecaf945	-0.39643303
109	0x3e59405e	0.2121596
110	0xbeb3ac47	-0.35092375
111	0xbec7cfd0	-0.39025736
112	0x3dfa748e	0.12229262
113	0xbe60c07c	-0.21948427
114	0xbd60c5db	-0.05487619
115	0xbe23aa53	-0.15982942
116	0x3e2d5565	0.16927107
117	0xbe63aeeb	-0.22234695
118	0xbe236354	-0.1595586
119	0x3dda3d3c	0.10656211
120	0x3e405664	0.18782955
121	0xba8443af	-0.0010090972
122	0x3ddf557b	0.10904976
123	0x3e0febd1	0.140548
124	0xbeaa3dbd	-0.33250228
125	0xbeaab467	-0.3334076
126	0x3dbcb3e7	0.09214001
127	0xbe99c99d	-0.3003663
128	0xbedf0d8f	-0.43565032
129	0x3e85e275	0.26149336
130	0x3cedbdf9	0.02902125
131	0x3e6fddd7	0.23424469
132	0xbe81584b	-0.25262675
133	0x3e42ff44	0.19042689
134	0x3e1c1a1d	0.15244336
135	0x3dd29d95	0.10283963
136	0x3cb364dc	0.02189868
137	0x3e3fd12a	0.18732134
138	0xbeacbb20	-0.33736515
139	0x3dcc8c4a	0.099876955
140	0xbf106532	-0.5640441
141	0xbe4132d0	-0.1886704
142	0x3e5be414	0.21473724
143	0xbd2b27cf	-0.04178601
144	0xbe907ab3	-0.28218612
145	0xbf063d09	-0.5243688
146	0x3ede1a6b	0.4337953
147	0x3ec66675	0.38750044
148	0xbd8a408f	-0.06750595
149	0x3ecd01d5	0.4004046
150	0xbef273f8	-0.47354102
151	0xbf08d6dd	-0.53452855
152	0xbe7de0a4	-0.24792725
153	0xbede46a9	-0.43413284
154	0x3e8da172	0.27662235
155	0xbe14f6be	-0.1454725
156	0xbe01a24b	-0.12659566
157	0xbe83f4fa	-0.2577284
158	0xbcfd0def	-0.030890433
159	0x3f04b9db	0.5184609
160	0x3e08a64f	0.13344692
161	0xbc709d2f	-0.014685913
162	0x3dba497c	0.09096047
163	0xbef87816	-0.48529118
164	0xbe4ee51b	-0.20204584
165	0xbe78b6d6	-0.24288496
166	0x3f3a8292	0.72855484
167	0x3e52d04d	0.20587273
168	0xbdd6f8fd	-0.104967095
169	0xbe3f0bc2	-0.18656829
170	0x3d9543d0	0.07288325
171	0xbea9a117	-0.33130714
172	0x3e944632	0.28959805
173	0xbe2def1a	-0.16985741
174	0x3f0e7b99	0.55657345
175	0x3da48223	0.08032634
176	0xbe85830d	-0.26076546
177	0x3e62e476	0.22157463
178	0xbd96e524	-0.07367924
179	0xbe539eb0	-0.20666003
180	0x3e987cdc	0.2978276
181	0x3d17f9a8	0.037103325
182	0xbd9d3a9e	-0.07677196
183	0x3f2fb328	0.68632746
184	0x3dbe378c	0.092879385
185	0xbe85c511	-0.26126912
186	0x3f3e8287	0.7441792
187	0x3e285193	0.16437368
188	0xbe0c9ad5	-0.13730939
189	0xbe909420	-0.2823801
190	0xbb7a4ef7	-0.003819404
191	0xbe95b9f1	-0.29243425
192	0xbea45a5a	-0.32100183
193	0xbc12c8b9	-0.008958989
194	0xbe0c2397	-0.13685451
195	0xbe33630a	-0.17518249
196	0x3e2d8636	0.16945729
197	0xbe221b47	-0.15830718
198	0xbc390948	-0.011293717
199	0x3d1fe0ef	0.039032873
200	0x3ea3ea79	0.32014826
201	0x3e1f182a	0.15536562
202	0x3ee8322e	0.45350784
203	0x3e8cd186	0.27503604
204	0x3e69aaf1	0.22819115
205	0x3dc611e5	0.09671382
206	0xbe7e173d	-0.24813552
207	0xbe543514	-0.20723373
208	0x3dfd305b	0.12362739
209	0xbf339eac	-0.7016399
210	0x3dfc80ae	0.12329231
211	0xbc8eb44b	-0.017419955
212	0xbebccd92	-0.36875588
213	0xbe0d861f	-0.13820694
214	0x3eb13a25	0.34614673
215	0xbeced88c	-0.40399587
216	0xbdebce4e	-0.11513959
217	0x3f449f45	0.76805526
218	0xbf1ecc9a	-0.6203095
219	0xbe16def0	-0.14733481
220	0xbd9dfa19	-0.07713718
221	0x3edb016f	0.4277453
222	0x3e6ed8a9	0.23324837
223	0x3ec3052c	0.38089883
224	0x3ddb9647	0.107220225
225	0xbd8a1a2a	-0.06743272
226	0xbf297f2d	-0.6620968
227	0xbe6f4aea	-0.23368421
228	0xbe52ee40	-0.20598698
229	0xbe886705	-0.26641098
230	0xbedb1492	-0.4278913
231	0x3ea84743	0.32866868
232	0xbeb53cf3	-0.35398063
233	0xbed93bd0	-0.42428446
234	0x3eeba1fe	0.46022028
235	0x3e394f03	0.18096547
236	0x3e6216b8	0.22078979
237	0xbf0978b8	-0.5369983
238	0x3eed48db	0.46344647
239	0x3e842863	0.25812063
240	0xbed80046	-0.4218771
241	0xbf2a5a3b	-0.6654393
242	0x3e52c747	0.20583831
243	0x3ec7b705	0.3900682
244	0xbe9781ad	-0.29591122
245	0x3e18b060	0.14911032
246	0xbe8287f3	-0.25494346
247	0x3e997f8d	0.29980126
248	0xbe18e174	-0.14929754
249	0x3dadd9a3	0.084887765
250	0xbe7b948d	-0.24568386
251	0x3ef8bfce	0.48583835
252	0xbe367bf8	-0.17820728
253	0x39c41e9b	0.00037406836
254	0xbde1349f	-0.10996365
255	0xbf6450e7	-0.8918595

conv3.bias f4 [32]
0	0xbda0f9cb	-0.07860144
1	0xbba40ca4	-0.0050063897
2	0xbd8d9aee	-0.06914316
3	0xbddedd1c	-0.10882017
4	0xbd72cae3	-0.05927552
5	0xbd19ede3	-0.037580382
6	0x3d935fd8	0.07196015
7	0x3abf393e	0.0014589203
8	0x3d53a949	0.051675115
9	0xbab04f66	-0.0013451397
10	0xbd48fb3b	-0.049067717
11	0xbcdcd833	-0.02695856
12	0xbd0f0148	-0.03491333
13	0xbd5226b0	-0.051306427
14	0xbda6df8a	-0.081481054
15	0x3c55cf58	0.013049923
16	0x3dd67ab2	0.10472621
17	0xbd743522	-0.059620984
18	0x3d36c249	0.04461888
19	0xbd868e1b	-0.06570073
20	0xbc79b6a7	-0.015241302
21	0xbcff7073	-0.03118155
22	0x3cddf541	0.027094485
23	0xbdb73b82	-0.08946897
24	0xbd8a17f6	-0.067428514
25	0xbdec9ec5	-0.115537204
26	0x3d6dac72	0.058025785
27	0x3d29ef79	0.041488145
28	0xbe12cb4a	-0.14335361
29	0x3cc6fe48	0.024291173
30	0xbdeffa94	-0.11717716
31	0x3b5e0613	0.0033878132

conv3.lin.weight f4 [32, 32]
0	0x3d8f702a	0.070038155
1	0x3d4470b5	0.04795905
2	0x3e9268b9	0.28595522
3	0x3cc7b4cf	0.024378208
4	0x3df3656e	0.118845806
5	0xbf00e0c4	-0.50342965
6	0x3df8ef5c	0.12155029
7	0x3e3e51d1	0.18585898
8	0xbe3077ee	-0.1723325
9	0xbe3c3836	-0.18380818
10	0x3ec67ddf	0.38767907
11	0x3dce604a	0.100769594
12	0x3eb1b62c	0.347093
13	0xbda9e368	-0.082953274
14	0xbe5e38d7	-0.2170137
15	0xbe18804e	-0.14892694
16	0xbf44da0b	-0.7689521
17	0x3e557d5d	0.20848604
18	0xbee9a08b	-0.45630297
19	0x3ee6395d	0.4496564
20	0xbd8fb937	-0.07017749
21	0x3e79b1a5	0.24384172
22	0xbe8869ff	-0.2664337
23	0xbc3ff03a	-0.011714989
24	0x3da84e9d	0.08218119
25	0x3eda80ee	0.4267649
26	0x3d944a3e	0.07240723
27	0x3e8d4bd0	0.27596903
28	0xbef3f2a8	-0.4764607
29	0xbe246beb	-0.16056792
30	0xbe231bd3	-0.15928583
31	0xbea5062a	-0.32231265
32	0xbf068202	-0.52542126
33	0x3f08e432	0.534732
34	0xbeb30870	-0.34967375
35	0xbe9be4a5	-0.3044788
36	0x3e13d751	0.14437605
37	0xbda2cb57	-0.0794894
38	0xbdc7edab	-0.097621284
39	0x3e6f9416	0.23396334
40	0x3ce7fc6b	0.028318604
41	0xbe3e32b3	-0.18574028
42	0xbefa6905	-0.4890825
43	0x3bec526e	0.007211975
44	0x3e1c8672	0.15285662
45	0x3e88704f	0.26648185
46	0x3eddeca4	0.43344605
47	0x3e06bcfc	0.1315803
48	0x3e725c88	0.2366811
49	0xbc165cc9	-0.009177395
50	0x3bb84ab5	0.00562414
51	0xbe8395c3	-0.25700197
52	0x3e527732	0.20553282
53	0x3e69e2eb	0.22840469
54	0xbdc8e592	-0.09809412
55	0x3ea1d071	0.3160434
56	0xbf78d155	-0.97194415
57	0x3f0d5c4d	0.55218965
58	0x3d6828f6	0.05667969
59	0xbeb81347	-0.35952207
60	0x3dcfb386	0.10141663
61	0xbe6c4c67	-0.2307602
62	0xbec0a09f	-0.37622544
63	0xbe652fd5	-0.22381528
64	0xbe37aef2	-0.1793783
65	0xbd1fd35f	-0.03901994
66	0xbd829df9	-0.06377787
67	0xbd14aa6d	-0.036295343
68	0xbd46ae80	-0.04850626
69	0xbe11fc9f	-0.14256524
70	0xbeb21035	-0.3477799
71	0xbe51f83c	-0.2050485
72	0xbe856f43	-0.26061448
73	0xbe96cbf5	-0.29452482
74	0xbd9340f3	-0.071901225
75	0x3e5e5a13	0.21714048
76	0xbe2397c9	-0.1597587
77	0xbe485dc6	-0.19567022
78	0xbe9cb172	-0.3060413
79	0x3d9f4c31	0.07778204
80	0xbe7ef74a	-0.24899021
81	0x3e80548f	0.25064513
82	0xbd3e4b5d	-0.04645859
83	0x3de67de6	0.11254482
84	0x3e249f17	0.16076313
85	0xbe6189ce	-0.22025225
86	0x3e634239	0.2219323
87	0xbd83c25e	-0.06433557
88	0x3e2f4370	0.17115569
89	0x3e3b6ebb	0.18303959
90	0xbe73b944	-0.23801142
91	0x3ccd0473	0.025026536
92	0x3e4ef67b	0.20211212
93	0x3e25ce19	0.16191901
94	0x3e8f38b8	0.2797296
95	0xbe4fd6fb	-0.20296852
96	0xbdc90c0f	-0.09816753
97	0xbf5bf2e6	-0.8591751
98	0x3b16d340	0.0023014098
99	0x3de15f56	0.11004512
100	0x3e1c686e	0.15274212
101	0xbe0c98a3	-0.13730101
102	0x3ebd1dc5	0.36936775
103	0x3ec6ff18	0.38866496
104	0xbf0fb5c9	-0.5613676
105	0x3e60889f	0.21927117
106	0x3be27e08	0.0069119968
107	0x3e1513c1	0.14558317
108	0xbf87c2de	-1.0606344
109	0x3e843d74	0.25828135
110	0xbeb58076	-0.3544957
111	0xbf162ee7	-0.5866532
112	0xbeaf4347	-0.34231016
113	0x3c05dccb	0.008170317
114	0xbe4baff0	-0.19891334
115	0xbf02a093	-0.51026267
116	0x3ee3ad2d	0.4446806
117	0xbeb35dff	-0.3503265
118	0x3e27a47e	0.16371343
119	0x3cbee4bc	0.023302428
120	0x3f45ded5	0.7729314
121	0xbdf81118	-0.121126354
122	0xbe504bd6	-0.20341429
123	0x3d71791e	0.058953397
124	0xbef91831	-0.4865127
125	0xbde682d5	-0.11255423
126	0xbf1942a4	-0.5986731
127	0xbe04a74c	-0.12954444
128	0xbe139489	-0.1441213
129	0x3d90f4e0	0.07077956
130	0xbe1bb2cc	-0.15204924
131	0xbe04c9c1	-0.12967588
132	0x3e9bd60c	0.30436742
133	0xbe2ffffa	-0.17187491
134	0x3ce599d8	0.02802746
135	0x3f18d3d8	0.5969825
136	0xbe6672a6	-0.22504672
137	0xbeaa30e4	-0.33240426
138	0x3e73f495	0.2382377
139	0x3de0df36	0.10980074
140	0xbdd94238	-0.10608333
141	0x3e93a650	0.28837824
142	0x3d0a9eea	0.03384296
143	0x3e99387b	0.29925904
144	0x3e6be239	0.23035516
145	0xbe139f28	-0.14416182
146	0x3e0d6cd5	0.13811047
147	0x3de75bae	0.112967834
148	0x3d6d92a3	0.05800117
149	0xbca0ecf9	-0.019644247
150	0x3b6eabb1	0.0036418254
151	0x3db7d175	0.08975498
152	0x3e124164	0.14282757
153	0x3eb0ccf6	0.34531373
154	0x3f2b9216	0.67019784
155	0x3f2cdc42	0.67523587
156	0xbecef134	-0.40418398
157	0xbda38403	-0.079841636
158	0xbf15c3ab	-0.5850169
159	0xbf0601f8	-0.52346754
160	0xbcdb4995	-0.026768485
161	0xbf5c22a1	-0.8599034
162	0x3dc82ad5	0.097737946
163	0xbe6e0ed3	-0.23247842
164	0xbe905a30	-0.28193808
165	0xbefb6164	-0.4909774
166	0xbf070d96	-0.52755105
167	0x3f0e8ef0	0.55686855
168	0x3e22aa8d	0.15885372
169	0xbca72047	-0.020401133
170	0x3ec106c0	0.37700462
171	0x3e0d04bb	0.13771336
172	0x3ea72b16	0.3265006
173	0x3f029a1f	0.5101642
174	0xbf69694c	-0.91176295
175	0xbda975fb	-0.08274456
176	0x3e2b5dcd	0.16735001
177	0x3e239bd7	0.15977417
178	0xbe319347	-0.17341338
179	0xbe95fbc6	-0.2929365
180	0x3c304bda	0.010760272
181	0xbe9a568c	-0.30144155
182	0x3e8ccc0e	0.2749943
183	0x3d983bd3	0.074332856
184	0x3dee3f86	0.1163321
185	0xbdaddff7	-0.084899835
186	0xbef90057	-0.48633072
187	0x3ea3a310	0.31960344
188	0xbf3d68d5	-0.73988086
189	0x3caff97a	0.021481264
190	0xbf75bdb5	-0.95992595
191	0xbd323a60	-0.043512702
192	0xbf6165d9	-0.8804603
193	0x3f1f2523	0.6216604
194	0xbeb2e010	-0.3493657
195	0x3dab8f5b	0.08376952
196	0x3d81f7ea	0.06346114
197	0xbe90e384	-0.2829858
198	0x3e95ccd9	0.2925785
199	0xbef8c9a8	-0.48591352
200	0xbf6b5aad	-0.91935235
201	0xbf008487	-0.5020222
202	0xbecd303e	-0.40075868
203	0xbf448ff7	-0.7678217
204	0xbeb28640	-0.3486805
205	0xbe46fec6	-0.19433126
206	0x3e7d89c6	0.24759588
207	0xbd0c5149	-0.034257207
208	0xbe4ee18f	-0.20203231
209	0xbe34c900	-0.176548
210	0x3eb27bb7	0.34860012
211	0xbf3506c6	-0.7071346
212	0xbf7fdb5d	-0.99944097
213	0x3c07058c	0.008241069
214	0xbd9fd504	-0.078043014
215	0x3e82bef5	0.25536314
216	0x3f1dce37	0.61642784
217	0xbeaede76	-0.341541
218	0xbc9c2ed0	-0.01906529
219	0xbe8931e9	-0.2679589
220	0x3f0700f6	0.5273584
221	0x3e4240ed	0.1897008
222	0xbed4d551	-0.41568998
223	0x3eb14104	0.34619915
224	0xbe22652f	-0.15858911
225	0x3cd86898	0.026417062
226	0xbe4beae0	-0.19913816
227	0x3d330209	0.043703113
228	0x3d2411a4	0.040055886
229	0xbd043eb2	-0.032286353
230	0x3d3e3ab0	0.046442688
231	0xbe93b718	-0.28850627
232	0x3e45e7b1	0.19326665
233	0xbe9421e7	-0.28932115
234	0xbdf903b0	-0.121589065
235	0xbd8f8b3b	-0.07008978
236	0xbd805002	-0.0626526
237	0xbe287d92	-0.16454151
238	0xbe089449	-0.13337816
239	0xbe48be30	-0.19603801
240	0x3de42e57	0.11141651
241	0x3e97b984	0.29633725
242	0xbdd04955	-0.10170237
243	0x3db6dcbc	0.089288205
244	0x3d8a77cb	0.0676113
245	0xbe8763da	-0.26443368
246	0x3df88ea9	0.12136585
247	0xbe3180ec	-0.17334336
248	0xbd91d982	-0.071215644
249	0x3e6b7afd	0.22996135
250	0xbdbaffb5	-0.091308035
251	0x3dabbb8c	0.08385381
252	0xbe5f2d4d	-0.21794625
253	0x3e6941e4	0.22779042
254	0x3e4f7cb7	0.20262419
255	0x3d3f702b	0.04673783

conv4.bias f4 [32]
0	0xbe186e4a	-0.14885822
1	0x3c0ad652	0.0084739495
2	0xbd967855	-0.0734717
3	0xbe126083	-0.14294629
4	0x3cf2d923	0.029644554
5	0xbe68a26f	-0.22718213
6	0xbcd01913	-0.025402581
7	0xbcf6f541	-0.030146243
8	0xbe077200	-0.13227081
9	0xbbfbef50	-0.0076884404
10	0xbd7c87b2	-0.061652847
11	0xbaf59a4e	-0.0018738003
12	0xbd396596	-0.045262896
13	0xbda493a0	-0.0803597
14	0xbddf4c6d	-0.10903249
15	0xbddb8cd1	-0.10720218
16	0xb9830054	-0.00024986512
17	0xbd417a48	-0.047235757
18	0xbe23edc5	-0.1600867
19	0x3bd3a8de	0.0064593395
20	0xbe6ed92b	-0.2332503
21	0xbe486b5e	-0.19572207
22	0x3d1e8daa	0.03870932
23	0x3c34d3cf	0.011036827
24	0xbda9c09d	-0.08288691
25	0xbe7acbc9	-0.244918
26	0xbe23bbb4	-0.15989572
27	0xbcf57421	-0.029962601
28	0xbde2afd8	-0.11068696
29	0x3c020fd7	0.007938347
30	0x3d145442	0.036213167
31	0xbd6ea813	-0.058265757

conv4.lin.weight f4 [32, 32]
0	0xbe0f7848	-0.14010727
1	0x3e4e338c	0.20136851
2	0xbe62e114	-0.22156173
3	0x3f327540	0.6971016
4	0x3eea6b54	0.4578501
5	0x3eeb2baf	0.45931765
6	0xbe36c49d	-0.1784844
7	0x3dd05264	0.10171965
8	0xbe79acba	-0.24382296
9	0xbea28199	-0.317395
10	0x3ecb3928	0.39692044
11	0xbde36321	-0.11102892
12	0x3d0b213c	0.03396724
13	0xbe80346d	-0.25039998
14	0x3e39ff06	0.1816369
15	0xbe725b92	-0.23667744
16	0xbd320c65	-0.04346885
17	0xbc8c33f7	-0.017114623
18	0xbea8bdc3	-0.32957277
19	0x3d8b273d	0.067945935
20	0x3dff43fd	0.124641396
21	0x3ee85555	0.45377603
22	0xbf2e2183	-0.68019885
23	0x3dba3589	0.09092242
24	0x3eacedca	0.3377517
25	0x3d44b8c9	0.048027787
26	0xbe0d6d3c	-0.13811201
27	0x3e5d03ee	0.2158353
28	0xbe372838	-0.17886436
29	0xbe436c93	-0.19084387
30	0xbd090b59	-0.033458088
31	0x3e4828f5	0.19546874
32	0xbdbb1a11	-0.09135831
33	0xbe35e7b3	-0.17764167
34	0x3ddde38a	0.10834415
35	0xbf4eaf11	-0.8073588
36	0x3e4ac089	0.19800009
37	0x3e02078b	0.1269819
38	0xbe9b1959	-0.30292776
39	0x3da10e40	0.07864046
40	0x3f0fada8	0.56124353
41	0x3e85fc17	0.26168892
42	0x3e47d647	0.19515334
43	0x3e168c75	0.14702018
44	0xbe8be057	-0.27319595
45	0xbee7c65a	-0.45268518
46	0x3dfb8651	0.12281478
47	0xbf485da4	-0.78267884
48	0xbe0b3d25	-0.13597544
49	0xbe8202f4	-0.25392878
50	0x3c8b54c8	0.0170082
51	0xbc096bb0	-0.008387491
52	0xbe601c13	-0.2188571
53	0xbef8cbb0	-0.485929
54	0x3bf589b6	0.007493223
55	0x3cd7e050	0.026352078
56	0x3ddaf39a	0.106909946
57	0xbd2c32cc	-0.04204063
58	0x3ebb5663	0.36589345
59	0xbded9df4	-0.11602393
60	0x3e633bf2	0.22190836
61	0xbe0f0bb7	-0.13969313
62	0xbd6bb833	-0.057548713
63	0x3e7932eb	0.2433583
64	0x3e47c4b0	0.19508624
65	0xbe56b7e4	-0.20968586
66	0x3e480ef7	0.19536959
67	0xbe7b0802	-0.24514773
68	0xbca78fbd	-0.020454282
69	0xbe5c258b	-0.21498697
70	0xbe02775e	-0.12740847
71	0x3e3bb222	0.18329671
72	0x3cd15bdc	0.025556497
73	0x3de22374	0.110419184
74	0xbdf21562	-0.11820485
75	0x3e04947b	0.12947266
76	0xbe5bcd57	-0.2146505
77	0xbe9bfbf4	-0.30465662
78	0xbe6e5be8	-0.23277247
79	0xbdd4a50b	-0.10383042
80	0xbe16358a	-0.14668861
81	0xbe6f6ddd	-0.23381753
82	0xbea55896	-0.32294148
83	0x3d9b2f4a	0.07577379
84	0x3dd8006e	0.10546957
85	0xbe928700	-0.28618622
86	0xbe3bc4dd	-0.18336816
87	0x3e12d907	0.14340602
88	0xbe52a1fa	-0.20569602
89	0x3da17f77	0.0788564
90	0x3e7b0575	0.245138
91	0x3e271d66	0.16319808
92	0x3d26f176	0.04075762
93	0x3dc52a5d	0.09627221
94	0xbe11a17a	-0.14221755
95	0xbdc173d7	-0.09445923
96	0xbedb4363	-0.4282485
97	0xbef68e3d	-0.48155394
98	0xbe848941	-0.25885966
99	0x3e94c865	0.2905914
100	0x3e07e2a6	0.13270053
101	0x3ea848fd	0.32868186
102	0xbf121343	-0.5706064
103	0x3e92ccd7	0.28671905
104	0x3e4a8c2e	0.19780037
105	0xbe90b181	-0.28260425
106	0x3ced6a6d	0.028981412
107	0xbf14bf1f	-0.5810413
108	0x3e848820	0.25885105
109	0x3def4039	0.116821714
110	0x3d9b1f39	0.075743146
111	0x3d0db4c1	0.03459621
112	0xbeceae05	-0.4036714
113	0xbe633e24	-0.22191674
114	0xbdef8072	-0.11694421
115	0xbe4efcb5	-0.20213588
116	0xbe3805ea	-0.17971006
117	0x3d4970b0	0.049179733
118	0xbe220d62	-0.15825418
119	0xbe9de45f	-0.30838296
120	0xbe871962	-0.26386553
121	0xbea9079b	-0.33013615
122	0xbe604132	-0.2189987
123	0x3ea5e92b	0.32404456
124	0x3ebe8e26	0.37217826
125	0x3e1fbdd9	0.15599765
126	0x3daf2e46	0.08553748
127	0x3d2779e8	0.040887743
128	0x3dcf2566	0.10114555
129	0x3d6e2763	0.05814303
130	0x3d98aef2	0.07455243
131	0xbe7aee0b	-0.24504869
132	0x3e084786	0.13308534
133	0xbec26a52	-0.3797174
134	0xbd5a8102	-0.053345688
135	0xbe94ed92	-0.29087502
136	0x3e17a767	0.14809953
137	0xbe06a1c5	-0.13147648
138	0xbef43f6d	-0.4770464
139	0x3df5f5b4	0.12009755
140	0x3e6e1543	0.23250298
141	0xbda18d5d	-0.07888291
142	0xbe0a2223	-0.13489585
143	0x3e13822f	0.1440513
144	0xbe98a251	-0.29811338
145	0x3d73d457	0.059528675
146	0x3e05029d	0.12989278
147	0xbea1fb95	-0.31637254
148	0x3c57383c	0.013135966
149	0x3e5e1330	0.21687007
150	0xbdf20ebc	-0.118192166
151	0xbe5f6bd1	-0.21818472
152	0xbd74fde6	-0.05981245
153	0xbf1db339	-0.616016
154	0x3dd56254	0.10419145
155	0xbe7dadb8	-0.247733
156	0xbee44f57	-0.44591781
157	0x3e8805d2	0.2656694
158	0xbf19fd44	-0.6015208
159	0x3ea1133c	0.31459987
160	0x3e136dde	0.1439738
161	0x3e7a6276	0.24451622
162	0xbe6a1cd6	-0.22862563
163	0xbe715cb9	-0.23570527
164	0x3be3c1dd	0.0069506005
165	0x3e6b0cc8	0.22954094
166	0xbe0e60b0	-0.13904071
167	0x3e585872	0.21127489
168	0xbd5667f7	-0.052345242
169	0x3aadbdd4	0.0013255426
170	0x3e627469	0.2211472
171	0xbea2783a	-0.3173235
172	0xbdfea6a5	-0.12434129
173	0xbe4cdc93	-0.20006017
174	0x3e59e775	0.212797
175	0xbe5329c5	-0.20621403
176	0x3e62f775	0.2216471
177	0xbe1d7179	-0.15375318
178	0x3d693644	0.056936517
179	0x3dfdaae4	0.123861104
180	0x3e717d31	0.23582913
181	0xbe18d4d7	-0.14924942
182	0xbea7ecfd	-0.32797995
183	0x3da9e12a	0.082949
184	0x3dd8f26b	0.105931126
185	0x3e2e1d94	0.1700347
186	0xbedd5aa9	-0.4323323
187	0x3eb088cf	0.34479377
188	0x3ea58639	0.32328966
189	0xbc1ed74f	-0.009694888
190	0xbe35f52b	-0.17769305
191	0x3e6eb4be	0.23311135
192	0x3d5d2c62	0.053997405
193	0xbf620035	-0.88281566
194	0x3e48d1da	0.19611302
195	0x3e8d2a1a	0.27571183
196	0x3ea9bd33	0.3315216
197	0x3ec1d47a	0.3785742
198	0x3ed790d4	0.42102683
199	0x3dde70fa	0.10861392
200	0xbf29c3b2	-0.6631423
201	0x3d069c0c	0.03286366
202	0xbe9d948b	-0.30777392
203	0x3e850c51	0.2598596
204	0xbe5149ef	-0.2043836
205	0xbe94886d	-0.29010335
206	0x3dbb2072	0.09137048
207	0xbf10f45b	-0.56622857
208	0x3b61102c	0.0034341915
209	0x3e854ef7	0.26036808
210	0xbe18d1fc	-0.14923853
211	0x3e866d59	0.262553
212	0xbe92f749	-0.2870429
213	0x3f004199	0.50100094
214	0x3de162b8	0.11005157
215	0xbde73ec6	-0.1129127
216	0x3d9132fb	0.07089802
217	0xbec9b962	-0.39399248
218	0x3d1ee413	0.038791727
219	0xbe5584ae	-0.20851395
220	0x3eec626d	0.46168843
221	0xbeb0a622	-0.3450175
222	0xbea9d0d0	-0.33167124
223	0xbde12f22	-0.10995318
224	0xbe82d28e	-0.25551265
225	0xbe8dbe3c	-0.276842
226	0x3e38c727	0.1804472
227	0x3e184054	0.14868289
228	0xbe5d8c03	-0.21635441
229	0xbccf964b	-0.02534022
230	0x3d6cc95f	0.05780923
231	0x3e79a0f6	0.24377808
232	0xbe453005	-0.19256599
233	0xbea1d44b	-0.3160728
234	0xbe103ac5	-0.14084919
235	0x3e5da93d	0.2164659
236	0x3dadb4c7	0.08481746
237	0xbcf54c58	-0.02994363
238	0x3db4e3ca	0.0883251
239	0xbadca9cc	-0.0016835271
240	0xbe6db108	-0.23212063
241	0xbce7db46	-0.0283028
242	0xbdadcdcf	-0.084865205
243	0x3e197725	0.14986856
244	0xbe6afe83	-0.22948651
245	0xbe98a8c6	-0.29816264
246	0xbda2848e	-0.07935439
247	0xbe32595f	-0.17416905
248	0x3e6fd557	0.23421226
249	0xbe0be699	-0.13662185
250	0xbe9b8c20	-0.30380344
251	0xbdf8c2da	-0.1214654
252	0xbe885e0c	-0.26634252
253	0xbe3820e1	-0.17981292
254	0xbe70df84	-0.23522764
255	0xbe4731c0	-0.19452572

conv5.bias f4 [32]
0	0x3e9603d0	0.29299784
1	0x3d4bd88b	0.04976706
2	0x3d027864	0.031853095
3	0x3dae0118	0.08496302
4	0x3e0957f1	0.13412453
5	0x3ce0ca30	0.02744016
6	0x3e89014f	0.2675881
7	0x3e4e2f23	0.20135169
8	0xbe2e9b45	-0.17051418
9	0x3ca34944	0.019932397
10	0x3dbde9a9	0.09273083
11	0xbd96ee18	-0.073696315
12	0xbd3bf00a	-0.045883216
13	0xbebddf4d	-0.37084427
14	0xbd9caa1a	-0.07649632
15	0xbe1e5d33	-0.1546524
16	0x3d986b12	0.07442297
17	0xbd8765d5	-0.0661122
18	0xbe5a9353	-0.21345262
19	0xbd2ed9f6	-0.042688332
20	0x3da19950	0.0789057
21	0xbcdb06d9	-0.026736664
22	0xbe955b98	-0.29171443
23	0xbe3bebe3	-0.18351702
24	0x3e487867	0.1957718
25	0xbdce7ae0	-0.1008203
26	0xbe471c8e	-0.19444486
27	0xbd73e3ee	-0.059543543
28	0xbd984511	-0.07435048
29	0xbd315d01	-0.043301586
30	0xbd97037b	-0.07373711
31	0xbb008c7b	-0.0019614983

conv5.lin.weight f4 [32, 32]
0	0xbea2f3b2	-0.3182655
1	0x3ecf483a	0.40484792
2	0xbe9ba75b	-0.3040112
3	0xbdda61ec	-0.10663208
4	0xbd99ce5c	-0.07510063
5	0xbe3a12f9	-0.181713
6	0x3e896df6	0.26841706
7	0x3e7cce30	0.2468803
8	0xbed2bd30	-0.41159964
9	0xbe840761	-0.2578688
10	0xbde271e8	-0.11056882
11	0xbf86fb12	-1.054537
12	0xbd873a4c	-0.06602916
13	0xbdc4391b	-0.095812045
14	0x3e00aaa1	0.1256509
15	0xbf072973	-0.5279762
16	0xbf12ef3d	-0.573963
17	0xbe76a5aa	-0.24086633
18	0xbc202341	-0.00977403
19	0xbe220d63	-0.15825419
20	0x3dcf9d35	0.10137407
21	0xbf161c96	-0.5863737
22	0xbd7b9d8e	-0.061429553
23	0x3e45eb11	0.19327952
24	0x3ea1e323	0.31618604
25	0xbe07aa32	-0.13248518
26	0xbe1279e2	-0.14304307
27	0xbe2d54e3	-0.16926913
28	0xbf199665	-0.5999511
29	0xbf439af0	-0.7640829
30	0xbe6495c2	-0.22322753
31	0x3e06eed0	0.13177037
32	0xbd90dd58	-0.07073468
33	0x3e1624ae	0.1466243
34	0xbcd4aadd	-0.02596038
35	0xbe42d042	-0.19024757
36	0x3e16c8a1	0.14724971
37	0xbe9e97e5	-0.3097526
38	0x3cb8e672	0.022570822
39	0xbcabec36	-0.020986658
40	0x3e80be40	0.2514515
41	0x3e876480	0.26443863
42	0xbe9347b4	-0.28765643
43	0x3dceca61	0.100971945
44	0xbd80cdc7	-0.06289249
45	0xbee3547c	-0.44400394
46	0xbc95b58c	-0.018275045
47	0xbea9bbb0	-0.33151007
48	0xbf3e611b	-0.7436692
49	0x3da33b6d	0.07970319
50	0x3f0d6f5f	0.55248064
51	0x3e2057d3	0.15658502
52	0xbf01094f	-0.5040483
53	0xbe166dd4	-0.14690334
54	0x3e5db951	0.21652724
55	0xbd4970f7	-0.049179997
56	0xbe5f74b5	-0.21821864
57	0xbe648fb5	-0.22320445
58	0x3e89df1a	0.26928025
59	0xbe48e056	-0.19616827
60	0xbcee80df	-0.029114185
61	0xbcb90bbf	-0.022588609
62	0xbf84a443	-1.0362629
63	0xbea0dcb9	-0.31418398
64	0xbd1bd4ef	-0.038044866
65	0x3e5e5fa5	0.21716173
66	0xbdf704a8	-0.12061435
67	0x3cb0cab7	0.021581037
68	0xbe6a9083	-0.2290669
69	0x3e8e7558	0.278239
70	0xbee31ac7	-0.44356367
71	0xbe6915e1	-0.22762252
72	0xbde42644	-0.11140111
73	0x3ed8af0d	0.42321053
74	0xbda0aacb	-0.07845076
75	0xbecdaeee	-0.40172523
76	0x3ebf29d1	0.3733659
77	0x3ed27f2d	0.41112652
78	0x3eb0a84c	0.345034
79	0x3e0f03cd	0.13966294
80	0xbedb1b48	-0.4279425
81	0x3e15a68b	0.14614312
82	0x3e3f430c	0.1867792
83	0xbef828f0	-0.48468733
84	0xbf027b35	-0.5096925
85	0x3de78f99	0.11306686
86	0xbe4bddc7	-0.1990882
87	0x3e12c90a	0.14334503
88	0xbef45475	-0.47720686
89	0x3eeaaeef	0.4583659
90	0x3e45493e	0.19266221
91	0x3e5133ba	0.20429888
92	0x3e3e7795	0.18600304
93	0xbe9f4ce1	-0.3111334
94	0xbf0513fc	-0.5198362
95	0x3de9c541	0.11414576
96	0x3bc765fc	0.0060851555
97	0xbdb6aa1b	-0.08919164
98	0x3db0bf5b	0.08630248
99	0x3e9331f7	0.28749058
100	0xbdb0948e	-0.086220846
101	0xbe9942a8	-0.29933667
102	0xbe8864d1	-0.26639417
103	0xbddf321b	-0.10898229
104	0x3d3ab882	0.045586117
105	0xbea3e985	-0.320141
106	0xbe898d87	-0.2686579
107	0xbeb470d1	-0.35242322
108	0x3e7fcbe2	0.24980119
109	0x3e0c2cde	0.1368899
110	0x3ec47a1c	0.38374412
111	0x3e449ac7	0.19199668
112	0x3e186ff9	0.14886464
113	0x3dd871fd	0.105686165
114	0x3ebfd35a	0.37465936
115	0x3df7bb93	0.12096324
116	0xbc5d2db5	-0.013499667
117	0x3e854de9	0.26036003
118	0x3e8bb28a	0.27284652
119	0xbf110d40	-0.5666084
120	0x3f02dc60	0.51117516
121	0x3f19bbd0	0.60052204
122	0x3af9e296	0.001906472
123	0xbdf8e50d	-0.12153063
124	0x3e3bebc8	0.18351662
125	0xbf2d3346	-0.6765636
126	0x3e8aada1	0.27085593
127	0xbea3dd92	-0.32004982
128	0xbe71e669	-0.23623051
129	0xbe2f96e0	-0.17147398
130	0x3d552331	0.052035514
131	0xbebb8124	-0.36621964
132	0x3bc5ffa0	0.0060424358
133	0xbe971dc0	-0.29514885
134	0xbf2db118	-0.6784835
135	0x3db01a49	0.085987635
136	0xbec06048	-0.37573457
137	0xbe427db9	-0.18993272
138	0x3eda88bc	0.42682445
139	0x3e886900	0.2664261
140	0xbe47177a	-0.1944255
141	0x3caba16b	0.020950994
142	0xbdbf3d6b	-0.093378864
143	0xbdde1ce8	-0.10845357
144	0xbf3e2c48	-0.7428632
145	0xbe8831cb	-0.2660049
146	0x3e9becda	0.3045414
147	0xbb80dce5	-0.0039325827
148	0xbf4f7db0	-0.8105116
149	0xbde2e562	-0.110789075
150	0xbdc9a9e4	-0.09846857
151	0xbbb169b8	-0.005414214
152	0xbd6a1265	-0.05714645
153	0xbe99eda0	-0.30064106
154	0x3e15d4e7	0.14631997
155	0x3d53ea65	0.051737208
156	0xbec80c6c	-0.39071977
157	0x3eab7465	0.3348724
158	0xbf253bed	-0.64544564
159	0x3e13fcac	0.14451855
160	0xbe5cff05	-0.21581657
161	0x3d3e2327	0.046420243
162	0xbe01a8f9	-0.12662114
163	0xbeca5b15	-0.39522615
164	0xbea9ed69	-0.33188942
165	0xbe840ec2	-0.2579251
166	0xbdb2486d	-0.0870522
167	0x3e20d6a2	0.15706876
168	0x3b853b40	0.004065901
169	0xbecbf323	-0.39833936
170	0x3de81cf3	0.113336466
171	0x3eabd931	0.3356414
172	0xbd7427b1	-0.059608165
173	0xbd66be70	-0.05633396
174	0xbdab9d5b	-0.083796225
175	0xbf0ae09f	-0.54248995
176	0xbe87e93d	-0.26545134
177	0xbda5020b	-0.0805703
178	0xbe9f749b	-0.3114365
179	0xbe9333d7	-0.28750488
180	0xbe83ea7c	-0.25764835
181	0xbebc0adb	-0.36727032
182	0x3eb0b4b1	0.34512857
183	0x3de89eb8	0.11358398
184	0x3dd1549f	0.10221218
185	0xbe91668f	-0.28398558
186	0x3f244176	0.64162385
187	0xbe765a9a	-0.24057999
188	0x3e3fd96a	0.1873528
189	0x3ecdb819	0.40179518
190	0xbe458623	-0.1928945
191	0x3db5581f	0.088546984
192	0xbe824c57	-0.25448868
193	0x3e46c5bc	0.19411367
194	0xbe6fed2a	-0.23430315
195	0xbe878935	-0.26471868
196	0x3da94534	0.082651526
197	0x3dde6c11	0.10860456
198	0xbe0960e2	-0.13415864
199	0xbe6caa35	-0.23111804
200	0xbeb4f35a	-0.35341913
201	0xbf2966dd	-0.6617258
202	0xbe52a171	-0.20569398
203	0x3ec54fbc	0.38537395
204	0xbf539d51	-0.8266192
205	0xbeb9a179	-0.36256006
206	0x3e53a6fc	0.20669168
207	0xbe6c704c	-0.23089713
208	0xbe96bfba	-0.2944315
209	0x3cca76eb	0.024714908
210	0x3d98316c	0.074313015
211	0xbe3cad1f	-0.18425415
212	0xbe08c5c0	-0.13356686
213	0x3db8e65f	0.09028315
214	0xbd9e65a7	-0.077342324
215	0xbe77e3d9	-0.2420801
216	0x3deefe34	0.11669579
217	0xbd12bc03	-0.035823833
218	0x3c29412b	0.010330479
219	0xbd5a86aa	-0.053351082
220	0xbd004b7e	-0.031321995
221	0x3dcf7eae	0.10131584
222	0x3daf6eb2	0.08566035
223	0x3c12619b	0.008934404
224	0xbd0ae243	-0.033907186
225	0x3ebdaf73	0.3704792
226	0xbda922c1	-0.08258582
227	0x3dbf127d	0.09329698
228	0xbdb34576	-0.08753483
229	0x3f0326cd	0.5123108
230	0xbc5cc778	-0.013475291
231	0xbe4c2671	-0.19936539
232	0xbf29c350	-0.6631365
233	0xbe37e93f	-0.1796007
234	0xbeb37634	-0.3505112
235	0x3c82bc38	0.01595889
236	0xbe2f21d0	-0.17102742
237	0xbe5fa2a1	-0.21839382
238	0xbf5c0850	-0.85950184
239	0x3b1b1cee	0.0023668366
240	0x3f364205	0.7119449
241	0x3e18ae38	0.14910209
242	0x3dd63a64	0.10460356
243	0xbd38e1ad	-0.045137096
244	0x3f478d72	0.77950203
245	0xbf4bd91a	-0.79628146
246	0xbde720a5	-0.11285523
247	0xbe7acf0d	-0.24493046
248	0x3d07640c	0.033054397
249	0xbe8152dc	-0.2525853
250	0xbd833fc1	-0.064086445
251	0xbe1765c3	-0.14784913
252	0x3f084613	0.53231925
253	0xbcdfac5e	-0.02730387
254	0x3e948ba7	0.29012796
255	0xbf79143b	-0.97296494

conv6.bias f4 [32]
0	0x3dbbd74b	0.09171923
1	0xbd1683b3	-0.036746692
2	0xbe8ab749	-0.2709296
3	0xbd921039	-0.071320005
4	0x3dc5a908	0.09651381
5	0xbac85dc3	-0.0015286732
6	0x3ddb2ff4	0.10702506
7	0x3e44effc	0.19232172
8	0xbd0678d3	-0.03283007
9	0x3ddb6843	0.10713246
10	0xbcb8b738	-0.022548303
11	0xbdcf07da	-0.101089194
12	0x3d9f986a	0.077927426
13	0x3e3e95c0	0.18611813
14	0xbca1afb8	-0.01973711
15	0xbe4640da	-0.19360676
16	0xbe7a2471	-0.24427964
17	0x3e07e937	0.13272558
18	0xbe9cf6ff	-0.30657193
19	0xbea492f1	-0.32143357
20	0x3dc12423	0.09430721
21	0x3e44247a	0.1915454
22	0xbe1c832c	-0.15284413
23	0xbe078801	-0.13235475
24	0xbdefe4fd	-0.11713598
25	0x3dc95d39	0.09832234
26	0xbe753542	-0.23946097
27	0x3d870aca	0.06593855
28	0xbe40a0a4	-0.1881128
29	0x3e164b76	0.14677224
30	0x3da28af7	0.07936662
31	0xbca6c41b	-0.020357182

conv6.lin.weight f4 [32, 32]
0	0xbea7cdc4	-0.32774174
1	0xbce443d7	-0.02786438
2	0xbe050666	-0.12990722
3	0x3c9a3878	0.018825755
4	0xbf1f92e8	-0.62333536
5	0xbec4f597	-0.3846862
6	0xbecf655d	-0.40507022
7	0xbe9e1069	-0.30871895
8	0x3d4096c5	0.047018785
9	0x3cd594e0	0.026071966
10	0x3c74fafd	0.014952418
11	0xbf27fe1f	-0.65622133
12	0x3e8cc404	0.27493298
13	0xbe2d698a	-0.16934791
14	0x3db41ab6	0.08794157
15	0xbed6be4f	-0.4194207
16	0xbe0df651	-0.13863494
17	0x3ed7ee72	0.42174107
18	0x3ebd7b43	0.37008104
19	0x3ddbdc44	0.10735372
20	0xbf3b6862	-0.7320615
21	0x3e1dc9c1	0.15408994
22	0xbecba5a1	-0.39774802
23	0x3d222548	0.039586335
24	0xbf821e0f	-1.0165423
25	0xbeaa4cb7	-0.33261654
26	0xbde4e63b	-0.111767255
27	0xbe937a10	-0.28804064
28	0x3e8c70ea	0.27429897
29	0x3dc9bdcf	0.09850656
30	0x3ebb8bc5	0.36630073
31	0xbf0b1733	-0.54332274
32	0xbd72fc2f	-0.059322532
33	0x3f1679af	0.58779424
34	0xbdfd2db7	-0.12362235
35	0x3e9c7639	0.30558947
36	0xbdb007fa	-0.085952714
37	0xbd3f7d5d	-0.046750415
38	0x3e44a911	0.19205119
39	0x3eb4700a	0.3524173
40	0x3ecda3f7	0.40164158
41	0xbdd0493d	-0.10170219
42	0xbe6b8788	-0.2300092
43	0xbe2f9cc8	-0.17149651
44	0xbe5f4d7a	-0.21806899
45	0x3f057a79	0.52140003
46	0xbe13cd29	-0.14433731
47	0xbde5d4a3	-0.11222198
48	0x3c53ba67	0.01292286
49	0x3e55dc68	0.2088486
50	0xbf44d442	-0.7688638
51	0x3d1b3b32	0.03789825
52	0xbdc89e05	-0.09795765
53	0xbcc06fd8	-0.023490831
54	0xbf437bcf	-0.7636079
55	0xbeaf6b23	-0.34261426
56	0x3e31b2b5	0.17353328
57	0xbc9c8245	-0.019105086
58	0x3f48c93a	0.7843205
59	0x3e8ea7e0	0.27862453
60	0xbd9a7a44	-0.075428516
61	0x3dde189a	0.10844536
62	0xbe144f1d	-0.14483304
63	0xbed708db	-0.41998944
64	0x3e6ac93f	0.22928332
65	0xbe1e4f69	-0.1545998
66	0xbe88bc18	-0.26706004
67	0xbeaeb2c0	-0.3412075
68	0x3d841cde	0.064508185
69	0xbe594de4	-0.21221119
70	0x3e292031	0.16516186
71	0x3eac9253	0.33705387
72	0x3eacf08d	0.33777276
73	0x3d5c6a9a	0.0538126
74	0x3c186dd3	0.009303528
75	0x3eb8585d	0.36004916
76	0x3dc90c6a	0.09816821
77	0x3e8b8cd5	0.27255884
78	0xbda0c714	-0.07850471
79	0xbe2efcf4	-0.17088681
80	0x3ecce7bf	0.40020558
81	0xbe04fe63	-0.12987666
82	0x3e08572e	0.13314506
83	0xbe5507ba	-0.20803729
84	0xbc1b32b3	-0.009472537
85	0xbe2b237b	-0.16712753
86	0xbe51c223	-0.20484214
87	0x3ec70221	0.38868812
88	0x3e4fa321	0.20277072
89	0x3ea25335	0.31704107
90	0xbda8a892	-0.08235277
91	0xbda00ef2	-0.078153506
92	0xbed8cbef	-0.4234309
93	0xbddaf485	-0.1069117
94	0x3e3a43fd	0.18189998
95	0x3c4b31fa	0.012402052
96	0x3ead695f	0.33869454
97	0xbc99e285	-0.01878477
98	0xbdee59f3	-0.1163825
99	0x3dd52202	0.10406877
100	0x3e74a7ea	0.23892179
101	0x3f0da341	0.5532723
102	0xbd443954	-0.047906235
103	0xbe23a141	-0.15979482
104	0x3e58451a	0.2112011
105	0xbe714f1d	-0.23565336
106	0xbd95ee1a	-0.07320805
107	0x3dfb5ad9	0.12273187
108	0xbe2b5938	-0.16733253
109	0x3c365db5	0.01113074
110	0x3e6751e2	0.2258983
111	0xbe99ae05	-0.3001558
112	0x3efb579e	0.49090284
113	0xbe19135c	-0.14948791
114	0x3db96cb2	0.09053935
115	0xbe2782cd	-0.1635849
116	0xbf153148	-0.5827832
117	0xbd9dccc1	-0.07705069
118	0xbeceb5f3	-0.4037319
119	0x3f1c05f3	0.6094658
120	0x3e7ce2e9	0.24695934
121	0x3ebe210e	0.37134594
122	0x3f1dd0e3	0.6164686
123	0x3e309fdd	0.17248483
124	0x3d21889b	0.039436918
125	0xbe545bf0	-0.20738196
126	0xbe59487c	-0.21219057
127	0xbdcdbd8d	-0.100459196
128	0x3eb76a61	0.35823348
129	0xbe40b81a	-0.18820229
130	0xbe4c565d	-0.1995482
131	0x3ed25fd8	0.41088748
132	0xbe630006	-0.22167978
133	0x3e9f11a8	0.31068158
134	0x3c9e156a	0.01929732
135	0x3e494ce1	0.19658233
136	0x3e0be7f7	0.13662706
137	0x3e045279	0.12922086
138	0xbd39cc22	-0.04536069
139	0xbf4900bd	-0.7851675
140	0xbdcc8f8f	-0.09988319
141	0xbad6ea34	-0.0016396702
142	0xbf31dff6	-0.6948236
143	0x3da49622	0.08036448
144	0x3d828bec	0.06374344
145	0xbddc9508	-0.10770613
146	0xbee341af	-0.4438605
147	0xbed2f7fe	-0.41204828
148	0xbe3a9b13	-0.18223219
149	0x3e8d32d9	0.27577856
150	0xbec99a2d	-0.3937544
151	0x3dc1f87d	0.094712235
152	0xbe260f2b	-0.16216724
153	0xbec6d15b	-0.388316
154	0x3e24ca29	0.16092743
155	0x3e919aeb	0.28438506
156	0x3e261104	0.16217428
157	0xbe9586d0	-0.29204416
158	0x3e4385c0	0.1909399
159	0xbe0948cc	-0.13406676
160	0xbe8d00c7	-0.27539656
161	0x3ea3baca	0.31978446
162	0x3e773985	0.24143036
163	0xbeeb5816	-0.45965642
164	0xbe8de2b6	-0.2771203
165	0xbdee4bb5	-0.11635534
166	0x3e91127a	0.2833441
167	0xbe1b24b4	-0.1515072
168	0x3ec6eb7e	0.3885154
169	0xbe8dbf12	-0.27684838
170	0x3e0c21ee	0.13684818
171	0x3cfcab59	0.030843424
172	0x3e59861d	0.21242566
173	0x3c602cfc	0.0136826
174	0x3dad8a13	0.08473601
175	0x3d6396ec	0.055563852
176	0x3ea4e842	0.3220845
177	0xbe8a29db	-0.26985058
178	0x3e38a662	0.1803222
179	0xbe87141b	-0.26382527
180	0x3e55bbf0	0.20872474
181	0xbf052d1a	-0.52021945
182	0xbe73bc71	-0.23802353
183	0x3ecacbe3	0.39608678
184	0xbd800576	-0.062510416
185	0xbdf78fc4	-0.12087968
186	0x3c8e56c5	0.01737536
187	0x3e434edd	0.19073053
188	0x3eb7802d	0.35839978
189	0x3e0691cf	0.13141559
190	0xbe817272	-0.25282627
191	0x3eb25c7f	0.34836194
192	0xbecdc1a6	-0.40186805
193	0xbe558798	-0.20852506
194	0xbe90b6e9	-0.2826455
195	0x3da9088f	0.082535855
196	0xbd4d4249	-0.050112043
197	0x3eb65cab	0.35617575
198	0xbf313c59	-0.6923271
199	0xbf1a5881	-0.60291296
200	0xbf2b7c33	-0.6698639
201	0x3e833c3c	0.25631893
202	0xbc3560b6	-0.011070421
203	0xbd7f2161	-0.062287692
204	0xbed765db	-0.42069897
205	0xbf4d975e	-0.80309093
206	0xbd85699f	-0.06514286
207	0x3e97389c	0.29535377
208	0x3e46ba18	0.19406927
209	0x3cd75d5f	0.02628964
210	0xbe8664d9	-0.26248816
211	0xbdcccc13	-0.099998616
212	0xbcc80467	-0.024416162
213	0xbd9dfea8	-0.077145875
214	0xbd2a1527	-0.04152408
215	0x3c6fe77c	0.0146425925
216	0xbe8cf31b	-0.27529225
217	0xbf211656	-0.62924707
218	0xbf35fcbf	-0.71088785
219	0x3e992845	0.29913536
220	0x3e07eb3b	0.13273327
221	0xbe4472f9	-0.19184484
222	0xbe8ea090	-0.27856874
223	0xbe6f91e4	-0.23395497
224	0xbe8e1e7f	-0.27757642
225	0xbe8d9d9b	-0.27659306
226	0xbeb4204d	-0.35180894
227	0x3d5d0a7b	0.053965073
228	0xbeab95d2	-0.3351274
229	0x3ddbfc62	0.107414976
230	0xbde7e3c5	-0.113227405
231	0xbe35784b	-0.1772167
232	0x3e59a13f	0.21252917
233	0x3e5b0056	0.21386847
234	0x3db973af	0.09055268
235	0x3d859b60	0.06523776
236	0xbe9b5ed8	-0.30345798
237	0xbf174579	-0.5909038
238	0xbe512e4b	-0.20427816
239	0x3eaa8047	0.33300993
240	0xbdb7a53b	-0.08967062
241	0xbd94e8d2	-0.072709695
242	0xbe697ca2	-0.2280145
243	0xbee6f14d	-0.45105973
244	0x3ec6eafb	0.3885115
245	0x3e33828a	0.17530265
246	0xbcfdd958	-0.030987427
247	0xbe482d47	-0.19548522
248	0xbe70d094	-0.23517066
249	0xbde6a116	-0.112611935
250	0xbe822ecd	-0.2542633
251	0xbe265db4	-0.16246682
252	0xbe3763cb	-0.17909162
253	0x3e6750d1	0.22589423
254	0x3c9c2338	0.019059762
255	0xbe1cf741	-0.15328695
