checkpointscomp/model_hidden_unit_32_diffpool_24_8_2_seed_8.pth (torch, 122317 bytes, 112 tensors)

gnn1_pool.convs.0.bias f4 [32]
0	0xbe0b2f73	-0.13592319
1	0x3dd6a503	0.10480692
2	0x3ddea334	0.10870972
3	0x3e3c7d94	0.18407279
4	0xbd62a6f6	-0.055335008
5	0xbe01b3c8	-0.12666237
6	0xbe286918	-0.1644634
7	0x3d925efd	0.07147024
8	0x3d1764d9	0.03696141
9	0x3da61c3b	0.08110853
10	0x3ce968e7	0.028492404
11	0x3e10d461	0.14143516
12	0x3cb02f66	0.021506976
13	0xbc289488	-0.010289319
14	0xbc14a120	-0.009071618
15	0x3dab67ac	0.08369383
16	0xbda2e578	-0.07953924
17	0xbde71dd2	-0.11284985
18	0x3d95fbdf	0.07323431
19	0xbd318dd5	-0.043348152
20	0x3d876e1f	0.06612801
21	0x3e1cc8ee	0.15311024
22	0x3daffe83	0.08593466
23	0xbc4f2057	-0.012641988
24	0xbe5f38c3	-0.21798997
25	0xbd1ab370	-0.03776878
26	0x3c6ef7b1	0.014585421
27	0xbe186a94	-0.14884406
28	0x3c327158	0.010891281
29	0xbd1e47cc	-0.03864269
30	0xbdab6d89	-0.083705015
31	0xbda0903c	-0.078400105

gnn1_pool.convs.0.lin.weight f4 [32, 14]
0	0x3e612499	0.21986617
1	0xbea12d57	-0.31479904
2	0x3e2e70ca	0.17035213
3	0xbe1fd735	-0.15609439
4	0xbdf47bba	-0.119376615
5	0x3ce0deb4	0.027449943
6	0x3ddb9787	0.10722261
7	0x3cb44265	0.022004316
8	0x3c8460ba	0.016159404
9	0x3da47d24	0.08031681
10	0xbe93a1cd	-0.28834382
11	0xba877014	-0.0010333085
12	0x3d8954ea	0.06705649
13	0xbc004bf4	-0.007830609
14	0xbebcd5b6	-0.36881799
15	0x3e72a3fa	0.23695365
16	0x3da75a0e	0.081714734
17	0x3e973134	0.29529727
18	0xbec3716f	-0.3817248
19	0xbe53327d	-0.20624729
20	0xbd15eddc	-0.036603794
21	0xbdfaecce	-0.12252198
22	0xbe2bc347	-0.16773711
23	0xbdcb8c51	-0.099388726
24	0x3cb0e3a8	0.02159293
25	0xbd629b6b	-0.055324
26	0x3e12592b	0.14291827
27	0xbe9ff527	-0.31241724
28	0x3dc4bc78	0.0960626
29	0xbe88f3c2	-0.26748472
30	0xbdfc7b36	-0.12328188
31	0x3c4d0539	0.012513452
32	0xbea10356	-0.31447858
33	0x3d8112d9	0.06302423
34	0x3df376fc	0.11887929
35	0xbe77793e	-0.24167344
36	0x3e7eed97	0.24895321
37	0x3dde8290	0.108647466
38	0x3d5d5c63	0.054043185
39	0xbdad6512	-0.08466543
40	0x3e893062	0.26794726
41	0xbe9050ed	-0.2818674
42	0xbee18773	-0.44048652
43	0x3def1886	0.11674599
44	0xbe468085	-0.19384964
45	0x3dc1d3b9	0.09464211
46	0x3db9bd8d	0.09069357
47	0x3e868a0f	0.26277205
48	0xbb87d3c3	-0.004145117
49	0x3d7f07ad	0.06226318
50	0xbdef7569	-0.11692316
51	0xbd8b3d94	-0.067988545
52	0xbc3a6355	-0.011376222
53	0x3e3cf94f	0.18454479
54	0x3e52cabe	0.20585153
55	0xbeb834fd	-0.35977927
56	0xbecc9b0b	-0.39962038
57	0x3e048c03	0.12944035
58	0x3b3dd5e6	0.0028966605
59	0xbe665c3b	-0.2249612
60	0xbe25da30	-0.16196513
61	0x3e161a3c	0.14658445
62	0xbe982ab6	-0.29720086
63	0x3ea16eaa	0.31529742
64	0xbe9130ca	-0.28357536
65	0xbe54accf	-0.20769046
66	0x3dad3e50	0.08459151
67	0x3d0614b4	0.032734588
68	0xbe224420	-0.158463
69	0xbe4c8aa1	-0.19974758
70	0x3e685533	0.22688751
71	0x3ec1e04a	0.3786643
72	0xbe606884	-0.2191487
73	0xbe84b735	-0.25921026
74	0xbe8542e6	-0.26027602
75	0x3ea8fe28	0.33006406
76	0x3e90541c	0.2818917
77	0x3e52b7f7	0.2057799
78	0x3cf4c24d	0.029877806
79	0xbaef4ea6	-0.0018257692
80	0xbe757193	-0.23969106
81	0x3e12e115	0.14343674
82	0xbe516930	-0.20450282
83	0xbd42dce0	-0.047573924
84	0x3d90cdaa	0.07070477
85	0x3dd4e892	0.10395922
86	0x3eaed200	0.34144592
87	0x3e911492	0.28336006
88	0xbe33260b	-0.17494981
89	0x3e269116	0.16266283
90	0xbe964be1	-0.29354766
91	0x3e364679	0.1780032
92	0xbde18c53	-0.11013093
93	0x3e694576	0.22780403
94	0xbce20156	-0.027588528
95	0x3dcb5333	0.09927978
96	0x3d06b448	0.032886773
97	0xbe25ba49	-0.16184343
98	0xbecfc1dd	-0.40577593
99	0xbcf80a5b	-0.030278375
100	0x3e0e2fcb	0.13885419
101	0x3e50dd4b	0.20396917
102	0x3e37d058	0.1795057
103	0xbe35c0d4	-0.1774934
104	0x3f0d6a0f	0.5523996
105	0x3e26e1aa	0.16297022
106	0x3e0b05ba	0.13576403
107	0xbd2ee339	-0.042697165
108	0xbdef4448	-0.116829455
109	0xbdaa0376	-0.08301441
110	0x3e2a0863	0.16604762
111	0xbe4ad8ea	-0.19809309
112	0x3e27462b	0.1633536
113	0xbe8c003c	-0.2734393
114	0xbe4291b3	-0.19000892
115	0xbd931e6a	-0.071835354
116	0xbe132f72	-0.14373568
117	0x3e41e439	0.18934716
118	0x3e73357a	0.23750868
119	0xbeb99697	-0.36247703
120	0xbe1d40be	-0.15356728
121	0xbe142877	-0.14468561
122	0x3df80d8d	0.121119596
123	0x3b498fbe	0.0030755843
124	0xbdb58e1b	-0.08864995
125	0xbc9eac57	-0.019369287
126	0xbe125e77	-0.14293848
127	0xbe9cc6ba	-0.30620366
128	0x3e37581f	0.1790471
129	0x3e28b43e	0.16475007
130	0x3ec820b5	0.39087453
131	0xbe905d3c	-0.28196132
132	0xbe67ca44	-0.22635752
133	0x3ec3cb5d	0.3824109
134	0x3e1dbf09	0.15404905
135	0xbe7347a4	-0.23757797
136	0x3de58d5d	0.112086035
137	0xbe2d1279	-0.16901578
138	0x3e860f7c	0.2618369
139	0x3ecd54e1	0.4010382
140	0xbe49b20a	-0.19696823
141	0xbdb55e4a	-0.08855875
142	0xbddecc73	-0.10878839
143	0xbec62d1b	-0.38706288
144	0x3e7359dc	0.23764747
145	0xbe4d2333	-0.20032959
146	0x3ea1cc47	0.31601164
147	0x3e8b1302	0.2716294
148	0x3e880229	0.26564148
149	0xbdeec4bd	-0.116586186
150	0xbd16ed19	-0.036847208
151	0xbd0e5be2	-0.034755595
152	0xbe92aa54	-0.28645575
153	0x3e4e8f36	0.20171818
154	0xbe8916ba	-0.26775151
155	0x3eaff34a	0.34365302
156	0x3ee29732	0.44255978
157	0xbe4d6741	-0.2005892
158	0x3e95b83f	0.2924213
159	0x3b97068f	0.004608936
160	0xbe9594b4	-0.29215014
161	0x3e9b7881	0.30365375
162	0x3e98caa3	0.298421
163	0xbe8b2dc9	-0.2718337
164	0xbd12e432	-0.035862155
165	0xbe857e18	-0.26072764
166	0x3e083b8f	0.1330397
167	0xbeafb3a9	-0.34316757
168	0xbe755fe8	-0.23962367
169	0x3e7ad5ea	0.24495664
170	0x3e11bfbc	0.14233297
171	0xbde3b07f	-0.11117648
172	0xbdebcf50	-0.11514151
173	0xbea37165	-0.3192245
174	0xbcf16154	-0.029465355
175	0x3dd9cd5e	0.10634874
176	0xbd0509fc	-0.032480225
177	0xbe377f1b	-0.1791958
178	0x3eb35f08	0.3503344
179	0xbe50c7e6	-0.20388755
180	0x3d9cc584	0.076548606
181	0xbe944e8d	-0.2896618
182	0xbea7daf2	-0.3278423
183	0xbd861b64	-0.06548193
184	0xbe4b19b3	-0.19834022
185	0x3e6034c2	0.21895126
186	0xbe550ed5	-0.20806439
187	0xbe175995	-0.14780267
188	0xbdc53f61	-0.09631229
189	0xbe4f93e9	-0.20271267
190	0x3e88f287	0.26747534
191	0x3e9ad76d	0.30242482
192	0xbc4cb872	-0.012495147
193	0xbe17a5f3	-0.14809398
194	0x3df27a35	0.118397154
195	0x3e9134c6	0.28360575
196	0xbea5bf1f	-0.32372376
197	0xbd873bf1	-0.0660323
198	0x3e2bf393	0.16792135
199	0xbe45bcd6	-0.19310316
200	0x3ddc8cef	0.107690684
201	0x3eb5c5c6	0.35502452
202	0x3e87bd25	0.26511493
203	0xbe825ab2	-0.2545982
204	0xbe1e5f48	-0.15466034
205	0xbe5f55c3	-0.21810059
206	0xbd0b23cb	-0.03396968
207	0xbf0206cf	-0.5079164
208	0xbd41de09	-0.04733089
209	0xbe37dbf0	-0.17954993
210	0x3e27d737	0.16390692
211	0x3e343a30	0.17600322
212	0xbd093584	-0.033498302
213	0x3ee5794e	0.4481911
214	0xbebbec8f	-0.36703917
215	0x3e5ab05c	0.21356338
216	0xbe192182	-0.14954188
217	0x3da358ba	0.079759076
218	0x3e175a44	0.14780527
219	0xbe4b108a	-0.19830528
220	0xbece220e	-0.40260357
221	0xbec7d6ab	-0.39030966
222	0xbeb4fdfe	-0.3535003
223	0x3e7677d8	0.24069154
224	0x3eab202a	0.33422977
225	0x3e94a4f3	0.29032096
226	0xbeac6daa	-0.33677417
227	0x3ea0630c	0.31325567
228	0x3e76f744	0.24117762
229	0x3a212e90	0.0006148601
230	0x3cfed636	0.031108003
231	0x3dfaa9d3	0.12239423
232	0x3ea70fdb	0.32629284
233	0xbcdc35d5	-0.026881138
234	0x3d14622c	0.036226436
235	0xbc6571d6	-0.014004191
236	0xbb828dba	-0.0039841803
237	0x3e140305	0.14454277
238	0x3d90b77c	0.07066247
239	0xbe345791	-0.17611529
240	0xbe8e3555	-0.27775064
241	0xbecfe92d	-0.40607587
242	0xbe84b41d	-0.25918666
243	0xbe3004cb	-0.17189328
244	0xbebc1d6f	-0.36741206
245	0xbe22099f	-0.15823983
246	0x3e5a7cb5	0.21336634
247	0x3bf880f8	0.0075837336
248	0x3e0b67b6	0.13613781
249	0xbdd280a3	-0.10278442
250	0xbc14b08c	-0.009075295
251	0x3e90dcf7	0.28293583
252	0xbe80260e	-0.25029033
253	0x3e93a543	0.28837022
254	0x3d772989	0.060342345
255	0xbe909f02	-0.28246313

gnn1_pool.convs.1.bias f4 [32]
0	0x3d87fdcd	0.066402055
1	0xbcf4b686	-0.02987219
2	0xbc313c82	-0.010817649
3	0xbe332784	-0.17495543
4	0xbcee35e7	-0.029078437
5	0xbc0b53fb	-0.008503909
6	0xbd98a7a7	-0.07453852
7	0xbb7d8941	-0.0038686546
8	0x3d1a5e88	0.03768781
9	0x3dc3348b	0.09531506
10	0x3cfded46	0.03099693
11	0xbd16c6aa	-0.036810555
12	0xbca52494	-0.020159043
13	0x3b5e1189	0.0033884963
14	0x3d8aaea1	0.06771589
15	0xbdb75b27	-0.08952933
16	0xbd925f53	-0.07147088
17	0xbc11aaa6	-0.008890783
18	0xbb1df598	-0.0024102684
19	0x3d47a040	0.04873681
20	0xbb5a9d3c	-0.003335788
21	0xbd35aef6	-0.04435631
22	0xbb91c54d	-0.004448569
23	0xbd23dcda	-0.040005542
24	0xbcbb2aa6	-0.022847485
25	0xbc7515ac	-0.01495878
26	0xbd0a0516	-0.033696257
27	0xbc6f9bfe	-0.014624594
28	0xbd528ca5	-0.05140366
29	0xbd30ca60	-0.04316175
30	0xbbfc1a63	-0.007693575
31	0x3d4138e0	0.04717338

gnn1_pool.convs.1.lin.weight f4 [32, 32]
0	0x3dacc5e3	0.084361814
1	0x3dd0f70f	0.10203373
2	0xbe90c847	-0.282778
3	0xbcb94ed5	-0.022620598
4	0x3d9abe42	0.0755582
5	0xbed0a813	-0.4075323
6	0xbed293e7	-0.41128466
7	0xbe439e4d	-0.19103356
8	0xbd3eb482	-0.046558864
9	0x3d1a69a8	0.037698418
10	0x3e3797b8	0.1792897
11	0xbe9adad6	-0.30245084
12	0xbe804b5b	-0.25057492
13	0x3e1956db	0.14974539
14	0x3eb547f5	0.3540646
15	0xbe8e19c6	-0.2775404
16	0xbde7326b	-0.11288913
17	0x3dd6829d	0.10474131
18	0xbe08dd82	-0.13365749
19	0x3ec0cf14	0.37657988
20	0x3d7e2d56	0.062054954
21	0xbec19618	-0.37809825
22	0x3dd42f1a	0.103605464
23	0xbecf3f17	-0.4047782
24	0xbe12b475	-0.14326651
25	0xbe9396f0	-0.28826094
26	0x3e7ba192	0.24573353
27	0xba4825ad	-0.00076350087
28	0xbe23bd85	-0.15990265
29	0xbca1c775	-0.019748429
30	0x3db907f5	0.09034721
31	0x3d49775a	0.04918609
32	0x3d7f0d88	0.062268764
33	0xbeb67dbe	-0.3564281
34	0xbeae2086	-0.34009188
35	0xbe422fec	-0.18963593
36	0x3e4d3638	0.20040214
37	0xbe0ed01e	-0.13946578
38	0xbe14da4f	-0.14536403
39	0xbdf52475	-0.11969844
40	0xbe8f299c	-0.27961433
41	0xbe13d096	-0.14435038
42	0xbc276982	-0.010218026
43	0xbdb6cf36	-0.08926241
44	0xbd936296	-0.07196538
45	0x3e44a363	0.19202952
46	0xbe3fd6cd	-0.18734284
47	0x3e2cd09e	0.16876456
48	0x3e57ad04	0.21062094
49	0x3e98ac37	0.2981889
50	0x3e036db4	0.12834817
51	0x3e7f4221	0.2492757
52	0xbdd627a2	-0.10456778
53	0xbec5215c	-0.38502014
54	0x3dd9f785	0.10642914
55	0xbaa06916	-0.0012238349
56	0xbe516cde	-0.20451686
57	0x3dd2f66a	0.10300906
58	0x3cdd7644	0.027033933
59	0x3da61a45	0.08110479
60	0xbe9f1cad	-0.31076565
61	0x3e6ac22c	0.22925633
62	0x3c0fce41	0.008777202
63	0xbea965d3	-0.33085498
64	0xbe03bb55	-0.1286443
65	0xbe0fd35d	-0.14045472
66	0xbdd749c1	-0.10512114
67	0x3e4c0e33	0.19927292
68	0xbccca0d0	-0.024979025
69	0x3c868b35	0.016423801
70	0x3c055046	0.008136814
71	0x3e6ff05f	0.23431538
72	0xbc195e36	-0.009360841
73	0xbdb46a66	-0.088093564
74	0x3ec64fbb	0.38732705
75	0x3eb45321	0.35219672
76	0x3e7e8be6	0.24858055
77	0x3eb1b0b2	0.3470512
78	0x3e35b05e	0.1774306
79	0x3e71741c	0.23579448
80	0x3e132a9b	0.14371721
81	0x3e22c1af	0.15894197
82	0x3e04b044	0.12957865
83	0xbe3f8806	-0.18704233
84	0x3e5e4e5f	0.21709584
85	0x3d20e348	0.039279252
86	0x3e1cd8e2	0.15317109
87	0xbe72abd6	-0.23698363
88	0x3e0ea594	0.1393035
89	0x3e9bad2a	0.3040555
90	0xbea07a90	-0.31343508
91	0xbe46c656	-0.19411597
92	0xbdcbaace	-0.09944688
93	0xbe03b193	-0.12860708
94	0xbd4d351f	-0.05009949
95	0xbd608094	-0.05481012
96	0xbe7d2d32	-0.24724272
97	0x3d328fd2	0.04359419
98	0xbe06cc6f	-0.13163923
99	0x3e113b4c	0.14182776
100	0x3dbc5765	0.09196357
101	0x3d7060ac	0.058685943
102	0x3e00e4fe	0.12587354
103	0xbec58e92	-0.38585335
104	0xbe7215f7	-0.23641191
105	0xbec5996d	-0.38593617
106	0x3d76b80b	0.06023411
107	0xbe515bb2	-0.20445135
108	0xbe2c6227	-0.16834317
109	0xbd8e762e	-0.06956135
110	0x3d24781a	0.0401536
111	0x3e6b3765	0.2297035
112	0x3da68cb1	0.081323035
113	0x3e6aa596	0.22914729
114	0xbe8902cb	-0.26759943
115	0xbe67c4e4	-0.22633702
116	0xbe801095	-0.2501265
117	0xbd02e4aa	-0.031956352
118	0xbe497757	-0.19674431
119	0xbda03661	-0.07822872
120	0x3e50e4d1	0.20399787
121	0x3e370a0b	0.17874925
122	0x3e43e4f1	0.19130303
123	0xbe87d9e7	-0.26533434
124	0x3e66d225	0.22541101
125	0xbe45145e	-0.1924605
126	0xbdd97dd8	-0.10619706
127	0xbe9a452d	-0.30130902
128	0x3e479770	0.19491363
129	0x3ea827d7	0.32842895
130	0x3e30c22a	0.17261568
131	0xbe17ad17	-0.14812122
132	0x3db95311	0.09049047
133	0x3e5a3f2d	0.21313162
134	0xbe23f635	-0.1601189
135	0x3e64a020	0.22326708
136	0x3e9896fc	0.29802692
137	0xbcffdff3	-0.031234717
138	0x3c7585db	0.014985527
139	0xbeaf5e35	-0.34251562
140	0xbe99bea8	-0.30028272
141	0x3e5ac975	0.21365912
142	0x3eb8a910	0.36066484
143	0x3eb2caab	0.34920248
144	0x3db266d2	0.08711018
145	0x3e7577c5	0.2397147
146	0xbd7d209a	-0.06179867
147	0xbe8c3019	-0.27380446
148	0xbdf4083a	-0.119156316
149	0xbe1702bc	-0.14747137
150	0x3df8bef8	0.121457994
151	0xbdcd4c1c	-0.10024282
152	0x3ec9a9e9	0.39387444
153	0xbda161fa	-0.07880016
154	0xbdad22c5	-0.084538974
155	0xbe32c1bd	-0.17456718
156	0x3e0e8fc5	0.13922031
157	0x3e8d3264	0.27577507
158	0xbd191cc5	-0.037380952
159	0x3d99b8d7	0.075059585
160	0xbdb36809	-0.087600775
161	0xbee10a68	-0.43953252
162	0x3dc3fd9a	0.09569855
163	0xbe5f8c3f	-0.21830843
164	0xbd95c87e	-0.073136315
165	0xbd13f03f	-0.03611779
166	0xbd93515d	-0.07193253
167	0xbe93d914	-0.28876555
168	0xbe7c16b4	-0.24618036
169	0x3e30b80c	0.17257708
170	0xbeab69c1	-0.3347912
171	0xbe05e265	-0.13074644
172	0x3e1fc3cd	0.15602036
173	0xbeb261c5	-0.34840217
174	0xbd6197be	-0.055076353
175	0x3e31c5f8	0.17360675
176	0xbdf1e33d	-0.118109204
177	0x3e66142d	0.22468634
178	0x3d8b76bc	0.06809756
179	0xbe0d189c	-0.13778919
180	0x3cb08951	0.021549853
181	0xbeb4c063	-0.3530303
182	0x3eb27292	0.34853035
183	0xbe8dcc56	-0.27694958
184	0x3e70af55	0.23504384
185	0x3dbfd44d	0.09366665
186	0x3e6ad886	0.2293416
187	0xbbac2cb4	-0.0052543525
188	0xbe21a26f	-0.1578462
189	0xbe0f3364	-0.13984448
190	0xbea8fde7	-0.33006212
191	0x3e1712e9	0.14753307
192	0x3e0a3728	0.13497603
193	0xbe6ff800	-0.23434448
194	0xbd2608a9	-0.040535603
195	0x3df3f4a2	0.119118944
196	0xbe76b3fc	-0.24092096
197	0x3c7a1c63	0.015265557
198	0x3ea20c0e	0.31649822
199	0xbce80289	-0.028321521
200	0xbe98ec5e	-0.29867834
201	0xbda0327c	-0.07822129
202	0xbe5fdebc	-0.2186231
203	0x3de19fcb	0.11016806
204	0xbe4ae8c2	-0.19815353
205	0x3e26bbf1	0.16282631
206	0xbcf8335b	-0.030297926
207	0xbe8c6424	-0.2742015
208	0x3e8463ab	0.2585729
209	0xbdf6d3f5	-0.12052146
210	0x3d30abfc	0.043132767
211	0xbe197f12	-0.1498988
212	0x3dc0d824	0.094162256
213	0xbe2ead8e	-0.17058393
214	0x3eb7b1f5	0.35877958
215	0x3e821d90	0.2541318
216	0x3d08b269	0.03337327
217	0x3e90a889	0.28253582
218	0x39bb76f3	0.00035756044
219	0x3eb834ff	0.35977933
220	0x3ddc6ac7	0.10762554
221	0x3e7f702f	0.24945138
222	0x3e490da6	0.19634113
223	0xbdfb7acc	-0.12279281
224	0xbe8f4440	-0.27981758
225	0x3ebc48a1	0.3677416
226	0xbe2b475c	-0.1672644
227	0xbdb7422c	-0.08948168
228	0x3cdec953	0.027195608
229	0x3e8bc998	0.2730224
230	0xbe87c5fd	-0.2651824
231	0xbb965546	-0.004587802
232	0x3e3e3e92	0.18578556
233	0xbef96543	-0.4871007
234	0x3e2accb6	0.16679654
235	0xbea3eb23	-0.32015333
236	0x3ec10596	0.37699574
237	0x3e374f1c	0.17901272
238	0x3e293fea	0.16528288
239	0xbe4d27c1	-0.20034696
240	0xbe51029f	-0.20411156
241	0xbd354ba4	-0.04426159
242	0x3e1efc1c	0.1552586
243	0x3d10b7be	0.03533148
244	0xbe5411ab	-0.20709865
245	0xbd87b422	-0.066261545
246	0x3c87e437	0.016588314
247	0xbe815005	-0.25256363
248	0x3e2b415e	0.16724154
249	0x3e2dcdb2	0.16972998
250	0xbdb70b08	-0.08937651
251	0xbf15e5b9	-0.58553654
252	0x3eb468e6	0.3523628
253	0x3de35d12	0.11101736
254	0xbdc610de	-0.09671186
255	0xbe307254	-0.17231113

gnn1_pool.convs.2.bias f4 [24]
0	0xbd5806a8	-0.052740723
1	0xbbeee86a	-0.0072908895
2	0x3831d96c	4.240258e-05
3	0x3d584aa1	0.052805547
4	0xbde71e8b	-0.112851225
5	0xbda47682	-0.08030416
6	0xbdadb590	-0.08481896
7	0xbb8ee9e8	-0.00436138
8	0x3b9bd2aa	0.0047553377
9	0x3e15ad21	0.14616825
10	0x3cfcca96	0.03085832
11	0x3d619987	0.055078056
12	0x3d1b3f77	0.03790232
13	0x3cf7945b	0.030222109
14	0xbc4a95f6	-0.012364855
15	0xbdd4fb06	-0.103994414
16	0xbdb30e63	-0.087429784
17	0xbd6d8f8a	-0.057998218
18	0x3d36abbc	0.044597372
19	0x3cd3f1eb	0.025872191
20	0xbcf20aab	-0.029546103
21	0xbc0fd171	-0.008777962
22	0xbbb679b3	-0.005568707
23	0x3d3fbeab	0.046812695

gnn1_pool.convs.2.lin.weight f4 [24, 32]
0	0x3e20ddfe	0.15709683
1	0x3d494c4d	0.04914503
2	0x3e15fccd	0.14647217
3	0xbd6657d5	-0.056236107
4	0x3c4666fd	0.012109515
5	0xbe9b018a	-0.30274612
6	0x3ec719ad	0.38886777
7	0x3dab3aa3	0.083607934
8	0x3de797e4	0.11308268
9	0x3e8a0ad7	0.26961395
10	0xbb590c5e	-0.0033118944
11	0x3e57c0dc	0.21069664
12	0xbe93462a	-0.28764468
13	0xbcc1c918	-0.02365546
14	0xbe209472	-0.15681627
15	0xbd5ab5a9	-0.0533959
16	0xbe519a76	-0.20469078
17	0x3e91fe03	0.28514108
18	0x3e3a7ed7	0.18212448
19	0x3bef7952	0.0073081637
20	0x3e164946	0.14676389
21	0x3e646f78	0.22308147
22	0xbe283463	-0.16426234
23	0x3eceae47	0.40367338
24	0xbe67b530	-0.22627711
25	0x3e1e0c9f	0.15434502
26	0x3d691969	0.056909
27	0xbd29a920	-0.041421056
28	0xbd9a1e47	-0.07525306
29	0x3e5d6cb9	0.21623506
30	0xbea74647	-0.32670805
31	0x3e236301	0.15955736
32	0x3ed547cc	0.4165634
33	0x3e725f58	0.23669183
34	0xbda88b39	-0.082296796
35	0xbd8557e8	-0.065109074
36	0xbdc4e102	-0.09613229
37	0x3d031c41	0.032009367
38	0xbdb44db9	-0.08803887
39	0x3e13e0b4	0.14441186
40	0x3eb5c1d4	0.35499442
41	0x3e2d587f	0.1692829
42	0x3d0f0ef8	0.034926385
43	0xbe16232c	-0.14661855
44	0x3d5a0b08	0.053233176
45	0x3e050cc4	0.12993151
46	0xbd7b8142	-0.061402567
47	0x3e170ddc	0.1475138
48	0x3d7ee36a	0.062228598
49	0xbf188956	-0.5958456
50	0x3f1928d7	0.5982794
51	0xbe1ebb03	-0.15501027
52	0xbe336518	-0.17519033
53	0x3da21aa3	0.07915237
54	0x3eb65de5	0.3561851
55	0x3e3683af	0.17823671
56	0x3dfecc5b	0.124413215
57	0x3e6657f7	0.22494493
58	0x3e9ff72b	0.31243262
59	0x3e950f0f	0.2911305
60	0xbbb5f735	-0.005553151
61	0x3df45918	0.11931056
62	0xbe54c965	-0.20779951
63	0xbe358e80	-0.1773014
64	0x3e9c0281	0.3047066
65	0xbe631cea	-0.22178999
66	0x3dcb5d8b	0.09929951
67	0x3e63bd53	0.2224019
68	0x3dab5b5d	0.083670355
69	0x3d774dca	0.06037692
70	0xbe422877	-0.18960749
71	0x3e5f6cb6	0.21818814
72	0xbd36b5f4	-0.044607118
73	0xbc0418f3	-0.008062589
74	0xbd198603	-0.03748132
75	0xbe8f34ea	-0.27970058
76	0x3d02096e	0.031747274
77	0x3e8b02e4	0.27150643
78	0x3ca44a02	0.02005482
79	0xbe72fa40	-0.23728275
80	0xbdaff6e9	-0.08592016
81	0x3d82a684	0.063794166
82	0xbe51478b	-0.20437448
83	0x3e241617	0.16024052
84	0xbe9b6d9b	-0.3035706
85	0x3e98092e	0.29694504
86	0x3e853e20	0.2602396
87	0x3dc85e26	0.097835824
88	0xbe0f8ec9	-0.14019312
89	0x3d45dfff	0.048309322
90	0x3e75311a	0.23944512
91	0xbee56e25	-0.44810596
92	0xbc32d6e3	-0.010915491
93	0xbec54f75	-0.38537183
94	0x3dcc55a4	0.09977272
95	0xbe2abefd	-0.16674419
96	0x3d4a6e85	0.049421806
97	0x3e3a4929	0.18191971
98	0x3d9d9142	0.07693721
99	0xbe8dc7c4	-0.27691472
100	0xbe0973fc	-0.13423151
101	0x3ea9bb51	0.33150724
102	0xbe0b096a	-0.1357781
103	0x3e4862c1	0.19568922
104	0x3d0222c7	0.031771448
105	0xbeb6f3ef	-0.35732982
106	0x3e0361c9	0.12830271
107	0xbe75379d	-0.23946996
108	0xbbd31a95	-0.006442378
109	0x3cf02761	0.029315652
110	0xbdbbb4f4	-0.091653734
111	0x3e23ea92	0.1600745
112	0xbe187600	-0.14888763
113	0xbd8ec1c0	-0.06970549
114	0xbe98aa75	-0.29817548
115	0x3b43c8f2	0.0029874411
116	0x3e704c9a	0.23466721
117	0xbe220af8	-0.15824497
118	0x3d0435da	0.03227792
119	0x3e72b485	0.23701675
120	0xbd9932dc	-0.07480404
121	0x3da72bb0	0.081626296
122	0x3e903d08	0.28171563
123	0x3ed945ab	0.42435965
124	0xbdf10f2d	-0.11770473
125	0xbeabcd4b	-0.33555064
126	0x3e15d5ed	0.14632387
127	0x3d97f903	0.07420542
128	0x3e19c647	0.15017043
129	0x3db84b71	0.08998764
130	0xbea01350	-0.31264734
131	0xbe596167	-0.21228562
132	0x3df99928	0.12187415
133	0xbed61294	-0.4181105
134	0x3e81abdb	0.25326428
135	0xbe448bc2	-0.19193938
136	0xbe926a8d	-0.28596917
137	0xbe81673c	-0.25274074
138	0xbd69be5c	-0.057066306
139	0xbd1e0fa3	-0.03858913
140	0xbe75636e	-0.2396371
141	0xbd7ab87b	-0.06121109
142	0xbcd77596	-0.026301187
143	0xbdaa6287	-0.08319574
144	0xbea650a2	-0.32483393
145	0xbe43f495	-0.1913627
146	0x3e1e7fa7	0.15478383
147	0x3e934d31	0.2876983
148	0x3d07e38e	0.033175997
149	0x3e6ba8bb	0.23013584
150	0x3da77384	0.0817633
151	0x3ea8fb71	0.33004335
152	0x3ea73b98	0.32662654
153	0xbe125b1b	-0.14292566
154	0xbe1004d8	-0.14064348
155	0xbe540172	-0.20703676
156	0xbd54c736	-0.051947795
157	0x3d567271	0.052355234
158	0x3ed217ba	0.41033727
159	0xbe7b2bb3	-0.24528389
160	0x3e82cf94	0.25548995
161	0xbe84f73e	-0.2596988
162	0x3d680c47	0.056652334
163	0x3e36e665	0.17861326
164	0xbe520700	-0.20510483
165	0x3e0d0a82	0.1377354
166	0x3e15c3a9	0.1462542
167	0x3e013b97	0.12620388
168	0xbe8bc6c7	-0.27300093
169	0xbe39cefa	-0.18145362
170	0xbe3babd8	-0.18327272
171	0xbeae55eb	-0.34049925
172	0x3e5f4e0d	0.21807118
173	0xbdcee7c2	-0.10102798
174	0xbaeaefe9	-0.0017924282
175	0xbd9c9f7f	-0.07647609
176	0x3e89d5d8	0.26920962
177	0x3e22ab09	0.15885557
178	0xbbc7374a	-0.006079589
179	0x3dae8ba0	0.08522725
180	0xbb911999	-0.0044281003
181	0x3da61b3e	0.08110665
182	0xbd97e6ec	-0.07417092
183	0x3e27ebdd	0.16398568
184	0x3d45953b	0.04823802
185	0xbe13b0f3	-0.1442297
186	0x3e4c200b	0.19934098
187	0xbe65fab1	-0.22458912
188	0x3f4ada31	0.79239184
189	0xbe92d4a4	-0.28677857
190	0xbdc54fca	-0.09634359
191	0x3e7cae7f	0.2467594
192	0x3f16d5e1	0.58920103
193	0xbce52d80	-0.027975798
194	0x3e4852c0	0.19562817
195	0x3e40fe16	0.18846926
196	0xbe01ccdb	-0.12675802
197	0x3cbc973f	0.023021339
198	0x3e8213a0	0.25405598
199	0x3e9f7a8b	0.3114818
200	0xbe87c3fa	-0.26516706
201	0x3dae5784	0.08512786
202	0xbce86c75	-0.028372029
203	0x3e7ca59c	0.2467255
204	0xbe3f9f33	-0.18713073
205	0x3e02c9a2	0.1277223
206	0x3d373d9b	0.044736486
207	0x3e601874	0.21884328
208	0x3ecc38d9	0.3988712
209	0xbe3e8598	-0.1860565
210	0x3ee7fa7b	0.4530829
211	0x3d8f299e	0.0699036
212	0x3e88fea5	0.26756778
213	0xbd335e32	-0.043791004
214	0x3e4c1715	0.1993068
215	0xbe9d7a2a	-0.30757266
216	0x3d691f48	0.056914598
217	0x3e466104	0.19372946
218	0x3e389a9d	0.1802773
219	0x3dd22669	0.102612324
220	0xbdcaeaa2	-0.09908034
221	0xbdb3f518	-0.08786982
222	0x3e9a9369	0.3019059
223	0xbd0f43ed	-0.03497689
224	0xbe15d45b	-0.14631788
225	0xbe5677e1	-0.20944168
226	0xbd5b4b86	-0.05353882
227	0xbc07f114	-0.008297224
228	0x3ec767d8	0.38946414
229	0x3e393166	0.1808525
230	0xbebcd992	-0.36884743
231	0x3d9c0789	0.07618625
232	0xbe87107a	-0.26379758
233	0xbde1a4dd	-0.11017773
234	0xbd68ae36	-0.056806765
235	0xbe080bf2	-0.13285807
236	0x3ed5b11f	0.41736695
237	0xbd17614c	-0.036958024
238	0xb5e55e00	-1.7089187e-06
239	0xbe5c2864	-0.21499783
240	0x3df9ed9e	0.12203525
241	0xbe180997	-0.14847408
242	0x3e04f143	0.12982659
243	0xbdb574ed	-0.088601924
244	0xbdd3ffc1	-0.103515156
245	0x3d6002f6	0.054690324
246	0x3e8d1769	0.27556923
247	0x3d9de90c	0.07710466
248	0x3e3f88a4	0.18704468
249	0xbdb04c73	-0.086083315
250	0x3d34f105	0.044175167
251	0x3d8defcc	0.06930503
252	0xbbe22387	-0.006901208
253	0xbca2833a	-0.019837964
254	0x3dfc1d34	0.123102576
255	0x3d92d64b	0.071697794

gnn1_pool.bns.0.weight f4 [32]
0	0x3f892ff1	1.0717756
1	0x3f8e8b70	1.1136303
2	0x3f85910f	1.0434893
3	0x3f7f21f1	0.99661165
4	0x3f654099	0.89551693
5	0x3f6cedde	0.92550457
6	0x3f7b2d34	0.9811585
7	0x3f843b39	1.0330573
8	0x3f7bdd5a	0.9838463
9	0x3f6d4780	0.92687225
10	0x3f89127c	1.0708766
11	0x3f8b11f3	1.0864853
12	0x3f59f868	0.8514466
13	0x3fa04e18	1.2523832
14	0x3f6ef0b9	0.93336064
15	0x3f6dac3a	0.9284092
16	0x3f781bef	0.96917623
17	0x3f91a6c2	1.1379015
18	0x3f738422	0.95123494
19	0x3f882fe6	1.0639617
20	0x3f4d2679	0.8013683
21	0x3f8d19a7	1.1023453
22	0x3f80f7b3	1.0075592
23	0x3f8759fc	1.0574336
24	0x3f6c7b07	0.92375225
25	0x3f7ce520	0.98787117
26	0x3f70dbd1	0.94085413
27	0x3f80aa0c	1.0051894
28	0x3f84631f	1.0342749
29	0x3f8761a6	1.0576675
30	0x3f65feae	0.89841735
31	0x3f5b6ffd	0.85717756

gnn1_pool.bns.0.bias f4 [32]
0	0x3b8a2eff	0.004217028
1	0xbd041b69	-0.032252703
2	0x3d3ba8e6	0.04581537
3	0x3d21ac60	0.03947103
4	0xbe1eab8b	-0.15495126
5	0x3d779cd8	0.060452312
6	0x3dd3da6b	0.10344394
7	0x3df3d060	0.11904979
8	0xbd8d9011	-0.06912244
9	0x3c69590e	0.014242424
10	0x3d19ca65	0.037546534
11	0x3c295f53	0.0103376685
12	0xbe58ba72	-0.21164873
13	0xbc7c5238	-0.015400462
14	0xbc4b8f84	-0.0124243535
15	0xbc889f79	-0.016677605
16	0x3e0bde95	0.13659127
17	0xbd81c4ec	-0.06336388
18	0xbdb3a04c	-0.087708086
19	0xbcc6c762	-0.024264995
20	0xbe04e125	-0.12976511
21	0x3e18f7be	0.14938256
22	0xbd8c67a9	-0.06855709
23	0x3e88c849	0.26715305
24	0xbdb8b3d6	-0.09018676
25	0xbc939ba5	-0.018018553
26	0xbd3f6fce	-0.046737485
27	0x3d6b10d8	0.05738911
28	0x3d28d377	0.041217294
29	0xbd8ac5e7	-0.06776028
30	0x3e1a1b94	0.15049583
31	0x3dec4c87	0.11538034

gnn1_pool.bns.0.running_mean f4 [32]
0	0xbe040fdd	-0.12896676
1	0x3da2a976	0.07942478
2	0x3deb4cd6	0.11489265
3	0x3defd4ae	0.11710487
4	0xbe29bec0	-0.16576672
5	0xbdf10205	-0.11767963
6	0xbdd21c76	-0.10259335
7	0x3d0665d1	0.032811943
8	0x3d33d3c0	0.043903112
9	0x3da4b3fb	0.08042141
10	0xbd8fc4f0	-0.07019985
11	0x3d9b08e8	0.07570058
12	0xbd1369b0	-0.035989463
13	0xbd40108a	-0.046890773
14	0xbdcf1c32	-0.101128
15	0x3e3cc372	0.18433931
16	0x3d3fa132	0.046784587
17	0xbe324e60	-0.1741271
18	0xbc1d1d09	-0.009589442
19	0xbe221e50	-0.15831876
20	0x3cb1c933	0.021702385
21	0x3e3399bf	0.17539118
22	0x3e249c85	0.16075332
23	0x3d9b4bcc	0.075828165
24	0xbe480111	-0.19531657
25	0xbdc10cdd	-0.094262816
26	0xbd719644	-0.058981195
27	0xbde1c444	-0.11023763
28	0x3d632bf1	0.055461828
29	0xbda7affb	-0.081878625
30	0xbe2565d3	-0.16152124
31	0xbe02ae17	-0.12761723

gnn1_pool.bns.0.running_var f4 [32]
0	0x3b865ecf	0.0041006575
1	0x3c28d5a7	0.010304845
2	0x3b1223cf	0.0022299176
3	0x3c50d1c9	0.012745329
4	0x3ca9c61f	0.020724354
5	0x3bfd1765	0.007723736
6	0x3bda51c0	0.0066625774
7	0x3c2bd303	0.010487321
8	0x3b2e0b8e	0.002655718
9	0x3b83821d	0.0040133134
10	0x3c871d13	0.016493356
11	0x3c4b5ec3	0.01241273
12	0x3bed69d7	0.007245283
13	0x3c01d8fa	0.007925266
14	0x3c6284a0	0.013825566
15	0x3c99fc11	0.018796952
16	0x3cbfdc79	0.02342056
17	0x3c1b0453	0.00946148
18	0x3c6c9625	0.014440094
19	0x3c9bf146	0.019035947
20	0x3be4e0cd	0.006984806
21	0x3b964a98	0.004586529
22	0x3c848194	0.016175069
23	0x3c4dc405	0.012558942
24	0x3b72a72b	0.003702591
25	0x3bcb23c5	0.0061993324
26	0x3c2a61fa	0.010399336
27	0x3bf0320b	0.0073301843
28	0x3ba0c6cb	0.0049065105
29	0x3b89e1e7	0.004207838
30	0x3c656095	0.014000078
31	0x3c08afe7	0.00834272

gnn1_pool.bns.1.weight f4 [32]
0	0x3f84fec6	1.0390251
1	0x3f6a5ffe	0.9155272
2	0x3f8e4d8b	1.1117414
3	0x3f8cf521	1.1012307
4	0x3f7fdbc3	0.99944705
5	0x3f8cea60	1.1009026
6	0x3f6f47fb	0.9346921
7	0x3f75b483	0.95978564
8	0x3f74f7a6	0.9569038
9	0x3f7fe1ce	0.99953926
10	0x3f87abde	1.0599325
11	0x3f71ef40	0.9450569
12	0x3f736d64	0.9508879
13	0x3f824569	1.0177432
14	0x3f6ed8da	0.9329964
15	0x3f5c4efe	0.8605803
16	0x3f71d410	0.94464207
17	0x3f738c57	0.95136017
18	0x3f6d177f	0.9261398
19	0x3f71bdd4	0.9443028
20	0x3f89e840	1.0774002
21	0x3f722bf4	0.9459832
22	0x3f8173a4	1.0113416
23	0x3f84b105	1.0366522
24	0x3f87b37b	1.0601648
25	0x3f8d9bdd	1.1063191
26	0x3f816e93	1.011187
27	0x3f8c3f09	1.0956737
28	0x3f6d229a	0.9263092
29	0x3f5acfa4	0.85473084
30	0x3f7de35c	0.9917505
31	0x3f661919	0.89882046

gnn1_pool.bns.1.bias f4 [32]
0	0x3e249162	0.16071084
1	0x3e3e0ac6	0.18558797
2	0x3dbdfe05	0.09276966
3	0xbe24bfbc	-0.16088766
4	0x3e216366	0.15760574
5	0xbed99774	-0.42498362
6	0x3d52c6eb	0.051459234
7	0x3e2305ac	0.15920132
8	0xbe2074ec	-0.15669602
9	0xbe0f126b	-0.1397187
10	0xbe7d849b	-0.24757616
11	0x3e2a7c0c	0.16648883
12	0xbf07a58f	-0.52987
13	0xbcc5de45	-0.024153838
14	0xbe8c282c	-0.273744
15	0x3cfa0b56	0.030522984
16	0xbdb6b55f	-0.089213125
17	0x3dbbad71	0.09163941
18	0x3dcd3af0	0.10021007
19	0xbe205187	-0.156561
20	0xbe19e553	-0.15028886
21	0x3db27b48	0.0871492
22	0xbded53d7	-0.11588257
23	0x3cd13f3c	0.025542848
24	0xbe0616b9	-0.13094606
25	0x3e4d2cb1	0.2003658
26	0x3d668e62	0.05628813
27	0xbeb63d81	-0.355938
28	0xbe9c8743	-0.30571947
29	0x3ed45fa8	0.4147923
30	0xbe22a5dd	-0.15883584
31	0x3ef3c25e	0.47609228

gnn1_pool.bns.1.running_mean f4 [32]
0	0xbf2b26c3	-0.6685602
1	0xbebd94dd	-0.37027636
2	0x3f2f6000	0.6850586
3	0xbf45dd35	-0.7729066
4	0x3f07cbb8	0.53045225
5	0xbf6e83bb	-0.93169755
6	0x3ef94a9f	0.48689744
7	0xbed72470	-0.42019987
8	0xbf95a34d	-1.169046
9	0xbe0ede07	-0.13951884
10	0xbf25fd1a	-0.6483933
11	0x3f8fe366	1.1241271
12	0x3e067ff5	0.13134749
13	0xbee60021	-0.44921973
14	0xbaa49b71	-0.0012558532
15	0xbf7c46ab	-0.9854533
16	0x3e8b15f6	0.27165192
17	0xbf80d17c	-1.006393
18	0x3eb532b3	0.35390243
19	0x3f36790d	0.7127846
20	0xbf333b1b	-0.7001206
21	0xbcb996c4	-0.022654898
22	0x3f2105c2	0.6289941
23	0x3fb15f2d	1.385717
24	0xbf880d78	-1.062911
25	0xbf449274	-0.7678597
26	0xbf38463f	-0.7198219
27	0xbf073218	-0.5281081
28	0xbf047c74	-0.517524
29	0xbf1c017b	-0.6093976
30	0x3da2c338	0.07947391
31	0xbf2a554d	-0.6653641

gnn1_pool.bns.1.running_var f4 [32]
0	0x401b3a4c	2.4254332
1	0x3f0a22f9	0.53959614
2	0x3ea0b9d2	0.3139177
3	0x3e0d1616	0.13777956
4	0x3ef5c984	0.48005307
5	0x3e22d3d7	0.15901123
6	0x3ef79942	0.48359114
7	0x3f8c4e2e	1.0961359
8	0x3fc4b85e	1.5368764
9	0x3e030d3f	0.12798022
10	0x3e92f1e3	0.2870017
11	0x3f6dbb92	0.92864335
12	0x3e893684	0.26799405
13	0x3ee06ab7	0.43831417
14	0x3e91dc9b	0.2848862
15	0x403c55d0	2.9427376
16	0x3f1d71a1	0.6150151
17	0x3f5e3f67	0.86815494
18	0x401075b7	2.2571847
19	0x3f49df1c	0.7885606
20	0x3f0dcb50	0.55388355
21	0x3f92b4a3	1.1461376
22	0x3f19d1ba	0.6008564
23	0x3fae8f8a	1.3637555
24	0x3e88967e	0.26677316
25	0x3f902900	1.1262512
26	0x3eb06557	0.34452316
27	0x3e04e797	0.1297897
28	0x3e729b8a	0.23692146
29	0x3ebf1591	0.3732114
30	0x3e3c3c76	0.18382439
31	0x3f26aa0f	0.6510324

gnn1_pool.bns.2.weight f4 [24]
0	0x4070bf1a	3.761664
1	0x3ffdb380	1.9820404
2	0x3f22bbbe	0.6356772
3	0x4037e8c4	2.873582
4	0x404e20a9	3.2207434
5	0x40105548	2.2552052
6	0x3ffcbd57	1.9745282
7	0x40104d3a	2.2547135
8	0x3f12ac41	0.5729409
9	0x4005bf94	2.089818
10	0x40249cd1	2.5720713
11	0x4006c126	2.1055388
12	0x3f42f246	0.7615093
13	0x403152ba	2.7706742
14	0x401734bd	2.362594
15	0x4080b636	4.0222425
16	0x40b28537	5.5787616
17	0x406a1a1f	3.6578443
18	0x4010a71d	2.2601998
19	0x3ff56d38	1.9173956
20	0x4004c18d	2.0743134
21	0x3facd4ec	1.3502479
22	0x3fffa7d0	1.9973087
23	0x3ff21c70	1.8914928

gnn1_pool.bns.2.bias f4 [24]
0	0x40017205	2.0225842
1	0x3f1ac5e4	0.6045821
2	0xbf27cc15	-0.6554578
3	0x3ea9dc4f	0.33175895
4	0x3f8b83d5	1.0899607
5	0x3db44330	0.088018775
6	0x3f366586	0.7124866
7	0xbc492e2d	-0.012279076
8	0xbf197c4d	-0.5995529
9	0x3f3d9030	0.7404814
10	0xbe5698b3	-0.20956688
11	0xbdac284c	-0.084061235
12	0xbf3d26e8	-0.7388749
13	0x3f00da2b	0.503329
14	0xbe76d2e2	-0.24103883
15	0x3f909205	1.1294562
16	0x409adc18	4.839367
17	0x3fa7bc8d	1.3104416
18	0x3e86c5db	0.26322827
19	0x3f266a7d	0.6500624
20	0x3f301835	0.68786937
21	0xbf20104d	-0.62524873
22	0x3f0b8979	0.5450664
23	0xbe42c95b	-0.19022124

gnn1_pool.bns.2.running_mean f4 [24]
0	0x3f806a72	1.0032485
1	0x3f83e185	1.0303198
2	0xbd0511b9	-0.032487605
3	0x3da1febe	0.07909916
4	0xbea09f40	-0.31371498
5	0xbd3c7a75	-0.04601522
6	0x3faa4f10	1.3305378
7	0xbdc47dc3	-0.095943
8	0x3ee8619f	0.4538698
9	0x3fc48933	1.535437
10	0xbf3f1f10	-0.7465677
11	0xbe5cbbab	-0.21555965
12	0x3f718209	0.9433904
13	0xbdaf59d1	-0.08562053
14	0xbe843835	-0.25824133
15	0xbfbfc12a	-1.4980824
16	0x3fcabf85	1.5839697
17	0x3fed2f7d	1.8530117
18	0x3ec66320	0.387475
19	0x3f75c860	0.96008873
20	0x3fc40c13	1.5316185
21	0x3f3e3416	0.74298227
22	0x3f4996fc	0.7874601
23	0x3e1c6bc7	0.15275489

gnn1_pool.bns.2.running_var f4 [24]
0	0x3edfac4b	0.43686137
1	0x3ee02aa2	0.43782526
2	0x3ef78c07	0.4834902
3	0x3e2c757c	0.16841692
4	0x3e838ad2	0.2569185
5	0x3e28ec2c	0.16496342
6	0x3f29fe91	0.6640406
7	0x3dd73c39	0.105095334
8	0x3eed8e77	0.46397755
9	0x3eec31a2	0.46131617
10	0x3d8fb32d	0.07016597
11	0x3e4eaf87	0.20184146
12	0x3eaea89b	0.3411301
13	0x3ed792bd	0.4210414
14	0x3e301069	0.1719376
15	0x3de00c7b	0.109398805
16	0x4016887c	2.3520803
17	0x3f841ae2	1.0320704
18	0x3f3ea4ba	0.744701
19	0x3eda24ba	0.42606145
20	0x3f1cfe65	0.61325675
21	0x3f1f14d1	0.6214114
22	0x3ead5808	0.33856225
23	0x3de7cf0b	0.11318787

gnn1_embed.convs.0.bias f4 [32]
0	0x3db79ecb	0.08965834
1	0x3ccc0de7	0.024908973
2	0x3cd8d05f	0.026466547
3	0x3d34094c	0.04395418
4	0xbc831982	-0.016003374
5	0x3b871f72	0.0041236216
6	0x3da4a0a5	0.08038453
7	0xbb28b9dc	-0.0025745546
8	0xbd25dd97	-0.040494528
9	0x3d0ed256	0.03486856
10	0xbdc79b2a	-0.09746392
11	0xbbed37e5	-0.007239329
12	0x3d449733	0.047995757
13	0x3cfa4266	0.03054924
14	0x3cc03894	0.023464479
15	0x3cfc59a3	0.03080446
16	0xbd8c1b69	-0.068411656
17	0xbcb05498	-0.021524712
18	0xbc781c96	-0.015143534
19	0x3d9bd1b7	0.07608359
20	0xb91f1b2a	-0.00015173541
21	0x3d18a41a	0.037265874
22	0xbd6fa093	-0.058502745
23	0x3c3f7c5a	0.011687363
24	0xbd17a5bd	-0.037023295
25	0xbdbc651d	-0.09198973
26	0xbd0f6703	-0.03501035
27	0xbd82f6c5	-0.06394724
28	0xbc34147a	-0.01099121
29	0x3dc46438	0.09589428
30	0x3dba3960	0.09092975
31	0x3ca8d814	0.020610847

gnn1_embed.convs.0.lin.weight f4 [32, 14]
0	0x3d9019c9	0.07036168
1	0xbe570bed	-0.21000643
2	0x3b3299cd	0.0027252317
3	0xbec596b1	-0.3859153
4	0xbb8cb439	-0.004293945
5	0x3dad0c50	0.08449614
6	0x3deee74e	0.116652116
7	0xbee06d95	-0.43833604
8	0xbe6877b2	-0.2270191
9	0x3c2b778d	0.010465515
10	0xbd64b305	-0.05583479
11	0x3e391400	0.18074036
12	0x3dc6b9c7	0.09703403
13	0xbe3a741a	-0.18208352
14	0xbe420c00	-0.1894989
15	0xbe3f89c4	-0.18704897
16	0x3e8f39ec	0.27973878
17	0xbe30b9dc	-0.172584
18	0xbd8507d1	-0.064956315
19	0x3e42c014	0.19018584
20	0x3ead4a1f	0.33845612
21	0xbe582371	-0.2110727
22	0x3df7f8eb	0.12108024
23	0x3ebb9e3e	0.36644167
24	0x3e9813d8	0.2970264
25	0xbe81f9d3	-0.25385913
26	0x3e87e62c	0.26542795
27	0x3eab0d53	0.33408603
28	0x3e57afd8	0.21063173
29	0x3eb15737	0.34636852
30	0x3d0bee6b	0.03416292
31	0xbe731987	-0.23740207
32	0xbf0a3c87	-0.5399861
33	0x3c8d7cdd	0.017271454
34	0x3e801d7d	0.25022498
35	0xbde7a834	-0.11311379
36	0x3bbe464f	0.0058067213
37	0x3ec4dcae	0.38449615
38	0xbeb79e48	-0.35862947
39	0xbd3b9292	-0.045794077
40	0x3e8f83a7	0.2803013
41	0x3d8d4747	0.06898361
42	0xbd15869c	-0.036505327
43	0xbdec860b	-0.11549004
44	0xbe9718ee	-0.29511207
45	0x3e70d091	0.23517062
46	0x3e5d8fce	0.21636888
47	0xbec7ec25	-0.3904735
48	0x3e24f7ff	0.16110228
49	0x3e05fcad	0.1308467
50	0x3e1c50d9	0.15265216
51	0xbe031f8b	-0.12805001
52	0xbe2c635d	-0.16834779
53	0xbe189b77	-0.14903055
54	0x3e00f37d	0.12592883
55	0x3e5e77ff	0.21725462
56	0xbe9b97c9	-0.3038924
57	0xbe669ef3	-0.22521572
58	0xbdfffc4f	-0.12499296
59	0x3dc7d86d	0.09758077
60	0xbdff736d	-0.124731876
61	0xbe94cf6e	-0.29064506
62	0xbe5a3bdb	-0.21311896
63	0x3e080e19	0.13286628
64	0x3e3962c6	0.18104085
65	0xbe23dd4a	-0.16002384
66	0xbea8501d	-0.32873622
67	0xbda63c13	-0.08116927
68	0x3e348a9a	0.17630997
69	0xbe49ba61	-0.19700004
70	0x3dea5553	0.114420556
71	0x3e1188a4	0.1421228
72	0x3e141d65	0.14464338
73	0x3e4104ff	0.18849562
74	0xbe9f1474	-0.31070292
75	0xbebf77b0	-0.37396002
76	0x3e459fe9	0.19299282
77	0xbe67cfa8	-0.22637808
78	0xbdec1984	-0.11528304
79	0x3eca82cf	0.39552924
80	0xbd5a0872	-0.05323071
81	0x3eeab323	0.45839795
82	0xbd886ca7	-0.06661349
83	0x3e307568	0.17232287
84	0xbc571a98	-0.013128899
85	0x3e81acdb	0.2532719
86	0xbe8cdce1	-0.27512267
87	0x3e331276	0.17487511
88	0x3e39fee4	0.1816364
89	0x3de6c8c9	0.112687655
90	0xbea1a9a6	-0.31574744
91	0xbed39b51	-0.41329435
92	0xbe651e23	-0.22374777
93	0xbe8b5664	-0.27214348
94	0x3da5aa4c	0.08089122
95	0xbdd5155b	-0.10404464
96	0xbe83bbf7	-0.25729343
97	0x3e8a5a48	0.27022004
98	0x3e634a60	0.2219634
99	0xbe03095e	-0.12796542
100	0x3e99a395	0.30007616
101	0xbdc293f5	-0.09500877
102	0xbe849afe	-0.258995
103	0xbe5141ea	-0.204353
104	0x3ed9260f	0.4241185
105	0x3eb4ee23	0.35337934
106	0xbe5e56ed	-0.21712847
107	0x3db9a842	0.09065296
108	0xbe89f24a	-0.26942664
109	0x3d0d5307	0.03450301
110	0x3e988e14	0.29795897
111	0xbe8309b7	-0.2559335
112	0x3d10ff1e	0.03539955
113	0xbe34308e	-0.17596647
114	0x3d881e12	0.066463605
115	0x3ea3b5b2	0.3197456
116	0x3dd036fa	0.10166736
117	0xbea44452	-0.32083374
118	0x3e94fab4	0.2909752
119	0x3e903ee1	0.28172973
120	0x3e7c0321	0.24610569
121	0x3eaf3989	0.34223583
122	0x3eae1ebb	0.3400782
123	0x3e4def62	0.20110849
124	0xbe54af6d	-0.20770045
125	0x3decd4bc	0.11564013
126	0xbd6815eb	-0.056661528
127	0x3e2a9475	0.16658194
128	0x3dc8b4c4	0.09800103
129	0x3d82e2a2	0.06390883
130	0xbe94eed5	-0.29088464
131	0x3ebd87c8	0.37017655
132	0x3c03c360	0.0080421865
133	0xbf2fe019	-0.6870132
134	0xbe3f3966	-0.1867424
135	0xbd4aa05f	-0.049469348
136	0x3e677fe7	0.22607385
137	0x3e2e289c	0.17007679
138	0x3dd4aab9	0.10384125
139	0xbe2adc8e	-0.16685697
140	0xbd8559ca	-0.065112665
141	0x3e2c6471	0.1683519
142	0xbe98c8ec	-0.2984079
143	0xbd5ef38c	-0.054431483
144	0x3ebadf4e	0.36498493
145	0xbe3ab258	-0.18232095
146	0xbdcfd60e	-0.101482496
147	0xbdaca2a0	-0.08429456
148	0x3e0206fe	0.1269798
149	0x3e3d97f3	0.18514995
150	0x3e2df00a	0.16986099
151	0xbeadbbe0	-0.339324
152	0x3ed3033a	0.412134
153	0x3cead3f9	0.02866553
154	0x3e8fd837	0.28094646
155	0x3c565794	0.013082404
156	0xbed523c2	-0.41628844
157	0xbec7bb94	-0.39010298
158	0xbc151c71	-0.009101019
159	0xbe703bae	-0.23460266
160	0xbcab3e04	-0.020903595
161	0xbd90c4ce	-0.070687875
162	0xbe8b5415	-0.27212587
163	0x3ecc2ecd	0.39879456
164	0xbe5a47f2	-0.21316507
165	0xbdd66298	-0.10468024
166	0xbe383476	-0.17988762
167	0xbcbb102d	-0.022834862
168	0x3c0caafc	0.008585688
169	0xbea10148	-0.3144629
170	0xbe453612	-0.19258907
171	0x3d971960	0.07377887
172	0x3c8a4f65	0.016883561
173	0xbe9cdcd8	-0.3063724
174	0x3e7118f4	0.23544675
175	0x3ec2e1a7	0.38062784
176	0x3dddf02f	0.10836827
177	0x3d5e85c4	0.054326788
178	0xbbe5e77f	-0.007016122
179	0xbcd2a2b5	-0.02571235
180	0xbe376684	-0.179102
181	0x3c4ca99a	0.012491608
182	0x3e3fc952	0.18729141
183	0x3cad2a8d	0.021138454
184	0xbe84ad5c	-0.25913513
185	0x3e02c9b6	0.12772259
186	0xbde744de	-0.11292432
187	0x3e64833d	0.22315688
188	0xbe66c9a6	-0.2253786
189	0xbeb0fd8b	-0.34568438
190	0x3e479392	0.19489887
191	0xbec8f849	-0.39251927
192	0x3e43ac16	0.19108614
193	0x3eb592c0	0.35463524
194	0x3ea98516	0.3310935
195	0xbe048051	-0.12939574
196	0x3e09d688	0.13460743
197	0xbd1eeecd	-0.038801957
198	0xbe62dd89	-0.22154821
199	0xbe8211f1	-0.25404313
200	0xbe308b96	-0.17240748
201	0xbe0ef9ae	-0.13962433
202	0xbe3998a9	-0.18124641
203	0x3e0cc3d9	0.13746585
204	0x3e1971d7	0.14984833
205	0xbe8ff037	-0.28112957
206	0xbd0b5fb5	-0.03402682
207	0xbe665915	-0.2249492
208	0xbe2225fd	-0.15834804
209	0x3de3806e	0.111084804
210	0x3e443879	0.19162168
211	0xbd15a8c1	-0.03653789
212	0x3cfe4e9c	0.031043343
213	0x3e96a36c	0.29421556
214	0xbe59cae3	-0.21268801
215	0x3b102690	0.0021995641
216	0x3eaaf001	0.33386233
217	0x3d4c0401	0.049808506
218	0xbe818210	-0.25294542
219	0xbe5e3093	-0.21698217
220	0xbec5c970	-0.38630247
221	0x3e42ee5c	0.1903624
222	0x3e75708f	0.23968719
223	0x3e874452	0.26419312
224	0x3eaa7153	0.33289585
225	0x3d8f7223	0.07004192
226	0x3d8c8b47	0.068625025
227	0xbebb74d6	-0.36612576
228	0xbe82ccbe	-0.2554683
229	0xbe2c2031	-0.16809155
230	0x3e074c83	0.1321278
231	0x3e87967a	0.26481992
232	0x3d2299dc	0.039697513
233	0xbf465de5	-0.7748702
234	0xbe1c3060	-0.15252829
235	0xbc97bb8b	-0.018522045
236	0xbda39279	-0.07986922
237	0x3e3f22f6	0.1866568
238	0x3e6fd3b6	0.23420605
239	0xbe1d11e5	-0.15338857
240	0xbe0ece5c	-0.13945907
241	0xbe2e4a77	-0.17020594
242	0xbccacf0c	-0.02475693
243	0x3e9808d1	0.29694226
244	0xbde6af38	-0.11263889
245	0xbe22599e	-0.15854499
246	0x3ec963af	0.39333865
247	0x3d93f101	0.07223702
248	0x3e2ea6bc	0.17055792
249	0x3d91a4c2	0.07111503
250	0x3ea21319	0.31655195
251	0xbe36328d	-0.17792721
252	0xbe9f2ca7	-0.31088755
253	0x3da61722	0.08109881
254	0xbe1d2765	-0.15347059
255	0x3df23f99	0.118285365

gnn1_embed.convs.1.bias f4 [32]
0	0xbc123e66	-0.00892601
1	0xbcdef7e5	-0.027217815
2	0x3ad34827	0.0016119526
3	0x3d915690	0.070965886
4	0x3c1997a7	0.009374536
5	0x3cf0fbe5	0.029416988
6	0x3dc21a5f	0.09477686
7	0x3d815d6c	0.06316647
8	0xbc2037e2	-0.0097789485
9	0x3cd103af	0.025514452
10	0x3cec436c	0.028840743
11	0x3bd19929	0.006396432
12	0x3b90421c	0.004402412
13	0xbc4a5b68	-0.0123508945
14	0x3b915cb3	0.0044360994
15	0xbc4eff49	-0.012634107
16	0xbd9f4769	-0.07777292
17	0xbd525a55	-0.05135568
18	0xbd652307	-0.055941608
19	0x3d360ec5	0.04444768
20	0xbd7310c9	-0.05934218
21	0x3c0d7cdd	0.008635727
22	0xbce66621	-0.02812487
23	0x3d561a7f	0.052271362
24	0xbd060af6	-0.032725297
25	0xbac9b0bb	-0.0015387753
26	0x3c0c1fca	0.008552501
27	0xbc2af33d	-0.010433969
28	0x3c15b0e1	0.0091364095
29	0xbd392596	-0.04520186
30	0xbc97937b	-0.018502941
31	0xbd150512	-0.03638179

gnn1_embed.convs.1.lin.weight f4 [32, 32]
0	0xbe7b6f9d	-0.24554296
1	0xbea82c3e	-0.32846254
2	0x3e94fea9	0.2910054
3	0xbd22800e	-0.039672904
4	0xbdbac1cb	-0.09118994
5	0xbe1cd73b	-0.15316479
6	0x3e32d222	0.17462972
7	0xbcf85e5c	-0.030318432
8	0x3d51ae92	0.051191874
9	0x3980680a	0.00024491578
10	0x3e571986	0.2100583
11	0xbe2c7050	-0.16839719
12	0x3c1e67ec	0.009668332
13	0x3e8889f3	0.26667747
14	0x3e66cc2b	0.22538821
15	0xbea74f18	-0.3267753
16	0xbde7df63	-0.113219045
17	0x3e935f30	0.2878356
18	0x3dbd7357	0.09250515
19	0x3dfc94e8	0.12333089
20	0x3e946a74	0.28987467
21	0x3e074893	0.13211279
22	0xbe94639f	-0.28982255
23	0x3d827bc8	0.06371266
24	0xbce94f97	-0.028480334
25	0xbe00e5bf	-0.12587641
26	0xbda931e0	-0.08261466
27	0x3e99410b	0.29932436
28	0x3e24d375	0.1609629
29	0x3e7f804e	0.24951288
30	0x3e0061db	0.12537329
31	0xbd6c0394	-0.0576206
32	0x3e7984be	0.24367043
33	0x3eb81088	0.35950112
34	0xbe797b74	-0.243635
35	0xbe6e7d82	-0.23290065
36	0xbe117422	-0.14204457
37	0xbe9ba009	-0.30395535
38	0xbec52915	-0.38507906
39	0x3d18bd33	0.03728981
40	0xbe94ba07	-0.29048178
41	0x3e244a92	0.16044071
42	0xbdb7aadf	-0.08968138
43	0x3e4236ac	0.18966168
44	0xbd859425	-0.06522397
45	0x3daed70c	0.08537111
46	0x3e164e6f	0.14678358
47	0x3dc9daab	0.09856161
48	0xbe4b6d8c	-0.19866008
49	0x3e54413e	0.20728013
50	0x3e523199	0.20526733
51	0xbe5458fe	-0.20737073
52	0x3def9658	0.11698598
53	0x3e5c9327	0.21540509
54	0x3e2bc979	0.16776074
55	0xbd516843	-0.051124822
56	0xbe8b35f0	-0.2718959
57	0x3e2f507b	0.17120545
58	0xbdc6f065	-0.0971382
59	0x3df54385	0.11975769
60	0x3dd4aa2c	0.1038402
61	0xbd5e3a7d	-0.054254998
62	0xbea5eae5	-0.32405773
63	0x3e3370e2	0.1752353
64	0xbe0a2104	-0.13489157
65	0x3cf4e163	0.029892629
66	0xbee20276	-0.44142503
67	0xbea8a2e4	-0.32936776
68	0x3dbc5b87	0.09197145
69	0x3ca6443c	0.020296209
70	0xbd572bd1	-0.05253202
71	0xbeba4540	-0.3638096
72	0x3e2d47cf	0.16921924
73	0x3df317ae	0.11869751
74	0x3c47565d	0.012166587
75	0x3b848eb4	0.004045332
76	0xbe41f758	-0.1894201
77	0xbc0f43d6	-0.008744201
78	0x3e111d0d	0.14171238
79	0x3d956f0d	0.07296572
80	0xbe4fd169	-0.20294727
81	0xbdf47d96	-0.11938016
82	0xbe2a6455	-0.16639836
83	0xbe8262d0	-0.25466013
84	0xbe4b0c3f	-0.1982889
85	0x3de5fca6	0.112298295
86	0xbe1dcfc2	-0.15411285
87	0xbe290aef	-0.16508077
88	0x3e8577c6	0.26067942
89	0xbd9b1573	-0.075724505
90	0xbe6f6c5c	-0.2338118
91	0x3e084f6b	0.13311546
92	0x3e13dba8	0.14439261
93	0xbe4e755f	-0.20161961
94	0xbe2033cf	-0.15644763
95	0xbd00b493	-0.03142221
96	0x3e60c2f5	0.2194937
97	0x3e05e31c	0.13074917
98	0x3e926ff8	0.2860105
99	0xbd6849a4	-0.056710854
100	0xbe1c44b7	-0.15260588
101	0xbe1d64fc	-0.15370554
102	0x3e944ba1	0.2896395
103	0x3e3602dc	0.17774528
104	0xbe240786	-0.16018495
105	0x3db11d5b	0.08648177
106	0x3ea7473e	0.3267154
107	0xbe0695b3	-0.13143043
108	0xbdaf0aea	-0.085470036
109	0xbe8b04fa	-0.27152234
110	0xbe653a40	-0.22385502
111	0xbe50e379	-0.20399274
112	0x3e5ddb23	0.21665625
113	0x3e86b285	0.26308075
114	0x3e5e12ec	0.21686906
115	0xbe1a45c7	-0.1506568
116	0xbe8ebaca	-0.27876884
117	0xbe1ff2b7	-0.15619932
118	0xbe19ca6b	-0.15018623
119	0xbdf88c9b	-0.12136193
120	0x3e06d479	0.1316699
121	0xbe0d2ca9	-0.13786568
122	0x3e8c7b96	0.2743804
123	0x3dc88c8f	0.097924344
124	0xbe1a7829	-0.150849
125	0xbdebce74	-0.11513987
126	0xbe1d749b	-0.15376513
127	0x3e80db4e	0.25167316
128	0xbebab5e0	-0.36466885
129	0x3df3fd1b	0.119135104
130	0xbe8daf39	-0.27672747
131	0x3e43b802	0.19113162
132	0x3e45761e	0.1928334
133	0x3e7a1ad1	0.24424292
134	0x3de60b51	0.11232627
135	0x3d9e85e7	0.077403836
136	0x3c2be062	0.010490509
137	0x3d6730ba	0.056442954
138	0x3d210d9f	0.03931963
139	0x3e36c65c	0.17849106
140	0x3e110f55	0.14166005
141	0x3e0216c2	0.12703994
142	0xbe7a4784	-0.24441344
143	0x3d465cf7	0.048428502
144	0xbe9d31ee	-0.30702156
145	0xbdc260fb	-0.09491154
146	0x3cf2f3d5	0.029657284
147	0xbd8402e2	-0.06445862
148	0x3e92f18e	0.28699917
149	0x3e8d27bb	0.27569374
150	0x3d34bdbb	0.044126254
151	0x3e8ed0a5	0.27893558
152	0xbe10061e	-0.14064834
153	0x3e07c1ef	0.13257574
154	0x3ba07555	0.0048967996
155	0x3e24d8b9	0.16098298
156	0xbe2d0a4c	-0.16898459
157	0xbea8fa88	-0.3300364
158	0x3da14e56	0.078762695
159	0x3e3b1e57	0.18273292
160	0x3e9b29e5	0.303054
161	0xbc7b57d3	-0.015340763
162	0xbd1e0b4b	-0.03858499
163	0x3d3210d1	0.04347307
164	0x3c5705be	0.013123928
165	0x3d84ab43	0.06477978
166	0xbe2e05c4	-0.16994387
167	0xbc80a382	-0.015702967
168	0x3e0bd86d	0.13656779
169	0xbefc1026	-0.4923107
170	0x3e379b8b	0.17930429
171	0xbdb29d7c	-0.08721444
172	0xbdb2b67d	-0.08726213
173	0x3d62ce06	0.05537226
174	0x3e7a0e5f	0.24419545
175	0xbe18a153	-0.1490529
176	0xbea68d68	-0.3252976
177	0x3e805c51	0.25070432
178	0xbdd8593b	-0.10563894
179	0xbe31ec2d	-0.1737525
180	0x3e81f00d	0.25378457
181	0x3e23e10f	0.16003822
182	0xbe93e400	-0.28884888
183	0x3e888bbf	0.26669118
184	0x3e40490d	0.18777867
185	0x3d98745d	0.074440695
186	0x3e0dbfbc	0.13842672
187	0x3e64cf1b	0.2234463
188	0x3e48c165	0.19605024
189	0x3dcb3bd5	0.099235214
190	0x3e043dd5	0.12914212
191	0x3e5d1e4f	0.21593593
192	0xbe3a896d	-0.18216486
193	0xbe92ed5d	-0.2869672
194	0xbea85c6a	-0.32883006
195	0x3a90f966	0.0011060655
196	0xbcb9df95	-0.02268962
197	0xbd2a2c3a	-0.041546084
198	0x3e8e5e6c	0.27806413
199	0x3ea8574d	0.32879105
200	0x3e85ceb6	0.2613427
201	0xbe5eb570	-0.217489
202	0x3cd8718c	0.02642133
203	0x3e6b9e06	0.230095
204	0x3d314efe	0.043288223
205	0x3e0ee66b	0.13955085
206	0x3e1c6312	0.15272167
207	0xbdee67e1	-0.11640907
208	0xbe1e8118	-0.15478933
209	0xbe0a1323	-0.13483863
210	0xbce792ec	-0.0282683
211	0xbd07e6b3	-0.033178996
212	0xbddd4159	-0.1080348
213	0xbe26a75f	-0.16274785
214	0xbd716865	-0.05893745
215	0x3dd256df	0.102704756
216	0x3e67b637	0.22628103
217	0xbc2786a7	-0.010224975
218	0x3e01d120	0.12677431
219	0xbe274a9d	-0.16337056
220	0xbe86f033	-0.26355132
221	0x3df0f758	0.11765927
222	0xbe5ccf89	-0.21563543
223	0x3ebc3941	0.3676243
224	0xbc9e9584	-0.019358404
225	0xbe68f3b4	-0.22749215
226	0x3e7f7211	0.24945857
227	0xbe070682	-0.13186076
228	0xbc0310e6	-0.007999634
229	0x3eb62082	0.35571676
230	0x3eb3d392	0.35122353
231	0x3d6e1f6d	0.05813544
232	0x3d775076	0.060379468
233	0xbdcb3c5e	-0.099236235
234	0xbe2da576	-0.1695765
235	0x3dca40b2	0.09875621
236	0xbdc3355b	-0.09531661
237	0xbcee01cf	-0.029053597
238	0x3e8d404a	0.2758811
239	0xbd8568c8	-0.06514126
240	0x3e5de067	0.21667634
241	0xbe39844e	-0.18116876
242	0xbe651709	-0.22372068
243	0x3e9ae9eb	0.3025659
244	0xbe1062b4	-0.14100152
245	0xbe9a6c65	-0.30160823
246	0xbe2481ce	-0.16065142
247	0x3e4625f0	0.1935041
248	0x3ee579e5	0.4481956
249	0xbe0c17df	-0.13680981
250	0xbe28d75d	-0.16488405
251	0x3ea517d8	0.32244754
252	0xbe66afd0	-0.22528005
253	0xbdc1a784	-0.09455779
254	0xbda7b25d	-0.08188317
255	0x3e6f9d0e	0.23399755

gnn1_embed.convs.2.bias f4 [32]
0	0xbda4165f	-0.080120794
1	0x3c8d3aa7	0.017239882
2	0x3c5ad2da	0.013355935
3	0xbcf7c4ed	-0.030245269
4	0xbd9e0d34	-0.07717362
5	0x3d422199	0.047395322
6	0xbd182e6b	-0.037153643
7	0xbd9589fb	-0.07301708
8	0x3d819a6d	0.063282825
9	0x3c66f786	0.0140971
10	0x3cf8c319	0.030366467
11	0x3d395059	0.04524264
12	0x3b2cbf09	0.0026358983
13	0xbd0b006b	-0.033935945
14	0xbd811396	-0.06302564
15	0xbcc4fd4f	-0.024046568
16	0xbcd6c255	-0.026215712
17	0x3d7ced09	0.06174949
18	0xbd4abbf2	-0.049495645
19	0xbc3e338f	-0.011608972
20	0xbdcade7e	-0.09905718
21	0xbd66471c	-0.05622016
22	0xbd0a9fd1	-0.03384382
23	0x3ca5dade	0.020245966
24	0x3d456a0e	0.048196845
25	0x3d45121e	0.04811298
26	0xbd1f3669	-0.03887025
27	0xbd173bbc	-0.0369222
28	0xb97f5e51	-0.0002435383
29	0xbbcc9d22	-0.0062443176
30	0x3d754b8c	0.0598865
31	0x3c6c3079	0.014415854
