checkpointscomp/model_hidden_unit_32_diffpool_12_4_2_seed_8.pth (torch, 119629 bytes, 112 tensors)

gnn1_pool.convs.0.bias f4 [32]
00000000: 16a2 1cbe 2940 1d3c c374 403d d3e2 ac3d
00000010: c0b6 20bd 43e8 303d f091 9b3c 0429 8bbd
00000020: 93a7 473e f22a babd 0411 7abd 1d35 45be
00000030: a922 443d 2325 18be 589f 49be 33b7 843d
00000040: c0e7 1ebc 50bc 73be ebd5 363e bb05 d5bc
00000050: 168a 5fbe fce5 b5bd 86a4 33bd fb16 0ebe
00000060: f8cc 1bbe dec9 99be 77c1 55bd 472f 2a3e
00000070: a8e0 f83b 37ad 0e3e 47ea d2bd f721 433e
-0.15296206 0.0095978165 0.046986353 0.08441701 -0.039236784 0.043190252 0.018990487 -0.067949325
0.19497518 -0.090902224 -0.061051384 -0.19258542 0.047884617 -0.14857917 -0.19689691 0.06480255
-0.009698808 -0.23802304 0.1785504 -0.026003709 -0.2183002 -0.08881757 -0.043858074 -0.13875954
-0.15214908 -0.30036825 -0.052186456 0.16619597 0.0075951405 0.13933264 -0.10298591 0.19055925

gnn1_pool.convs.0.lin.weight f4 [32, 14]
00000000: 7f97 483e 6dbd 7fbe 3dc6 df3c 9ebf 88be
00000010: 9773 27be 084b a53c cf52 e63d 4ef3 5abd
00000020: 1b2e a73e 6850 813d 0269 e0bc f49e 2f3e
00000030: 04a4 54bd d13e 5ebe 69a5 bbbe 21e6 063e
00000040: 3480 2bbe f72b a43e 8b93 ffbe b29c a5be
00000050: e92e 8ebd 81e2 b5be 4ad7 46be e59e 51be
00000060: 355e cbbd 092c b63c 2725 72bd 0dc4 88be
00000070: 2e5c d23d cfb4 d5be 56d4 14be 3690 933d
00000080: 9d22 d9bd ee85 5dbd 0b70 26be 051e 83bd
00000090: bc5c 30bd abd6 aa3d 7998 d4bc b65a acbd
000000a0: 608c 2c3e 6022 b2be 6c1a c3be b52d ca3d
000000b0: 5637 b0bd f107 2e3e c2e1 acbd 7577 5a3e
000000c0: f97e 12be 0853 563b 6cc2 d3be 0e82 40bd
000000d0: d984 323d a923 8a3e e624 273e 9e75 15be
000000e0: 39aa 50be 341b 7e3e 0234 453d 0015 cbbe
000000f0: 2dee 063e 385e 453e 72ba d8be 463b cb3e
00000100: 549a 0fbe eafd 47be 0889 593e 2ac1 e83c
00000110: 3108 3dbe 82fb 98be aa67 d23e 5a1a b13e
00000120: eec3 90be 6f44 75be 55c7 c33c c17b 46bd
00000130: 9b4b 2dbd 34b5 143e 0ad1 5abe bb95 543d
00000140: 6101 d3bd dc72 233e 4900 d2bd 21e9 19be
00000150: 0658 94bd 3b52 6d3e 27c4 193e d155 983e
00000160: e8e9 23be e8f1 c13d 72b6 92be 4a0d 8f3e
00000170: 4fe3 83bd 6c36 e33d 8a15 a43e d529 db3d
00000180: f699 7b3e ffea abbd b440 ccbe c1fe 68be
00000190: 8484 cd3e 4e5d 433e eadb 8c3e 2399 abbd
000001a0: 2db6 643e 929a 123e bce9 4b3e 804b 29be
000001b0: 2db0 2dbe d1d6 4b3d 5a25 8f3e d930 9fbe
000001c0: 69dc 4d3d a657 303d 158e 673e 1d1c 85be
000001d0: 0721 78be c52f 753e 1bc5 073e e85d 04bf
000001e0: 57ac e7be 2289 17be e5dd 983d 11ec f73d
000001f0: 7be9 03bd 819f a6bd 5e98 b0be ea3c 4ebe
00000200: a27b 9c3e 3419 e23d f150 573e 022a 02bf
00000210: 0529 8039 9619 143e 36bf 87bd cb7c 65be
00000220: 3ec2 263e ccb6 c9be 3804 febc f28d 293e
00000230: 0c72 5abe 6028 7abe c0c9 abbe f739 ccbe
00000240: a62d 2d3e 1853 84be 0885 adbc c127 2f3e
00000250: 2c34 f6bd 2654 39bd 2c61 fabd 5c73 723d
00000260: 5819 fcbe d81a 033e e4fe bcbe b8de a83e
00000270: 2101 8c3e af29 77be e80a 883d 0089 763e
00000280: 94c0 a23d 3dff 813e e66b e83e 54c1 b0be
00000290: 499c 28bc af9b a6bd dd19 883e 4a6a 21be
000002a0: 8c70 8abe a9cd 81bd 5a2e b23e 211f 68be
000002b0: 40a4 cbbd 5149 bebe a139 b2bc 4f28 28be
000002c0: 4a41 f7be 9fc3 7cbd 0ba9 683e cd0d b1be
000002d0: 8a48 49be bd71 1ebe ea0b c3be cbc4 3dbe
000002e0: 695c fb3c 82c2 433e 1ff7 82be 000c acbd
000002f0: 7dd6 e0bd 330c 9fbe 2466 74be 2073 fe3c
00000300: 1569 663d 9b8e 64be 1610 563e 7e35 cb3d
00000310: d1e4 a1be 487e d6bd c2c8 3b3e a0a0 2bbe
00000320: 8aa0 0fbe 5f24 ec3e f2bd 343c f1ff a7be
00000330: dbe4 c3bb 4334 5dbe 2cbe 9abe 62a0 88be
00000340: 933f 9dbd e871 44be 66d7 b93e f659 cb3e
00000350: e9ac b13d 7717 5a3e a00b 88bd d302 603e
00000360: bd0e 2dbb 3c44 2f3e 48d7 1e3f 7e1c b13d
00000370: 17c3 8cbc ca38 ddbe 7c57 8bbe b0d2 b53e
00000380: 59fe 8d3e ea01 9a3e ee12 3cbe ea2e c73e
00000390: dea4 673e 7a87 093d b50d 4e3e a64d 7d3e
000003a0: 87cd 8c3e db1d 5e3e 3c99 8f3e 0105 293a
000003b0: 8fc6 873d 93bd e53d 252a 893d 076a 11be
000003c0: 144b 4ebf e4f3 f5be 9f00 65bd 5fe0 6cbe
000003d0: a876 87be 9397 693d 7b83 a73e d58b 0ebe
000003e0: 9cac 703e 362a 303d e319 d33d 1ee9 463e
000003f0: 38a5 8cbd 4bcd 8d3e e554 053e d108 9dbe
0.19589041 -0.24974604 0.027316207 -0.26708692 -0.16352688 0.02017738 0.11246263 -0.05345469
0.32652363 0.063141644 -0.027393822 0.1715048 -0.05191423 -0.2170365 -0.36649635 0.13173725
-0.16748124 0.32064793 -0.49917254 -0.32346112 -0.06942541 -0.3552437 -0.19418064 -0.2047077
-0.09930078 0.022237794 -0.059117462 -0.26712075 0.10271488 -0.41739509 -0.14534125 0.072052404
-0.10602305 -0.054082803 -0.16253679 -0.0640221 -0.04305719 0.08341726 -0.02595161 -0.08415739
0.16850424 -0.3479185 -0.38106096 0.09871999 -0.086043045 0.16995217 -0.084414974 0.21334632
-0.14306249 0.00327033 -0.4135927 -0.04699903 0.043583725 0.26980332 0.1632267 -0.14595649
-0.20377435 0.24815065 0.0481453 -0.3966446 0.13176794 0.19274223 -0.42329746 0.3969366
-0.14023715 -0.19530454 0.2124368 0.02841242 -0.18460156 -0.29879385 0.41094714 0.34590417
-0.28274482 -0.23951887 0.02389876 -0.048457865 -0.04230843 0.14522249 -0.21368805 0.051900607
-0.103029974 0.15961784 -0.10253961 -0.15030338 -0.07243352 0.231759 0.15016232 0.29752973
-0.16007197 0.09469968 -0.2865482 0.27939826 -0.0643984 0.110943645 0.32047683 0.10701338
0.2457045 -0.08394431 -0.39893115 -0.22753431 0.40140164 0.19078562 0.2751153 -0.08378818
0.2233512 0.14316776 0.19913381 -0.16532707 -0.16961737 0.04976541 0.27958184 -0.31091955
0.050259028 0.043052338 0.22612794 -0.2599801 -0.24231349 0.23944004 0.13258784 -0.5170579
-0.45248672 -0.14798406 0.07464198 0.12105573 -0.032205086 -0.08135892 -0.34491247 -0.20140424
0.30563074 0.11039963 0.2102697 -0.5084535 0.00024444624 0.14462885 -0.066282675 -0.22410886
0.16285035 -0.39397275 -0.031007871 0.16558054 -0.21332568 -0.24429464 -0.3355236 -0.39887974
0.16911945 -0.25844646 -0.021181598 0.17105009 -0.1202167 -0.045246266 -0.12225565 0.059192047
-0.49238086 0.12803209 -0.36913216 0.3298242 0.2734461 -0.24136995 0.06642705 0.24075699
0.079468876 0.25390044 0.4539482 -0.34522498 -0.010291168 -0.08135163 0.26582232 -0.15763202
-0.2703899 -0.06338055 0.34800988 -0.22668125 -0.099434376 -0.3716531 -0.021755995 -0.16421627
-0.48292 -0.061709996 0.22720735 -0.34580842 -0.19656578 -0.15473075 -0.38095027 -0.18532102
0.030683713 0.19117168 -0.25579163 -0.08400726 -0.109784104 -0.31063995 -0.23867089 0.031060755
0.056252558 -0.22320025 0.20904574 0.09922312 -0.31619886 -0.10473305 0.18338302 -0.16760492
-0.14026085 0.461215 0.011031615 -0.32812455 -0.0059782094 -0.21601968 -0.30223215 -0.26684862
-0.076781414 -0.19184077 0.36297148 0.39717072 0.08675558 0.21298014 -0.06642842 0.21876077
-0.002640649 0.17115873 0.62047243 0.086480126 -0.01718287 -0.4320739 -0.27215183 0.35512304
0.27733114 0.30079585 -0.18366596 0.3890298 0.22621486 0.033576466 0.20122416 0.24736652
0.27500555 0.21691076 0.28046596 0.0006447584 0.06629669 0.11217799 0.066974916 -0.14200602
-0.8058331 -0.48037636 -0.055908795 -0.23132466 -0.26457715 0.057029318 0.327175 -0.13920529
0.23503345 0.043009005 0.10307672 0.19424865 -0.068674505 0.2769569 0.13020666 -0.3067079

gnn1_pool.convs.1.bias f4 [32]
00000000: f572 c03b 5ab9 0d3d 2499 40bc 9db2 bf3d
00000010: c624 38bd 2c69 47bd fc20 20bc 05c3 94bd
00000020: d65e 003d 04b5 37bd a466 06be 5cb7 c2bc
00000030: 79cf 023d 856f 303d 37b5 2cbd 7b5b fd3d
00000040: f9fd c33c 732e 73bd 9ef4 d93c a239 073d
00000050: f938 803d cefe ab3c d78f 2bbc 77c6 483d
00000060: 5da5 263c b117 19be 4776 53bb f7bf d33b
00000070: 6648 cf3c 8bff 153e ad2e d33d d882 70bd
0.005873079 0.034600593 -0.011755262 0.0936024 -0.044956945 -0.048684284 -0.009773489 -0.072637595
0.031340443 -0.044850364 -0.13125092 -0.023769073 0.031936143 0.043075103 -0.042165007 0.12370964
0.023924815 -0.05937047 0.0266059 0.033013947 0.06260867 0.020995524 -0.010471306 0.049017396
0.010171262 -0.14950444 -0.0032266544 0.006462093 0.025303077 0.14648263 0.10311637 -0.058718532

gnn1_pool.convs.1.lin.weight f4 [32, 32]
00000000: 3181 c53e c69b be3e 5f82 e6bd 6b0d 993e
00000010: ae73 a13d 7ffa d7bd 1dbc e8bd 03e2 8a3e
00000020: ff2b ca3a 4c74 a13e c3f0 a73e a6a2 cdbd
00000030: 530d 9cbd ab45 383f b7d4 ca3e fdc4 1bbe
00000040: 7aa5 bc3d 27a1 2b3e f07d 34bd 742c b53e
00000050: a62c 483e e230 e6bd e467 823e 22fd 97be
00000060: f9f5 a2bd a041 4abe 5003 633e 827a 0e3d
00000070: f8a7 ee3d bf41 acbc d23f 593e cf9a 333e
00000080: c941 213d 3ef9 86be a45b bebe 1687 2cbe
00000090: ad09 933e 61e6 edbc 8808 26bd 092e 6abd
000000a0: 1b0e e2be ffe4 dcbd a22f 233e bdee 933e
000000b0: 15d6 36bc 1370 803e cb31 28be 3859 043e
000000c0: 3099 d43d 1370 b73e 0ae6 153e c3e7 8b3e
000000d0: 5385 0a3e ff20 60be 0bdf 5abd fdae 27be
000000e0: 7441 c4be 736b d63e 38b9 c53d 59b8 17be
000000f0: 063d bdbd 647c 3c3e e67f 8c3e 32bf 5abd
00000100: 6956 83be 173d 3fbd 2d63 b6be 2d22 523e
00000110: 075f ab3d 0f16 5f3d fd27 593d 3e0e 94bd
00000120: 66e2 57be 27c9 8ebe 45c3 8a3e bb66 073f
00000130: 7372 de3e ba10 d03d 461d 233e 2fb6 723e
00000140: 7516 e13d 68d4 d23d cbbc b73d 58f3 c3bd
00000150: 78ec 463e 55ad f2bd 613e 46bd 4a81 90be
00000160: 293e c33c 4d4f 8e3e 0a76 85be f10b ccbe
00000170: c348 97bd 5ff0 b73b e66e 4f3c 3163 c53d
00000180: 588d d2bd 3834 ecbd f310 7dbe 57fa 963e
00000190: 0901 cd3e 170a dcbd 5b4c 2d3e dba2 0dbe
000001a0: 398e 62be cfef 6e3d ef39 853e b7fd 8e3e
000001b0: c3fe 513e de69 4b3d a16f 863e 3fc8 4cbd
000001c0: a47f 4fbd 6438 583d 9485 84bd d999 f9bd
000001d0: e646 d6bd c408 6abe 84e9 13be 71d3 eebd
000001e0: 3f5f a1bd 1743 063f aebb 783e 65a3 b4be
000001f0: 51b9 d2bd 7de0 b33c f091 9e3e 0c2b 09bd
00000200: 2e46 3b3e ff8d 303e d337 703e d77f 2b3d
00000210: 013a e13e 98bb 6c3d c7fa 8bbe f672 453e
00000220: 2223 5d3d 3958 863d 1dbe 463d 33a9 1bbe
00000230: 6f71 17be 5e07 4f3e f223 613e cf3b de3e
00000240: 29c3 e83e bd65 f2bc 5189 1fbd bea1 e8bd
00000250: a688 063e 8dc6 aebe ef46 173f 161d c43e
00000260: 484e 953e 2987 9ebc e495 803d fb3f 223e
00000270: 070c 863d ac3f 253e 1dd2 d03d 1234 b53e
00000280: b974 2e3e e14e 3abe e138 6a3d 10a2 37be
00000290: 752b afbe c5e7 3a3d d028 0abe 0cde 77be
000002a0: 6a08 b1be 93a9 a43d ad67 a5be 55b4 03bf
000002b0: da14 17bd 33e3 6bbe a146 40be e82b 1c3e
000002c0: 0640 20be b10a 4abe de76 07bd 2ca5 8fbe
000002d0: fa57 0e3e 0b43 3ebe eed1 873e ba60 a2be
000002e0: 050c b23e b49f 4fbe de23 f73d d440 13bc
000002f0: ba2e 3dbe a715 31be 1fd5 27bf 8f0c 963d
00000300: d7f4 323e 25a1 dfbd 1f4a f8bd 16d9 ccbd
00000310: a616 7bbe 5161 16bc c9ce 8c3e 313d 1bbe
00000320: 8ed4 2bbf 2ea7 11be 56f9 98be 843e 843e
00000330: 9dc9 bbbe b7fd 9abd 79dc cbbd 5f6d 85be
00000340: 41ef a23d 4fef bebe 73ce bd3d e539 0bbe
00000350: 08a9 cd3d 9f9b a9be 5004 943c 95f7 8e3d
00000360: eb10 8bbd c140 513e fef7 14bc b4ac 8e3e
00000370: 29cc 8f3c 7a33 3e3e ce05 c73d b740 4abe
00000380: 4e6c 10bf 8922 453e 7227 fabd 0643 52be
00000390: cf93 0fbe e3a0 4c3e 3074 7ebe 262e d8bd
000003a0: 121d 3dbe 6d7b 5dbe 8af8 ac3d 9445 b5bd
000003b0: 098d 9a3e f9cd 223d 7e16 b43d 3743 b3be
000003c0: 9195 7cbe e58c ffbe d435 863e 0e14 31be
000003d0: b843 3ebe a89c 01bf afe5 623e 7019 8dbe
000003e0: 14ef 98bd 627d 9c3e 3eb6 94be 53b3 9cbe
000003f0: 1a51 413d 709f 6b3d 6727 bbbd 83a8 24be
0.38575128 0.3722822 -0.11255335 0.2989305 0.07883392 -0.10545825 -0.11364005 0.27125558
0.0015424489 0.3153404 0.32800874 -0.10040788 -0.07619729 0.71981305 0.39615414 -0.15211864
0.0921125 0.16760693 -0.044065416 0.35385478 0.19548282 -0.112397924 0.25469887 -0.29685313
-0.07957072 -0.19751596 0.22169232 0.0347848 0.11653131 -0.021027444 0.21215752 0.17539524
0.03936938 -0.26362032 -0.3717929 -0.16848406 0.2871832 -0.029040517 -0.04053548 -0.05717281
-0.44151387 -0.10785865 0.15936139 0.2889308 -0.01115944 0.25085506 -0.16425245 0.12924659
0.10380781 0.35827693 0.14638534 0.27325258 0.13527422 -0.21887587 -0.053435367 -0.16375346
-0.38331187 0.41878852 0.09654468 -0.14816417 -0.09240155 0.18406826 0.2744133 -0.053404994
-0.25651863 -0.04668912 -0.3562254 0.2052085 0.083677344 0.054464396 0.05301665 -0.07229279
-0.21082458 -0.27887842 0.27102104 0.5289113 0.43446693 0.1015944 0.15929136 0.2370231
0.109906115 0.102944195 0.08971556 -0.095678985 0.19426143 -0.11849467 -0.048399333 -0.2822364
0.023833351 0.27794877 -0.2606662 -0.3985286 -0.07386925 0.0056133713 0.012660718 0.0963806
-0.102808654 -0.115333974 -0.24713497 0.2948787 0.40039852 -0.10744112 0.16923659 -0.13831656
-0.22124566 0.058334168 0.26020762 0.27927944 0.2050734 0.04966151 0.2625704 -0.049995657
-0.050658837 0.052788153 -0.064707905 -0.12187547 -0.104627416 -0.22854906 -0.14444548 -0.11661423
-0.07879495 0.5244612 0.24290344 -0.3528091 -0.102892525 0.02195763 0.30970716 -0.03348832
0.1828849 0.17241667 0.23458795 0.041869964 0.43989566 0.05779609 -0.27339765 0.19282135
0.053988583 0.06559796 0.04852115 -0.15201263 -0.14789365 0.20217654 0.21986368 0.43405005
0.45461395 -0.029589528 -0.038949315 -0.11358975 0.13138065 -0.34135857 0.5909261 0.3830344
0.29161286 -0.019351559 0.06278589 0.15844719 0.06545263 0.1613757 0.10196326 0.3539129
0.17036714 -0.18194152 0.05718315 -0.17932916 -0.34212843 0.04563119 -0.13492131 -0.24205798
-0.34576732 0.08040156 -0.3230566 -0.5144704 -0.03688512 -0.23035888 -0.18776943 0.15251124
-0.15649423 -0.19730641 -0.033072345 -0.28055704 0.13900748 -0.18580262 0.2652735 -0.31714422
0.34774795 -0.20275766 0.12067388 -0.008987624 -0.18474856 -0.17293416 -0.6555957 0.07326614
0.17476211 -0.10919408 -0.121235125 -0.10002343 -0.24520358 -0.0091784755 0.27501515 -0.15160061
-0.6712121 -0.1422393 -0.29877728 0.25828946 -0.36677256 -0.075679235 -0.09954161 -0.26060006
0.0795579 -0.37291953 0.09267893 -0.13596304 0.10042006 -0.33126542 0.018068463 0.06980816
-0.06790336 0.20434858 -0.009092329 0.27866137 0.017553406 0.18574324 0.09717904 -0.19751249
-0.5641526 0.19251455 -0.12214555 -0.2053338 -0.14021228 0.19983248 -0.2484901 -0.10555677
-0.1846812 -0.21629114 0.084458426 -0.088511616 0.30185726 0.039747212 0.087933525 -0.35012218
-0.2466643 -0.49912181 0.26212943 -0.17292807 -0.1858052 -0.50629663 0.2215793 -0.2755847
-0.074674755 0.3056441 -0.2904529 -0.30605564 0.047196485 0.0575251 -0.09138375 -0.16079907

gnn1_pool.convs.2.bias f4 [12]
00000000: 9515 933d ce32 5e3c fdb5 ab3d 3332 a1bc
00000010: ec85 98bd 8f96 973d 7283 8cbd dea3 413d
00000020: 1a25 64bd 1ef2 17bc 74e1 40bd d08f c93c
0.07181851 0.0135619175 0.08384321 -0.019677257 -0.074474186 0.07401764 -0.06861009 0.047275417
-0.055699445 -0.009274034 -0.04709001 0.024604708

gnn1_pool.convs.2.lin.weight f4 [12, 32]
00000000: d172 19bd 18cd 8c3d a6a8 87be fe85 a7be
00000010: b5a1 18be 92f8 05bf f0ac c3be c392 abbd
00000020: df4c b6bb 9f1b 45bd f1cf 0f3e eb9b e53e
00000030: 550f 16be 87a4 f73d be16 333e b973 25be
00000040: 58d0 81be 5e48 a53d 77e4 423e 6fe8 673e
00000050: 98c9 29be c25a 973e 0bfe 32be 9876 2a3d
00000060: d167 7ebe 6948 39be 3f1c 5c3e aa82 cfbd
00000070: 6480 b6be 544e 593d 5d7f d6be d374 a7be
00000080: 5f33 393e 4586 563d dc06 82bd f559 e63d
00000090: 05a0 b2be c458 763e e499 803e 704b 9abe
000000a0: 1f5f 493e aaae e5be 4cde a7be 2bc4 03be
000000b0: cd10 afbd 3a90 823d 3054 e7be e22f 213f
000000c0: b16e a3be d92c 8a3e bea9 adbe 07af 2bbe
000000d0: ad8e a2bc 9791 b83e 3d48 a23d 3fd5 983e
000000e0: 2879 52be 045f 5bbe 01fa 453d e2a4 3abf
000000f0: 12dd 92bd 60fb a3be 5246 15be 8c79 3dbe
00000100: 4e3a 22be d8b9 463d cda5 04be 57d9 c43e
00000110: f5b5 923e 5a4b 13bd e8f7 b03c ac00 0ebd
00000120: 66b4 cf3d 8b29 a93e f2cd 9b3e cef9 0d3e
00000130: 77b8 20bd 6206 163e cde8 1c3f a418 7dbe
00000140: 045a b13e 97ac 05be 9b1e 35be 95f8 12be
00000150: 6090 7ebd eca8 96be 572d bebe 05c3 8b3e
00000160: 5d0d e13d 114a 613e e7a5 1e3e 5175 fd3d
00000170: 03dc 483e 1d6e dd3e 3cbd fd3c 959b d13e
00000180: dd07 bdbd d666 40be f7d1 c13c 2fe4 8cbd
00000190: 891d 953e 6dc9 583e 6ffc c2bd 5686 7ebd
000001a0: 66a8 203d 51ae 9e3e 681a d5be 4428 033a
000001b0: 40e5 7cbe 23ce 813e 2283 92be 720d 44bc
000001c0: b181 9ebe ac5f 433e fc17 8bbd 308c d1be
000001d0: 9e31 163e a31e 373e 44ea 943d e247 05be
000001e0: 6018 81be ea2e a03d ff34 983e 32d4 013f
000001f0: 7787 e1be f607 06be c5e7 4bbe 9759 c43d
00000200: 3456 03be 04c6 b3bd b6b0 2d3d ff15 e2bc
00000210: dad7 2a3e 3695 df3d 6cdf ccbd 7a99 c43d
00000220: 6768 9b3e 2326 993e 91e7 d53d fe2e dabd
00000230: c065 14be edbb 093f 0abe 263f de03 2d3e
00000240: 4768 3c3d 9123 43be 55ad 633e 74b0 ddbc
00000250: ae3f dfbd d59a b6bd da35 de3e c240 3f3d
00000260: 8645 923d 448b 483d 9c9d e8be c254 183e
00000270: 5f43 d6bd d891 5f3c b9f5 d13d 2d9e b2bd
00000280: 7e22 fd3d 2312 c6bb 5431 60be b84a 783e
00000290: 3ab3 8e3e 9847 8b3e 84ef 3c3d 297a 1bbe
000002a0: 9a22 e73c d06c a0bd bf13 7a3e d0f7 48be
000002b0: 80de 09be c5c7 ef3e 24b1 8b3e bb88 793d
000002c0: 3704 3ebe c056 203e 30d6 a93e cee8 973e
000002d0: bc75 833e 2ecd 1c3e 2a0f 923e b781 ad3d
000002e0: 9aed bf3d fe91 07be b4c5 9a3d 8469 2d3e
000002f0: 6e47 a4be a2d7 12bd 28d9 b83e 6036 4abd
00000300: 8246 82bd 2121 923e 5b87 ff3e d62b 533e
00000310: e0ec 153e 0b3d 2bbe d34f 7f3e ca38 163f
00000320: 1044 203e 0d0c f8bd 5d42 1bbe b0ee 053c
00000330: df0d 103c f7da cebe 32b9 8cbe c5cf 803d
00000340: d98e 78be 152d 4a3c bc89 023e 5d6b 683e
00000350: 71e6 a3be 5c9b 85be 6019 4d3e 52ec aebe
00000360: d2e0 85be a9f8 b73e 767c 3bbd 0f4d cdbd
00000370: 5cd6 d4bd e522 9dbe 3623 9d3e 61f8 17be
00000380: 10db c73e dc9f bdbe d04b 6dbe 010c 68be
00000390: 4c18 87be cebe 25be 0c2b 353e 3633 d63e
000003a0: 824e 82bc cd21 87bd d5ac 793d ebce 94be
000003b0: 581c 473e efd9 c5be ef7d 08bc d9ff 8d3e
000003c0: f566 06be 3382 7cbe 10d3 793d 14d3 903e
000003d0: 84f0 a83b 10d5 563e f048 6f3e 855d a5be
000003e0: 9bda 923c e1fc ff3d d4a6 9bbd 4535 6f3f
000003f0: a1ef 87be 01c3 bf3c aad7 4dbe f0c2 a4be
-0.037463013 0.06875056 -0.26495856 -0.32719415 -0.14905436 -0.52332413 -0.38217878 -0.08377602
-0.005563363 -0.048122045 0.14044167 0.44845518 -0.14654286 0.12091928 0.17489144 -0.16157426
-0.25354266 0.080704436 0.19032465 0.2264726 -0.16580808 0.2956143 -0.17479722 0.041617006
-0.2484429 -0.18094029 0.2149515 -0.10132344 -0.3564483 0.053053215 -0.41894045 -0.32706317
0.18086003 0.052374143 -0.063489646 0.11247627 -0.3488771 0.24057299 0.2511741 -0.3013568
0.19665192 -0.4485982 -0.32786787 -0.12867801 -0.08548126 0.06375165 -0.45181417 0.6296369
-0.31920388 0.2698734 -0.33918566 -0.16765986 -0.019843424 0.36048576 0.079239346 0.29850194
-0.2055403 -0.21422964 0.048334125 -0.7290784 -0.07171072 -0.3202772 -0.14577606 -0.18503398
-0.15842554 0.04851708 -0.12953873 0.38447067 0.28654447 -0.035960533 0.021602586 -0.03466861
0.1014183 0.33039507 0.3043056 0.13864824 -0.03923842 0.14650872 0.61292726 -0.24716431
0.3463899 -0.13054119 -0.17687456 -0.14352639 -0.062149405 -0.29425752 -0.37143967 0.27297226
0.10988877 0.2200091 0.15492974 0.12375892 0.19615178 0.43248072 0.030974023 0.40939012
-0.092300154 -0.18789229 0.02365969 -0.0687946 0.29124096 0.21170588 -0.09520804 -0.06213983
0.039223097 0.30992368 -0.4162171 0.00050032535 -0.24696827 0.25352582 -0.2861567 -0.011966096
-0.30958322 0.19079465 -0.06791684 -0.40927267 0.14667365 0.1788278 0.07271245 -0.13015702
-0.2521391 0.07821448 0.29727933 0.5071441 -0.44048664 -0.13088974 -0.19912632 0.095874004
-0.12825853 -0.08778003 0.042404853 -0.02759838 0.16683903 0.109171316 -0.10003552 0.09599586
0.3035309 0.29911909 0.104445584 -0.10653494 -0.1449194 0.53802377 0.65133727 0.16896006
0.045997884 -0.19056536 0.2223409 -0.027061678 -0.10900818 -0.089162506 0.4340046 0.046692617
0.07142167 0.04896094 -0.45432746 0.14876083 -0.10462069 0.013645612 0.10251946 -0.08721576
0.123600945 -0.0060446425 -0.21893817 0.24247253 0.27871114 0.2720306 0.046126857 -0.15183319
0.028214741 -0.07833254 0.24421595 -0.19625783 -0.13463783 0.468321 0.27283585 0.060921412
-0.18556295 0.15658092 0.33171225 0.29669803 0.25675762 0.15312645 0.28527194 0.08472007
0.09371491 -0.13239285 0.0755724 0.16934782 -0.32085747 -0.035850175 0.36103177 -0.049368262
-0.063611045 0.285409 0.49907956 0.20622191 0.14641142 -0.16722505 0.24932794 0.58680403
0.15650964 -0.121116735 -0.15162034 0.008174583 0.00879237 -0.40401432 -0.27485043 0.06289629
-0.24273242 0.01233985 0.12747854 0.22697206 -0.3201175 -0.26095092 0.20029211 -0.34164673
-0.26148087 0.359319 -0.045772992 -0.100244634 -0.10392448 -0.30690685 0.30690926 -0.14840843
0.3903432 -0.37036026 -0.23173451 -0.22660829 -0.26385725 -0.16186067 0.17692202 0.41835946
-0.015906576 -0.06598244 0.06095584 -0.29064116 0.19444406 -0.38642833 -0.008330806 0.2773426
-0.13125212 -0.24659042 0.0609923 0.2828604 0.005155625 0.20979714 0.23367667 -0.32297912
0.017926505 0.12499405 -0.07600179 0.9344066 -0.2655001 0.023408415 -0.201018 -0.32179976

gnn1_pool.bns.0.weight f4 [32]
00000000: 79e7 a93f 723e 863f e684 683f c063 793f
00000010: fdd3 573f ce92 6b3f 14ab 603f a13b 843f
00000020: ab82 833f f95d 563f 1f6e 773f 5f3b 8b3f
00000030: 03fc 873f a5a9 943f 5b8b 863f 302d 643f
00000040: 01cd 7b3f 3d05 5f3f 6c0c 553f 87b0 803f
00000050: f74c 693f 919f 803f 09d0 793f ca76 863f
00000060: 689e 813f a111 873f 6678 883f d705 6c3f
00000070: cae1 523f a7c2 2c3f 8700 7e3f 2d9f 8e3f
1.3273765 1.0487807 0.90827787 0.9741783 0.84307843 0.9202088 0.87761045 1.0330697
1.0274252 0.8373714 0.96652406 1.0877494 1.0623783 1.1614271 1.0511278 0.8913145
0.98359686 0.8711737 0.8322208 1.0053872 0.91133064 1.0048696 0.9758306 1.0505002
1.0126467 1.0552255 1.0661743 0.9219641 0.82375777 0.67484516 0.99219555 1.1142327

gnn1_pool.bns.0.bias f4 [32]
00000000: e9fe e13e 41d7 513c d607 8ebd 3dbf 863e
00000010: 90d1 583e a0a5 023e 3e34 d7bc 1bc7 c73d
00000020: b0f0 a03e 234e 8cbe 3aae 903c 71cf 81be
00000030: 9c0f 4cbe 2dac 173e c9ef 4dbe d534 903d
00000040: 52ec 8c3e 1c27 313f f61c 52bb 228a 95be
00000050: bf02 1dbe a3a1 c63e ba54 ae3e 09bb bf3e
00000060: b33e bfbd f979 4cbd da95 ddbc 4151 613e
00000070: dbb5 8d3d 5d0b c03d 199b fe3e 4253 3cbe
0.44139794 0.012807668 -0.06935088 0.26317778 0.21173692 0.12758493 -0.026270028 0.09754773
0.3143363 -0.27403364 0.017661203 -0.25353578 -0.1992783 0.14811774 -0.20111002 0.07041327
0.27524048 0.692003 -0.003206072 -0.2920695 -0.15333079 0.38795194 0.34049016 0.37447384
-0.09338131 -0.04992101 -0.027048994 0.22003652 0.06919452 0.093771674 0.49727705 -0.18391135

gnn1_pool.bns.0.running_mean f4 [32]
00000000: 20e6 2bbe c431 abbc 797a 853d d495 083d
00000010: 3b48 0fbe d248 cc3d 624a 763d 3efe fabd
00000020: 132c 1f3e cea9 15be 4217 3bbe 2fc8 99be
00000030: c912 57bd 080d 57be ceda 99be 8576 433e
00000040: 8873 053e 59b5 a0be ee71 033e 9e4b 4fbe
00000050: bb4e 6fbe f14a d5bd e1db bb3d d030 d3bc
00000060: 1bbf 1abd 4264 bfbe 2890 45be fb31 923e
00000070: 6630 b73d c789 893d bd05 3dbe 4daa 863c
-0.16787004 -0.020897754 0.065175004 0.033346012 -0.13992397 0.09974827 0.06012953 -0.12255524
0.15544157 -0.14615557 -0.18270591 -0.3003554 -0.05250815 -0.21001065 -0.30049747 0.1908818
0.13032353 -0.31388357 0.1283643 -0.2024369 -0.23369877 -0.104146846 0.09172798 -0.025780112
-0.03777991 -0.37381178 -0.19293272 0.28553757 0.08944778 0.06715732 -0.1845922 0.016438628

gnn1_pool.bns.0.running_var f4 [32]
00000000: c1e5 b23b 7511 5c3c 77b8 7c3b 3273 233c
00000010: d102 963c 88f9 6a3c e1f2 b33b c613 463c
00000020: 1b62 973b c4cc 143c 6d63 983c d47d a33c
00000030: 8e58 4c3c 8db2 453c 93fe 543c 4037 a03c
00000040: 1e6b bd3c 4d09 623c c1c4 1a3c 1ae2 1d3d
00000050: 0e9b ba3b 5e84 ab3b c411 ac3c 1f9a 753c
00000060: 3948 d13c 1cc9 073c a726 d03c b39c ae3c
00000070: 6637 273c 95ed f93b 33e8 3d3c 200d 4c3d
0.0054595177 0.013431896 0.0038562098 0.009976195 0.01831189 0.014341719 0.0054916 0.012089675
0.0046198494 0.009082023 0.018602097 0.01995746 0.012472285 0.012066496 0.013000148 0.019557595
0.023122367 0.013796163 0.009446324 0.038545705 0.0056947535 0.0052342853 0.021004565 0.014990359
0.025547134 0.008287694 0.025409056 0.021314954 0.010206079 0.007627199 0.011591005 0.049817204

gnn1_pool.bns.1.weight f4 [32]
00000000: 6a15 893f bd5e 833f dd1c 663f 11c9 683f
00000010: 6f5e 833f 3c15 883f b608 553f 2497 6a3f
00000020: 89ad 4c3f 2f80 8b3f 704b 7d3f 5135 6c3f
00000030: feca 523f 9fb0 933f 7d97 683f dbb5 7f3f
00000040: 0a18 5c3f 4db9 7c3f 2f41 603f 20ba 5a3f
00000050: b104 7b3f 2a28 723f fd2b 883f eaf2 8a3f
00000060: 092c 563f aac4 4e3f 2ff1 723f 6d7a 9b3f
00000070: 7f2c 663f 201c 853f 2319 763f ac64 5f3f
1.070966 1.0263287 0.8988779 0.90931803 1.0263194 1.063148 0.83216417 0.9163687
0.79952294 1.0898494 0.98943233 0.92268854 0.8234099 1.1538275 0.9085615 0.99886864
0.8597418 0.98720247 0.8759946 0.85440254 0.98054034 0.94592535 1.0638424 1.0855381
0.8366094 0.80768836 0.94899267 1.2146736 0.89911646 1.0399208 0.96132106 0.8726299

gnn1_pool.bns.1.bias f4 [32]
00000000: 8add 86be 38b4 933e c58d 0b3c 42e1 9e3e
00000010: 5bcd 153e 2a86 cebc 15a5 8bbe 8821 c6be
00000020: 38ff f83c 59d1 a93e 7588 bb3d a950 88bc
00000030: 2e55 97be 0ac6 453e 60a6 8f3e ff91 42bf
00000040: 2491 f13e da5a f4bc 5c61 d0bd b02d c0be
00000050: 107a 5ebe cf29 e2be f4c4 a7bd cc96 7c3e
00000060: 178a 153e a4d8 473d e883 873d fc45 45bf
00000070: 9d4a 233f 58a5 983e a173 383f fb56 893f
-0.26340896 0.28848433 0.008517687 0.31031233 0.14629118 -0.025210459 -0.27274385 -0.38697457
0.030395135 0.33167532 0.091568865 -0.016640024 -0.29557174 0.19313827 0.28056622 -0.7600402
0.47181046 -0.029828478 -0.1017482 -0.37534857 -0.2172625 -0.44172522 -0.08191863 0.246669
0.14603458 0.04879059 0.06616956 -0.7705991 0.63785726 0.29813647 0.72051436 1.0729669

gnn1_pool.bns.1.running_mean f4 [32]
00000000: cdd8 d83f 7af0 ad3e bcc6 8c3d d01b de3e
00000010: 19eb f73f 08ba 00c0 ce33 86bf 7187 00c0
00000020: e81d 7dbf 3c14 6fbf 2f62 d83e 4655 783f
00000030: 14ad de3e 051c 0cbf fe82 95be 6cf6 ddbf
00000040: c33d dcbf 9d06 0d3f 249f 27bf e240 b9bf
00000050: da4e f5be bddb d8bf 33a8 b23f f38d efbb
00000060: 22e1 22bf c55b af3f ef3c 52be 4446 d5bf
00000070: 928b 2bc0 204c e73f 32c5 a9bf bc4c 78bf
1.6941162 0.33972532 0.06873843 0.43380594 1.9368621 -2.0113544 -1.048456 -2.0082667
-0.9887376 -0.9339025 0.42262408 0.97005117 0.43491423 -0.54730254 -0.29201502 -1.7340827
-1.7206348 0.55088216 -0.65477204 -1.4472926 -0.4791172 -1.6942059 1.395758 -0.007310623
-0.63624775 1.3699881 -0.20531057 -1.6662068 -2.6803937 1.8070107 -1.3263304 -0.9699209

gnn1_pool.bns.1.running_var f4 [32]
00000000: 7a46 963f 2b59 bf3f d1bc 843f a555 2440
00000010: ca06 b33f 9cec e23f 53a1 503f c559 4f3f
00000020: 4553 a03f e052 5f3f da51 063f 229f 793f
00000030: 410b 253f 92fa 0040 9a61 ef3f 3721 513e
00000040: 2088 c33f 5c57 8c3f c51b dc3f b774 ad3f
00000050: d891 333f 06f1 923f 8680 f73e cece fe3f
00000060: fa00 1540 5152 583f a667 1a3f b365 ac3e
00000070: c43f 713f b610 7a3f 0478 5e3f 6047 1b3f
1.1740258 1.4949087 1.0370122 2.5677273 1.3986447 1.7728457 0.8149616 0.8099635
1.2525412 0.8723583 0.52468646 0.9750844 0.644703 2.0152936 1.8701661 0.20422827
1.5275917 1.096416 1.7195975 1.3551244 0.70144415 1.1479805 0.48340243 1.9906862
2.3281846 0.84500605 0.60314405 0.3367134 0.94237924 0.9768175 0.8690188 0.60655785

gnn1_pool.bns.2.weight f4 [12]
00000000: 4bb6 2440 437d 7b40 307e c740 2d1e 0140
00000010: 1a74 6640 482e e93f 0235 1a40 e81b 7f40
00000020: 0cf8 6140 429c aa40 a85e b93f 70ed 7e40
2.5736263 3.9295204 6.2341537 2.0174668 3.6008363 1.8217249 2.4094853 3.9860783
3.5307646 5.3315744 1.4482012 3.983242

gnn1_pool.bns.2.bias f4 [12]
00000000: 912e 43bf 88d2 153f 9d50 5340 61ed 62bf
00000010: a133 963f 3f74 afbd 17b3 f3be 673a 3c3f
00000020: 97f3 9e3f 79e1 a640 9e19 91bf cef1 433f
-0.7624293 0.5852437 3.3017952 -0.8864346 1.1734506 -0.08567094 -0.47597572 0.73526615
1.2418088 5.2150235 -1.1335943 0.7654084

gnn1_pool.bns.2.running_mean f4 [12]
00000000: 7f2e a7bf e012 9cbf 2fc6 1a40 575f 0abf
00000010: a7ca 643f 1797 9c3f 3855 10bf e45a c5bf
00000020: f41b 8a3f 1b4f 0f40 c204 bbbf 90b1 d8bf
-1.3061064 -1.219326 2.4183462 -0.5405173 0.8937172 1.2233609 -0.56380033 -1.5418363
1.0789781 2.2392032 -1.4610827 -1.6929188

gnn1_pool.bns.2.running_var f4 [12]
00000000: b849 d63e 1340 ce3d e2fa 743e b43f 8e3e
00000010: 8bc4 013f 7499 e23e b4ca 8b3e 7efe e73d
00000020: f349 3a3f 7ca0 2d40 4489 a43f 1f2e 523e
0.41853118 0.10070815 0.23923829 0.27782977 0.50690526 0.442577 0.27303088 0.113278374
0.7276909 2.7129202 1.285439 0.20525406

gnn1_embed.convs.0.bias f4 [32]
00000000: 7115 45bd 69e3 163e abe1 a33c f3a3 983c
00000010: 9880 77bd cdc2 213e 5d4b 5e3e 0b50 623d
00000020: b5b9 ff3d b134 1f3d bec3 673d 7336 903d
00000030: f33e a23c 9014 93bd 6c0c fc3d 21b6 213c
00000040: 5bc6 83bd 2523 2c3c d569 923d 6f87 83bc
00000050: c7f5 6abc 833a 0e3e 1c77 2ebe 43d8 0fbe
00000060: 1c63 4c3d 9609 f6bd 9617 063e 82b8 8bbd
00000070: b302 62bd c51a 26be b8e8 f6bd 8679 a03c
-0.04811615 0.14735188 0.020005068 0.018632865 -0.06042537 0.15796967 0.21708436 0.055252116
0.12486593 0.03886861 0.05658316 0.07041635 0.019805407 -0.07181656 0.12307057 0.009870083
-0.06434318 0.010506426 0.07149092 -0.01605579 -0.014340824 0.13889508 -0.17037624 -0.14047341
0.049899206 -0.12013547 0.13094935 -0.068223014 -0.055178355 -0.1622115 -0.12056106 0.019589197

gnn1_embed.convs.0.lin.weight f4 [32, 14]
00000000: c152 bb3d 177b d3be 5c37 02bf 2a9f 903e
00000010: 0554 9fbe 1cda 2fbe 941a b3be 761d 50be
00000020: 408f 793e e0d6 5d3e e892 f9be 143f 8a3e
00000030: e42b cbbd 8464 4cbe 37fc e23e 514f 91bd
00000040: d05f 42be af54 14be ad6c a13d ffa5 913e
00000050: f67f 8dbd 9016 f0bd e0cc 203e 028c 843e
00000060: f6a9 d9be ece7 8a3c 0ecc 643e a4e6 26bd
00000070: bc16 f9bc 50e3 6d3e e32b d4be 4da1 d2bd
00000080: 819a a7be 0fa9 2cbe cc26 18be 104d 9f3e
00000090: 184f c0be 7cf1 493f 15a2 903e 1dd6 b5be
000000a0: 06d0 0e3e 4a54 0d3d 37f6 6c3e b190 83be
000000b0: ef4c b3bc 538d 5b3e 44f4 d6be f617 eabd
000000c0: de57 af3e 4204 50bc fa2e 6dbe e1ad 04be
000000d0: ee7f af3e 3e8b 833e d65f 51be 2a18 07bf
000000e0: ed9e 723c 453b 7fbe 6521 28bf e12e c33e
000000f0: db49 343c ed08 f0be 43cd 01bf 49b6 7a3d
00000100: 1649 0b3e 4567 bf3e 6233 2fbf 6750 cc3e
00000110: 435c 63bd 8b49 833e ea79 57be 665a 753e
00000120: c1ea 66be 59f8 5e3b a312 9abe 7d66 fb3d
00000130: 4c65 dbbe b6b4 51be dff8 423e 3768 4d3b
00000140: cf72 f23d e4f2 73be 8a42 15be df59 313d
00000150: f4f7 5f3d 8462 53be 2608 afbe 6407 86be
00000160: 69e4 7a3e 7daa e13e 73c3 153d e373 843e
00000170: f756 44be 936f 75be b025 e3be fc2c a7bd
00000180: d315 d3be eac9 893d 49a6 be3e 84eb 933e
00000190: c3a5 d8be b5ee 603e dacf 2abe 5b48 1f3e
000001a0: dc80 26bf d544 5bbd ad8b 02be b4d5 babb
000001b0: c05c 8c3e 92ef b4bd e50b ba3d a642 e8be
000001c0: dd12 f8be 1cfb a53d 518d 9a3e 8425 2abc
000001d0: 1ee6 9d3c cc18 213e 76e1 643e ebde aebe
000001e0: 49c8 06be 47a4 03bf c874 0cbe 69a7 cebd
000001f0: 3dfd ab3d 5f85 3dbe 5336 043e 7b61 9f3e
00000200: ffb5 c83e e581 66be 86a4 ea3d 344d a63e
00000210: c705 b03e 6c7a a8bd 5805 d93c 1ab5 01bf
00000220: 9af4 a8bc 6292 65be 87b9 c03e 26f7 893e
00000230: 1ba8 45be 4c39 733e 7822 8fbe 8a0e bebd
00000240: d894 b23e fb4e ac3e 1330 a13e 124b 96be
00000250: 81c8 12be 39a2 85be ffe1 8f3d 9fef c9bd
00000260: 676b a8be e576 a8bd ad8a c6bd 2728 a93e
00000270: 34c2 65be f2dc 85be 2d30 1b3e e03c 3b3e
00000280: 9d98 10bd 886a a93e cd13 c33d 6c4a 96be
00000290: 065f 463c 4392 6bbe 0ba1 b23e c0b9 ecbd
000002a0: e0bd 06bd 1ff9 263e 755f 27bf 439f c53e
000002b0: 4247 903a 5359 413e c2a3 6f3d 73c0 4ebe
000002c0: 3e2b 17bf 0259 673d cfe4 613d e9f8 a1be
000002d0: 37f6 6fbc bc2d 9fbe 7215 cbbd 3b16 523e
000002e0: 76d6 183e 85ad c83c 5744 6fbe 3945 8f3e
000002f0: a883 7bbe 4f80 a03e 1fab 43be a71b 5b3e
00000300: 4e29 eabd 066e 653e ed26 21be 6e90 95bd
00000310: faf3 8abe 4d16 69be 0548 c03e bc14 9c3e
00000320: e40a 14bd 00f7 87be d4f3 6fbd 93d5 5ebe
00000330: 92be 72bc c5f9 403e ab95 ae3e 0b4e ebbc
00000340: 79a0 a7be 6f37 8fbd e12c edbe 0365 ea3d
00000350: d95b 3dbe 2ca5 9fbd 3528 283e 3444 dc3d
00000360: 0e76 1ebe 8df4 c73e 9afa c7be 7354 01bf
00000370: 245d 20be d4e5 a4bd 7c1d 663d ca52 35be
00000380: 6f1f 7b3e 0196 ffbd 3043 953e 54d6 1a3e
00000390: 2a45 653e f2f6 4dbb 7cf8 093e 2c1f 8cbd
000003a0: c5cf a63e bf49 573d 566c cd3c 0c03 0fba
000003b0: 73d9 d43e 34d5 7c3e 55ae 8abd c921 133e
000003c0: fb52 923e aa3d 993e 22c8 c5be 589c 0d3e
000003d0: 4a3d d63e c6ac c63e 6d76 09be 99f2 8c3d
000003e0: 53f1 3fbe ced5 37be e948 0cbe 9244 a93e
000003f0: 40bb 3b3e 7375 843e 08b9 643e caca a7be
0.091466434 -0.41304848 -0.5086572 0.28246433 -0.3111879 -0.17173046 -0.34981215 -0.20323738
0.24371052 0.21664 -0.48744893 0.2700125 -0.09920481 -0.19960219 0.4433305 -0.070952065
-0.18981862 -0.14485429 0.078820564 0.28446957 -0.06909172 -0.117230535 0.15703154 0.25888067
-0.42512482 0.016956292 0.22343466 -0.0407473 -0.030406348 0.23231244 -0.41439733 -0.10284672
-0.32735065 -0.16861366 -0.1485855 0.31113482 -0.37560344 0.788841 0.2824866 -0.35514918
0.13946542 0.034504212 0.23140799 -0.25696328 -0.02188727 0.2144063 -0.41983235 -0.114303514
0.34246725 -0.012696328 -0.23162451 -0.12956955 0.3427729 0.2569217 -0.20446715 -0.52771246
0.014808399 -0.24924953 -0.65675956 0.38121703 0.011003937 -0.4688181 -0.5070383 0.061208997
0.13602099 0.37383476 -0.6843778 0.39905092 -0.05550791 0.25642046 -0.210426 0.23960266
-0.22550489 0.0034022538 -0.30092344 0.122754075 -0.4285072 -0.20479092 0.1904025 0.0031342634
0.11838304 -0.23823124 -0.14576164 0.0432986 0.054679826 -0.2064305 -0.34185904 -0.26177514
0.24501194 0.44075385 0.036563348 0.25869665 -0.191738 -0.23968343 -0.4436469 -0.08162877
-0.41227588 0.06727965 0.3723624 0.28890622 -0.42313966 0.2196606 -0.16680852 0.15554945
-0.65040374 -0.05353244 -0.12748595 -0.005701745 0.27414513 -0.08834757 0.090843 -0.4536335
-0.48451892 0.08104536 0.3018594 -0.010384921 0.019274767 0.15732116 0.22351632 -0.34154448
-0.1316234 -0.5142254 -0.13716424 -0.10090525 0.08397911 -0.18507908 0.12911348 0.3112906
0.39201352 -0.22510488 0.114571616 0.32480776 0.34379408 -0.08226475 0.026491806 -0.50666964
-0.020624448 -0.22419122 0.37641546 0.26946372 -0.19302408 0.23752326 -0.27955985 -0.09280117
0.34879184 0.33654007 0.3148199 -0.2935415 -0.14334299 -0.2610033 0.07025527 -0.09860157
-0.3289444 -0.08225802 -0.09694419 0.33038446 -0.22437364 -0.2614513 0.15155096 0.1828494
-0.035301793 0.3308909 0.09525261 -0.29353654 0.012107616 -0.23005013 0.3488849 -0.115588665
-0.032895923 0.1630597 -0.6538003 0.3859807 0.0011007565 0.1888173 0.05850578 -0.20190601
-0.5905036 0.05648137 0.05514985 -0.31635216 -0.014646105 -0.3108958 -0.099162 0.20516293
0.1492556 0.024496803 -0.23365913 0.279825 -0.24561942 0.31347892 -0.19108246 0.21397267
-0.114336595 0.22405252 -0.15737505 -0.073029384 -0.27139264 -0.22762413 0.37554947 0.3048457
-0.0361432 -0.26555634 -0.058582142 -0.2176116 -0.014815943 0.1884528 0.34098563 -0.028723737
-0.32739618 -0.06992995 -0.46323302 0.11445048 -0.18492068 -0.07795176 0.16421588 0.10755196
-0.15474722 0.39053765 -0.3905838 -0.50519484 -0.1566053 -0.08051649 0.056180462 -0.17707363
0.2452371 -0.12479783 0.29152822 0.15120822 0.22389665 -0.0031427708 0.13473696 -0.06841883
0.3258039 0.052560564 0.025076073 -0.0005455471 0.4157215 0.24690706 -0.067715324 0.14368357
0.28578934 0.29929858 -0.38629252 0.13829172 0.41843635 0.3880369 -0.13424082 0.06882209
-0.18744402 -0.17952654 -0.13699688 0.33060127 0.18333149 0.25870857 0.22336209 -0.32771903

gnn1_embed.convs.1.bias f4 [32]
00000000: 64c7 fe3b 211f a1bc c052 debd c467 b83a
00000010: 76ae 713d 6a15 183d 0436 813d 529b 513d
00000020: 423e 89bd 2750 47be 5045 0cbe 1cf7 a5bc
00000030: 4fa9 e9bc b625 f7bc 3eeb b13d 990b fdbd
00000040: a766 01be 455a 25bd 7957 ed3c d99c c73b
00000050: 199b 8ebc d4df 27bc 5f5c 603d 1198 50bc
00000060: 821c 64bd a5cd 8f3c e09e 81bd 91f3 ff3d
00000070: 258f bdbd 5467 dd3d c66a acbd f357 ab3d
0.007775234 -0.019668164 -0.10855627 0.001406901 0.05900427 0.037129797 0.06309131 0.051173516
-0.06701328 -0.1946417 -0.13698316 -0.020259432 -0.028523115 -0.03016935 0.08687447 -0.12355728
-0.12636815 -0.04036929 0.028972374 0.0060916957 -0.01740794 -0.010246236 0.054775592 -0.012731568
-0.05569125 0.017554114 -0.06329131 0.124976285 -0.09255818 0.10810724 -0.08418803 0.08366384

gnn1_embed.convs.1.lin.weight f4 [32, 32]
00000000: 2037 e73d aea3 74be e2cd e43e f6b1 96bd
00000010: ce90 f13d eea5 fa3e 32f4 4f3e 7a2f 803e
00000020: 0c21 113e 402c d33d 1836 863d fd1d 2e3d
00000030: 41e0 913e 4ba9 fb3e 1d6d b1bc ecfc bc3e
00000040: 983f f2bd 8d90 24be 9ac8 b2be bd54 093e
00000050: cd27 bdbd b6e0 64ba 281a 053f b49d 383e
00000060: 0576 a93d 3d21 6cbe d1db 58bc 64e8 9a3d
00000070: c17f 8d3e 8b06 7b3e 7d94 f9bd 4049 b1bc
00000080: 44ff 773e afea 5abe 2b5a 01be b5f6 1d3e
00000090: 741c 413d 3ede 423e cefd 873d 186d 4ebe
000000a0: 8dae 883e b2ef 4abd 656e 0f3f 1936 a4bd
000000b0: 203c 9bbe 5f64 27be e59f 66be b084 dc3e
000000c0: 1836 32be 1193 26bd 6e71 6dbe 1247 423e
000000d0: 1db6 8f3d a296 ed3d 69d3 023d 5296 aebe
000000e0: 8aab 1b3d 16c2 dd3d 9fd1 473e 501e f53d
000000f0: 5fa4 c4be c091 8bbd da83 b73e 9e33 f33d
00000100: 4fc0 df3e 5e26 9cbd cc76 6f3e b779 c5bd
00000110: 8a7e 613e 19fe b23d 3167 9b3d 4fed b13e
00000120: a6da 503e 1114 3abe 48bf 7cbe e9be 733e
00000130: e0f4 443e a542 a83e 8ce0 c63e d771 cc3c
00000140: 4131 48be 3312 acbc d0d2 4b3e f5b2 6ebb
00000150: f4de 8cbd 1262 a53e 0159 1a3e e93b ba3d
00000160: c881 48be 20e2 963d ba89 763e 87a7 023e
00000170: baee 823e 95ab 683d d668 853c b230 8b3e
00000180: 35c6 233d 622d 13ba 0441 8f3e bfbd 88be
00000190: 4438 453e 4e67 27be 68ef 01bf 4869 9fbc
000001a0: b96a 04bf 0243 823e 3df6 c6bd eb00 233e
000001b0: e66f 023e cca5 46be 0d03 413e 20e2 ccbe
000001c0: 4430 883c 5156 ba3d f1db 7e3c 7680 323e
000001d0: 3e66 173e 458c 7abe 51fd 9ebd ed87 493e
000001e0: c4e3 8c3e 015d 513e 8d4b 9dbe 5fdb 3e3e
000001f0: 694b 64be f671 40be 9b70 fabd 27ab 05bd
00000200: 70d1 c83d 6f9b 8a3d dc01 8fbe 8bef 14be
00000210: 0137 af3c 34df 053e 703a e03d 3df2 bfbd
00000220: fdd5 6f3e 997a 1ebe 22ae cdbe 933b 8dbe
00000230: 5b15 02be 7026 bbbe f565 dabd 44a0 c83d
00000240: 13e4 12bd 490a 6ebe 2298 363e d701 35be
00000250: f1d9 67be e49f f13e 406c 46be 9a01 9cbc
00000260: c7e9 833e 2ab0 803d 5bcf f6be cedc 6d3e
00000270: 49ad faba 8b73 8d3d 8566 70bd b37e 273e
00000280: c15e 8cbe 7e1b 95be 3cec 23bd 7259 99be
00000290: 274e a33a 283c 4dbd 5e50 63bd 15c7 fa3b
000002a0: e7e8 c73e 58b3 6dbe 72bf 043f 1cee 733e
000002b0: e925 493e a914 96be f12f 333c 7d2f a83e
000002c0: 7eac f5bd 712e aebe bbb3 793e 647d 8dbd
000002d0: 58b1 163e 55fb 853e 588c a8be 95b5 8a3d
000002e0: d767 583e 6226 453e b907 df3d e054 08bc
000002f0: 48d9 da3d 9011 4dbe 2e6d 333f 9855 2f3e
00000300: 8478 c33d e83d 933b d52f 473e c6a0 91be
00000310: cfdd 073e 7ad8 83bd e791 a4bd 6b5c fe3d
00000320: d2a4 56be 8083 a1be a0de 5fbd d888 843e
00000330: 1855 6abe 37a2 c33d 0bb7 cd3c dc7a 9bbe
00000340: 595f 0bbe 0643 e8be c168 a9be 9ae2 9cbd
00000350: b892 223d 79c8 71be 20ab 123e 1e45 803e
00000360: 410f bcbe 533d b8be dc81 273e d94b 133e
00000370: bbf4 2a3b 2895 2c3c 0709 f53c 9bcd c4be
00000380: f85d 773e 524b db3e 9d67 773e ef32 9fbd
00000390: e1f5 d6bd 4471 b7be a767 56be 506a fa3d
000003a0: e395 323e 17fc d6bd bdde 01be 3692 36bd
000003b0: 12b3 9f3e a61c f5bd e0cd 303e 6e3c 2b3e
000003c0: 1782 8c3d d04c afbd 883e 8c3e a284 1dbe
000003d0: 902c b5be bebe ab3e 19fd e93d 7775 e7bd
000003e0: 7673 c5be 2411 21be a1db c2be 4944 aa3e
000003f0: c35c fabd ab20 b1bd a907 263e 4b68 083c
0.11289811 -0.23890564 0.44688326 -0.07358162 0.117951974 0.4895472 0.20307997 0.25036222
0.14172763 0.103111744 0.06553286 0.042509068 0.28491405 0.49152598 -0.021658475 0.36911714
-0.11828536 -0.16070767 -0.34918672 0.13411231 -0.09236107 -0.00087309943 0.51993036 0.18028909
0.082744636 -0.23059554 -0.013236002 0.07563856 0.2763653 0.24514215 -0.12186525 -0.021641374
0.2421847 -0.21378587 -0.12632053 0.15426143 0.047146276 0.19030091 0.06640206 -0.20158803
0.26695672 -0.049544998 0.56027824 -0.08018131 -0.3031931 -0.16346882 -0.22521932 0.43069983
-0.17403448 -0.040667597 -0.23187801 0.18972424 0.07017157 0.116009966 0.031939898 -0.3409906
0.03800539 0.108280346 0.19513558 0.11968672 -0.38406655 -0.06814909 0.35842782 0.118750796
0.43701407 -0.076245055 0.23385161 -0.09642356 0.22020927 0.087398715 0.075880416 0.34751365
0.20395908 -0.18171717 -0.24682343 0.23803295 0.19234037 0.32863346 0.3884319 0.024956627
-0.19550039 -0.021004772 0.19904637 -0.0036422585 -0.068784624 0.32301384 0.15073015 0.09093458
-0.19580758 0.07367349 0.24075976 0.12759219 0.2557276 0.05680426 0.016285341 0.2718559
0.039983947 -0.00056143675 0.2797929 -0.26707265 0.19259745 -0.16348001 -0.5075593 -0.019459382
-0.51725346 0.25441748 -0.09714935 0.15918319 0.12737998 -0.19399184 0.1884882 -0.4001627
0.016624577 0.09098495 0.015555368 0.17431816 0.14785096 -0.24467571 -0.0776316 0.19680758
0.2751752 0.20445634 -0.30721703 0.18638371 -0.22294392 -0.18793473 -0.12228509 -0.032633927
0.09805572 0.06767928 -0.27931106 -0.14544503 0.021388533 0.13073426 0.10948646 -0.09372375
0.23421474 -0.15476455 -0.40171915 -0.27584514 -0.12703459 -0.36552763 -0.10663978 0.09796193
-0.03586204 -0.23246111 0.17831472 -0.17676483 -0.22641732 0.471923 -0.19377232 -0.019043732
0.25764295 0.06283601 -0.48205075 0.23228762 -0.0019125129 0.06906804 -0.05869152 0.16356926
-0.27416041 -0.29122537 -0.040020213 -0.29951054 0.0012459204 -0.050106198 -0.055496566 0.007653127
0.39044878 -0.23212945 0.5185462 0.238213 0.19643368 -0.29312637 0.010936723 0.3284873
-0.11995791 -0.34019807 0.24384968 -0.06908682 0.14716089 0.26168314 -0.32919574 0.06772915
0.21133362 0.19252923 0.10890145 -0.008321017 0.10685974 -0.20026231 0.7008847 0.17122495
0.09544471 0.004493464 0.1945184 -0.28442973 0.13268207 -0.06437774 -0.08035641 0.12419971
-0.20961311 -0.3154564 -0.05465567 0.25885653 -0.22884023 0.095524244 0.025111696 -0.30367172
-0.13610591 -0.45363635 -0.33087733 -0.07660408 0.039690703 -0.2361163 0.14323092 0.25052732
-0.36730388 -0.35984287 0.16358131 0.14384402 0.0026085812 0.0105336085 0.029911531 -0.38438115
0.2415694 0.42830902 0.24160619 -0.07773387 -0.104961164 -0.35828602 -0.20937978 0.12227309
0.1743999 -0.10497301 -0.12682624 -0.04457303 0.31191307 -0.11968355 0.17266035 0.16722271
0.0686075 -0.08559573 0.27391458 -0.15382627 -0.3538556 0.33543962 0.11425228 -0.113017015
-0.38564652 -0.15729195 -0.3805819 0.33255222 -0.12224724 -0.08648809 0.1621386 0.008325647

gnn1_embed.convs.2.bias f4 [32]
00000000: 9c08 a4bc 7357 463d eb57 c7bd f770 d7bc
00000010: 64b5 d53d 30a9 a13d 02ef 58bd 6b85 e93c
00000020: 52da 913d 3d92 3cbd 701f 8a3d ea77 b23d
00000030: d797 02bd b83f f6b9 5efa 0d3e 0a93 203d
00000040: a31a 813d 7088 b4bd faa7 85bd aea9 80b9
00000050: a259 813c 1200 6f3d f86e 7e3d 9fd6 e7bd
00000060: 55a7 f5bc c561 adbd 16cb 873d 2e7d 383c
00000070: 65af adbc a80a ae3b 1447 9bbc 348c c43c
-0.020023637 0.04842324 -0.09733566 -0.026298983 0.10434988 0.07893598 -0.05296231 0.028506001
0.071217194 -0.0460379 0.067442775 0.08714278 -0.031883087 -0.0004696825 0.13865039 0.039202727
0.06303909 -0.08815086 -0.065261796 -0.00024540484 0.01578981 0.058349676 0.062117547 -0.113202326
-0.029987017 -0.08465914 0.066305324 0.011260314 -0.021201799 0.005311329 -0.018954791 0.023992635

gnn1_embed.convs.2.lin.weight f4 [32, 32]
00000000: ff1b b7be 11ad 0abe 6fae 81be 1632 24ba
00000010: 79a0 973e ad1a 3fbe 2d7d c1bc 0c08 51be
00000020: b61e 203e cd57 a73e 2eeb 0cbe 78e5 e83d
00000030: 15c6 a1be 8160 9fbe bc90 133e f3ca d8be
00000040: b33b 8a3e f9bf 003e a8a7 1e3e 5b92 9bbc
00000050: 8457 babd 00db bdb8 bc88 3b3e ad42 aabe
00000060: 4486 ff3d a030 39be 5342 9b3e da55 633e
00000070: 9441 1f3e 8053 3bbe aeea a23e 415d 403d
00000080: 71bb 84be 8934 82bc c354 06be eff3 39be
00000090: a3bd 223e fb7f 42be 4548 b0be 41bb a33e
000000a0: 4305 29bc 5e02 88be 58b8 213d 938a 15be
000000b0: b83a 27bd af11 c93d f92a 9ebe 2cf7 0abc
000000c0: f46f 58be 3823 debd 7b77 ccbe 76f1 9bbe
000000d0: 54c1 ecbe 5ce2 02bf b313 03be 88c2 663e
000000e0: 5818 903e 2891 e9bc 414c f1be b850 4b3e
000000f0: 244d 8e3e c764 50be ce71 08be 25ff f6ba
00000100: a208 d63c fa4a 80be 4b0e 12be 6fed 743b
00000110: 9126 3f3e 11b3 0fbe dee6 153e f32a 05be
00000120: 5fa5 35bf f850 0bbe 7866 dcbe 7ad9 d53d
00000130: b3e9 64bc 2ede 6dbe cb7a b03c ccaa 19bd
00000140: b84d b1bd 9033 1bbd 68db 223e 614e 103e
00000150: 7cec a93e 87d5 a13d 1b0d a8be 81c9 2fbe
00000160: fb66 6ebc c940 97be 2782 0dbe 1319 1bbe
00000170: 18bc 0fbd 7f16 3fbc cb31 9c3e 34be b5bd
00000180: 52a1 da3d 25c9 4d3e de64 303e 699f 133e
00000190: 24ec 88be 9c00 013e e148 213e 121a 35be
000001a0: bbc8 353e 2262 753d 4fe0 663e 89a7 aabc
000001b0: 5d2f 7cbd 42a1 9cbe bcef a93e 188f 043e
000001c0: c947 6e3e 8013 b5be e9f0 f3be 4d9d e33c
000001d0: a24f 97be bd8e acbc bfb7 fa3e 1c52 8e3e
000001e0: 3728 b43e d85a b8bc 4caf 93bd 4d7a d6bb
000001f0: 27f5 393e 9da3 ef3d 8752 353e 5be5 5abe
00000200: cb94 233e 98d7 e9be 15e1 853c 3c09 773d
00000210: 6e7e 6cbe bf67 a2be 8984 d23e 9354 433d
00000220: 8b98 78be 73e5 973e 9a46 883e d06b 8c3d
00000230: 9cfb c13d eb98 ee3d a837 ef3d fecf b03d
00000240: 62c6 38be fe52 a7bc 8833 5bbe deae 8e3d
00000250: ace2 2a3e 68ac 883e ab18 373e a819 f7bc
00000260: 5e97 a23e b0d6 d2be 6585 e13d 13b4 7c3e
00000270: b5a1 3c3e 3875 693b 7f63 a2be dbd6 adbe
00000280: f87c 0e3e 5c21 8a3d 32be 003e f599 49be
00000290: d5e9 01be 80f9 063e d2dd f7bd cc70 6f3d
000002a0: 441c 90be f269 77be 8fea 233e f0f6 743d
000002b0: addf 05be 48b8 2abd 0d5d ab3e 696c 8d3e
000002c0: 74a8 293e dcd4 7bbe 2105 e1be 473d cf3e
000002d0: ac82 3a3e 6935 0c3e 62e7 033e b312 9cbe
000002e0: 27ae 8b3c 397f 63be 8339 b6bc 0220 f9bd
000002f0: dae1 8c3e c77a b83e f63c 7bbe ff6c ae3d
00000300: 3e99 213e 1e3b 9d3e 85bd 013e c3e9 92bd
00000310: 3d04 02bd 33b0 873e 2da7 ae3c 18b0 ad3d
00000320: 401e 9b3e b6d0 4f3e 8d76 d2bd 0c13 6fbd
00000330: fa68 ab3e a016 6e3e 7b0e 4f3b 2905 fdbd
00000340: ea8b c6bd 5cb0 96be 533e fa3c 35cc c03e
00000350: f75d d1bd 168a 403c f085 c4bd 9cbf 54bd
00000360: d7aa a93c 9ea8 58bd 7e7a 9539 6114 b1be
00000370: d9cb a1be 1ff4 40be c0e7 c33e f44c 19be
00000380: 3dca bf3e 3971 9ebe 371d 043e ff18 9a3e
00000390: 6796 823e 0840 6d3d 9682 23be e31c 563e
000003a0: 0721 b9be b279 013e 35e4 22bd 1cdc f2bd
000003b0: a7ad 683e 3f5b 1bbe 4c22 bebe 4bb7 bb3e
000003c0: fd43 cd3d 8e9b b6bc cfb3 43be f4f9 f5bd
000003d0: 5982 68bd aee2 89bc 1b29 ba3e 766c 04be
000003e0: 74cc ffbd 55e8 db3d 6008 e9bd e352 2f3e
000003f0: f019 8a3e 4128 5cbe 4fec ce3b 0030 443e
-0.35763547 -0.13542582 -0.25328395 -0.0006263567 0.29614618 -0.1866252 -0.023619259 -0.20413226
0.15636715 0.32684174 -0.13761589 0.11371893 -0.31596437 -0.31128314 0.1441068 -0.42342338
0.26998672 0.12573232 0.15493643 -0.018990686 -0.090987235 -9.053014e-05 0.18313879 -0.33253995
0.12476781 -0.18084955 0.3032404 0.22200719 0.1555236 -0.18293571 0.3181967 0.046963934
-0.25924256 -0.015894191 -0.13118272 -0.1815946 0.15892653 -0.18994133 -0.34430137 0.319788
-0.010316196 -0.26564306 0.039482445 -0.14603643 -0.040827483 0.09817826 -0.3089216 -0.008481782
-0.21136457 -0.10846561 -0.39934906 -0.30457658 -0.46241248 -0.51126647 -0.12800483 0.22535145
0.28143573 -0.028511599 -0.4712849 0.1985501 0.2779323 -0.20350944 -0.13324663 -0.001884435
0.026127163 -0.25057203 -0.14263265 0.0037372967 0.18667056 -0.14033152 0.1463885 -0.13004665
-0.7095546 -0.13605106 -0.43046927 0.10441871 -0.013971734 -0.23229286 0.021542927 -0.0375164
-0.08657402 -0.03789097 0.1590401 0.14092399 0.33188236 0.07902055 -0.328225 -0.17166711
-0.01455092 -0.29541615 -0.1381918 -0.15146284 -0.03509149 -0.011663078 0.3050674 -0.08874169
0.10675301 0.20096262 0.17225978 0.14416279 -0.2674266 0.12597889 0.15750457 -0.17685726
0.17752354 0.05990804 0.22546504 -0.02083184 -0.061568607 -0.3059178 0.33190715 0.12945211
0.23269571 -0.3536644 -0.47644737 0.027784968 -0.29552943 -0.021064157 0.48968312 0.2779702
0.35186931 -0.022504255 -0.072111696 -0.006545341 0.18159924 0.11701129 0.17707263 -0.21376555
0.15974729 -0.45672297 0.016342679 0.06031154 -0.23095104 -0.31719777 0.4111674 0.047688078
-0.2427694 0.29667243 0.26616365 0.06856501 0.09471819 0.116502605 0.116805375 0.08633421
-0.18044427 -0.020425316 -0.21406376 0.06966947 0.16688031 0.26694036 0.17880504 -0.030163601
0.3175611 -0.4117942 0.11011771 0.24678068 0.18421061 0.0035622846 -0.31716534 -0.33952984
0.1391486 0.06744644 0.12572554 -0.19687636 -0.12686856 0.13181114 -0.12102856 0.05845718
-0.28146565 -0.24161509 0.16007446 0.05980581 -0.13073607 -0.04167965 0.3346943 0.27621773
0.16568166 -0.24592918 -0.43949226 0.40476438 0.1821391 0.1369225 0.12881234 -0.30483016
0.017050816 -0.222165 -0.02224422 -0.12164308 0.2751606 0.36031172 -0.24534974 0.08516883
0.15781114 0.30709165 0.12669952 -0.07173493 -0.031742323 0.26501617 0.02131995 0.08480853
0.30296516 0.2029446 -0.10276518 -0.058367774 0.33478528 0.23250818 0.0031594324 -0.123545
-0.09694655 -0.29431427 0.030547297 0.37655798 -0.102230005 0.011751672 -0.09595859 -0.051940545
0.020711346 -0.05289518 0.00028510758 -0.3458586 -0.31600836 -0.18843125 0.3826275 -0.14970762
0.37458983 -0.30945757 0.1290177 0.30097196 0.25505373 0.057922393 -0.15967783 0.20909457
-0.3615801 0.1264408 -0.039768416 -0.11858389 0.22722493 -0.15171526 -0.3713554 0.3666328
0.10022733 -0.022290971 -0.1911156 -0.120105654 -0.056764934 -0.016831722 0.36359486 -0.12932
-0.12490168 0.10737673 -0.113785505 0.17121463 0.26972914 -0.2149973 0.0063147913 0.19158936

gnn1_embed.bns.0.weight f4 [32]
00000000: a0c3 823f 0aaa 803f 22de 833f 7e2d 6f3f
00000010: f518 653f 2045 833f 5508 893f 7775 643f
00000020: 4586 913f 4609 823f c62e 9c3f 4198 803f
00000030: 5352 7a3f 5fd0 ab3f f1b1 5f3f 23e4 803f
00000040: d022 693f 9044 8c3f 3528 843f 9f4e 533f
00000050: db81 703f 291b 923f f86b 7b3f ad28 763f
00000060: f8f5 803f dae3 4d3f c581 6b3f d112 793f
00000070: c8d1 833f 7386 7f3f 5b83 703f 0867 8a3f
1.021595 1.0051892 1.0302165 0.9342879 0.89491206 1.025547 1.0705668 0.8924174
1.1369101 1.015908 1.2201774 1.0046464 0.97781867 1.3422965 0.8738089 1.0069622
0.91068745 1.0958424 1.032477 0.8254184 0.93948144 1.1414539 0.9821162 0.96155816
1.0075064 0.804258 0.9199489 0.97294337 1.0298395 0.9981453 0.9395043 1.0812693

gnn1_embed.bns.0.bias f4 [32]
00000000: ab89 71bd 5e2d e7bb a045 f8bd 0b04 44bd
00000010: 4334 bfbd e491 fc3b 4fc9 64bd 932c 3abe
00000020: 4bf2 f03c 7159 1d3e f3bb 7c3c f7ee 41bd
00000030: 139e 70bd 1b22 9abd ffc6 60bd 3df7 c03c
00000040: 7aed 973d 42b3 273d b768 303e 9220 1fbe
00000050: 3587 263b 09aa 3d3e b6f6 eabd 12b4 66bc
00000060: 83b1 473d 15c1 2abe a24d 46bd 78af 3ebd
00000070: 7030 82bd d694 7bbd 3062 aabd ec63 2bbe
-0.05896918 -0.0070549687 -0.12122655 -0.04785542 -0.0933614 0.007707821 -0.055856045 -0.18181066
0.02941241 0.1536615 0.01542567 -0.047347035 -0.0587445 -0.07526036 -0.054877277 0.023555392
0.07418342 0.040942438 0.17227446 -0.15539768 0.002541018 0.18521895 -0.114728376 -0.014081018
0.048753273 -0.16675217 -0.04841388 -0.04655406 -0.06356895 -0.061421238 -0.08319509 -0.16737336
