checkpointscomp/model_hidden_unit_32_diffpool_8_4_2_seed_8.pth (torch, 118985 bytes, 112 tensors)

gnn1_pool.convs.0.bias f4 [32]
-0.22996005 -0.061893493 -0.047434833 0.012641887 -0.0037943786 -0.08593999 0.32915395 -0.20277607
0.21788855 -0.00636768 -0.070073605 0.021936176 0.115810424 0.10042556 -0.03593277 -0.32824382
0.004634944 -0.09183872 -0.22267565 0.06554276 -0.045857005 0.07249341 -0.15287167 -0.14066982
0.0032893845 0.03417366 -0.07223094 -0.09232592 0.05523383 0.21418975 -0.07489964 -0.016975805
00000000: a67a 6bbe 0884 7dbd 074b 42bd eb1f 4f3c
00000010: 1cab 78bb 4e01 b0bd de86 a83e 88a4 4fbe
00000020: 2d1e 5f3e f9a7 d0bb c082 8fbd 7fb3 b33c
00000030: 042e ed3d eaab cd3d 3e2e 13bd 930f a8be
00000040: bae0 973b f015 bcbd 1605 64be 483b 863d
00000050: 8ed4 3bbd 6d77 943d 648a 1cbe c00b 10be
00000060: b792 573b aef9 0b3d d1ed 93bd 5f15 bdbd
00000070: de3c 623d 8f54 5b3e fc64 99bd d810 8bbc

gnn1_pool.convs.0.lin.weight f4 [32, 14]
0.19714306 -0.27257398 -0.035515014 -0.2876515 -0.05388411 -0.06579845 -0.16311057 0.19533537
-0.055136412 0.16387428 -0.07131332 0.07999224 0.06711887 -0.1696208 -0.3062275 0.101573825
0.36358464 0.43499607 -0.16737749 -0.055756442 -0.52052426 -0.05156732 -0.03437513 0.08706273
0.035965122 0.13438153 -0.034377977 -0.09595323 0.09568513 -0.3732592 -0.27697426 0.041493263
-0.45028505 -0.019795066 0.007647239 -0.32930428 0.020159608 0.15167479 0.115970396 -0.34704795
0.2475335 -0.41670656 -0.4495107 -0.035950683 -0.13144004 -0.016157117 0.072083704 0.46545726
0.07309331 0.16216259 -0.068063244 0.14461344 0.050875932 0.207473 0.21225345 -0.04700954
-0.26421174 0.11359908 0.04664437 -0.6268362 -0.26582798 -0.008937154 -0.4227991 0.18066116
-0.39835474 -0.43617347 -0.051342778 0.082344905 -0.27086523 -0.41815197 0.2180176 0.3543232
-0.27120697 -0.39422616 -0.3505258 -0.056141376 0.024898252 0.05277436 -0.4166677 -0.04875141
-0.29348376 0.09006762 -0.14431913 -0.2896179 0.16345231 0.12666202 0.3254725 0.079421364
-0.6085278 0.3694428 -0.33333242 0.15789613 -0.17305061 0.31023365 0.0027074188 0.12524423
0.0037803268 -0.2316991 -0.46223414 -0.092808306 0.35827124 0.19654578 0.17509015 -0.1827901
0.2306908 0.12582056 0.33437234 -0.1028306 -0.19256924 0.06594845 0.22095329 -0.44295582
0.014211845 -0.47939825 0.023888785 -0.24745736 -0.24230146 0.13319011 0.17535262 -0.3487556
-0.18573008 -0.40990403 0.34957656 0.1676539 -0.24500223 0.048313256 -0.38544405 -0.1347793
0.26471373 0.015451184 0.2219143 -0.3536011 -0.13873088 0.3411313 0.13376687 -0.2060358
0.06417217 -0.5254856 0.1159356 0.41262338 -0.26920182 -0.28560734 -0.3157413 -0.35421032
-0.12671958 -0.31160975 0.2157666 -0.18646793 -0.2337908 -0.28652954 -0.10740796 0.0037287357
-0.36406612 -0.03259648 -0.15222886 0.15909567 0.16575003 -0.691571 0.25440574 0.4258147
-0.40162155 0.22364554 -0.023798302 -0.37572393 -0.375464 -0.13278519 -0.008910392 -0.17775108
-0.3765773 0.20066439 0.040346857 0.047090728 -0.30367088 -0.14671616 -0.13302676 0.1884853
0.03591315 -0.113859594 0.42550275 -0.42111352 -0.13140321 -0.17869975 -0.32161686 0.048740476
0.062236477 0.30461183 -0.14301565 -0.40510738 -0.42993405 -0.03139027 0.07756147 0.26519525
-0.15837853 -0.29156876 0.06559467 0.074846566 -0.46315703 -0.046385415 0.17029482 -0.14932118
-0.02497841 0.36261994 0.35223833 -0.43865868 0.26652163 -0.23718719 0.06871859 -0.3571389
0.0114589315 -0.053340983 0.43545875 0.36064 -0.014072905 0.12512608 0.14857918 0.2118382
-0.41650793 0.09223027 0.44052786 -0.11864296 -0.07151083 -0.37880525 -0.3952744 0.14963369
0.28132403 0.35593134 -0.20274708 0.3157364 0.32706705 -0.18751594 -0.08251672 0.24728121
0.33592415 0.004884074 0.51610506 0.23329665 -0.09825917 0.27792084 -0.034536403 -0.055687495
-0.43878362 -0.6022314 -0.06424888 -0.17123634 -0.40844882 -0.14915712 -0.07262723 -0.08417257
0.08266928 -0.23126154 -0.063469596 0.11916958 0.009510797 0.22206336 -0.1386424 -0.46148205
00000000: dfdf 493e d18e 8bbe 3178 11bd 0f47 93be
00000010: 96b5 5cbd 56c1 86bd 7506 27be ff05 483e
00000020: b8d6 61bd a9ce 273e b80c 92bd f9d2 a33d
00000030: 9e75 893d 13b1 2dbe dac9 9cbe f005 d03d
00000040: c427 ba3e ceb7 de3e 0165 2bbe de60 64bd
00000050: 1441 05bf 4138 53bd f0cc 0cbd f24d b23d
00000060: 2a50 133d 509b 093e eccf 0cbd 2183 c4bd
00000070: 91f6 c33d d41b bfbe 92cf 8dbe d7f4 293d
00000080: c38b e6be 4329 a2bc b195 fa3b 929a a8be
00000090: c325 a53c a350 1b3e e381 ed3d 45b0 b1be
000000a0: 6c79 7d3e 905a d5be 4426 e6be 0641 13bd
000000b0: 3898 06be ee5b 84bc 9fa0 933d 6a50 ee3e
000000c0: f2b1 953d f30d 263e be64 8bbd 8c15 143e
000000d0: 4863 503d cd73 543e f858 593e 138d 40bd
000000e0: c346 87be a2a6 e83d 2b0e 3f3d 5678 20bf
000000f0: 9b1a 88be 246d 12bc 2079 d8be 3dff 383e
00000100: 27f5 cbbe 2152 dfbe ce4c 52bd 72a4 a83d
00000110: d9ae 8abe 0418 d6be 0140 5f3e da69 b53e
00000120: a4db 8abe 03d8 c9be 1e78 b3be 80f4 65bd
00000130: 6bf7 cb3c ed29 583d 7855 d5be 8faf 47bd
00000140: 8143 96be 5f75 b83d 65c8 13be cc48 94be
00000150: 0b60 273e b0b3 013e 55a4 a63e aba7 a23d
00000160: 7ac8 1bbf 9b27 bd3e 8caa aabe 86af 213e
00000170: 2e34 31be f2d6 9e3e f36e 313b 0640 003e
00000180: 5cbf 773b 8742 6dbe f4a9 ecbe 4812 bebd
00000190: 546f b73e 4c43 493e d54a 333e 542d 3bbe
000001a0: 363a 6c3e 1bd7 003e da32 ab3e da98 d2bd
000001b0: df30 45be fb0f 873d 9441 623e 1bcb e2be
000001c0: ccd8 683c b073 f5be 6ab2 c33c 7665 7dbe
000001d0: e01d 78be fd62 083e a38f 333e 1890 b2be
000001e0: 0730 3ebe f1de d1be b3fb b23e 77ad 2b3e
000001f0: dde1 7abe 1fe4 453d ec58 c5be 9603 0abe
00000200: 8f88 873e f626 7d3c 813d 633e 340b b5be
00000210: 780f 0ebe c3a8 ae3e 2ffa 083e 0cfb 52be
00000220: b36c 833d 3986 06bf a56f ed3d 5f43 d33e
00000230: d2d4 89be 203b 92be d8a8 a1be 0e5b b5be
00000240: c7c2 01be 508b 9fbe ebf1 5c3e 73f1 3ebe
00000250: db66 6fbe 00b4 92be b4f8 dbbd ce5d 743b
00000260: e066 babe e383 05bd e2e1 1bbe fae9 223e
00000270: 60ba 293e cc0a 31bf 7841 823e 6204 da3e
00000280: 57a1 cdbe 5603 653e a8f4 c2bc e35e c0be
00000290: d13c c0be d7f8 07be e5fc 11bc 6104 36be
000002a0: bdce c0be f77a 4d3e bf42 253d 35e2 403d
000002b0: c07a 9bbe c33c 16be 2b38 08be 4a02 413e
000002c0: ab19 133d 382f e9bd 7fdb d93e 319c d7be
000002d0: 908e 06be 11fd 36be f7aa a4be 18a4 473d
000002e0: adeb 7e3d 15f6 9b3e b272 12be 3c6a cfbe
000002f0: 5120 dcbe 1593 00bd 8cd8 9e3d acc7 873e
00000300: fb2d 22be 8048 95be 8056 863d 2849 993d
00000310: eb22 edbe a2fe 3dbd c461 2e3e a7e7 18be
00000320: 869f ccbc 52a9 b93e 9558 b43e df97 e0be
00000330: 8675 883e 33e1 72be 55bc 8c3d e9da b6be
00000340: 3ebe 3b3c 137c 5abd 73f4 de3e cea5 b83e
00000350: 0b92 66bc 0d21 003e 2425 183e 1dec 583e
00000360: 8740 d5be 39e3 bc3d de8c e13e 15fb f2bd
00000370: 4574 92bd c3f2 c1be 6861 cabe 9339 193e
00000380: b409 903e a23c b63e ee9c 4fbe 34a8 a13e
00000390: 5575 a73e 2e04 40be 87fe a8bd 4937 7d3e
000003a0: 40fe ab3e 950a a03b 761f 043f 51e5 6e3e
000003b0: 1b3c c9bd a44b 8e3e 0b76 0dbd 9218 64bd
000003c0: 3fa8 e0be d62b 1abf eb94 83bd 9458 2fbe
000003d0: 3420 d1be a5bc 18be 96bd 94bd ab62 acbd
000003e0: 834e a93d d3cf 6cbe 59fc 81bd 2e0f f43d
000003f0: 2dd3 1b3c 9464 633e 46f8 0dbe 6047 ecbe

gnn1_pool.convs.1.bias f4 [32]
0.019729497 -0.10188789 0.032923903 -0.09875425 0.1021778 0.011611191 0.14600153 0.024528693
0.12886865 -0.029173903 0.030474737 0.08602424 -0.05286915 -0.023788948 -0.06716408 -0.100886434
-0.015832545 0.11129867 0.002236728 -0.13043664 -0.06702946 -0.027483672 -0.070603795 -0.07901371
0.033343546 -0.0748923 0.10400725 0.1079123 0.0068128873 0.025907414 0.03897094 -0.04587748
00000000: c19f a13c 99aa d0bd 37db 063d ab3f cabd
00000010: 9842 d13d dd3c 3e3c 6d81 153e 66f0 c83c
00000020: 25f6 033e 1cfe eebc 28a6 f93c 7a2d b03d
00000030: 528d 58bd 0ae1 c2bc 528d 89bd 8c9d cebd
00000040: 41b3 81bc 8ff0 e33d 1296 123b 2f91 05be
00000050: be46 89bd 7025 e1bc b998 90bd f1d1 a1bd
00000060: 3e93 083d 2261 99bd c101 d53d 2001 dd3d
00000070: a43e df3b c93b d43c fe9f 1f3d 06ea 3bbd

gnn1_pool.convs.1.lin.weight f4 [32, 32]
0.20213868 0.43817157 -0.3180764 0.08236962 -0.002660036 -0.21003754 -0.09128887 0.03473394
0.10667681 0.21169376 0.26406357 -0.20760874 -0.0044867257 0.46425432 0.24485715 -0.14796492
0.13911527 0.20849742 0.038859405 0.31302437 0.14399222 -0.23896252 0.1158625 -0.35976434
-0.188847 -0.22898154 0.33835477 -0.19909354 0.21356006 0.12183888 0.24148537 0.21771696
0.33591187 -0.24180183 -0.21367972 -0.45264292 0.066572495 -0.001944999 -0.28560993 -0.13429287
-0.26208293 -0.35976604 -0.15000246 0.057626273 -0.17434193 0.12519811 -0.28830776 0.14875512
0.24915695 0.1493998 0.2229318 -0.086542055 -0.01548596 -0.44754332 0.15067357 0.12119762
-0.16338636 0.12689523 -0.2138522 0.14085282 -0.3430376 0.15590778 0.060306914 -0.25458485
-0.15616556 -0.03618725 -0.5220414 0.21553086 0.06812429 0.024370281 -0.020940017 0.05475254
0.0999454 -0.037221223 0.34264764 0.2469627 0.44953427 0.3257226 0.14282134 0.23838654
0.08136643 0.3662475 -0.045580722 -0.046425737 0.11944654 0.22714029 -0.15249917 -0.3990215
0.071001686 0.20297287 -0.19952995 -0.5406911 -0.0066309907 -0.059169404 -0.06108583 -0.015444527
-0.2011172 -0.013606983 -0.29186514 0.36614376 0.36978477 -0.04788417 -0.016435947 -0.04707063
9.938308e-05 0.10636722 0.34385988 0.046438914 -0.057780255 0.20855002 0.29901826 0.08802222
0.051439423 0.36832142 -0.23671892 0.13198115 -0.26556617 -0.112635925 -0.20745836 -0.011220358
0.14937876 0.46324965 0.45824236 -0.37403613 -0.0764392 0.20246504 -0.0036381942 -0.104324006
0.18616715 0.18929408 0.4314327 0.03559976 0.286804 -0.229839 -0.057484012 0.3000586
0.18034151 0.14198625 0.16532883 -0.16167182 -0.29747733 0.20505853 0.43217772 0.33513722
0.27921444 0.003573125 -0.36303553 0.013710237 -0.110052325 -0.2273436 0.6835854 0.055149022
0.3001029 0.07262101 0.22645515 0.09257747 0.078545816 0.1451991 -0.083957985 0.24736348
-0.04309211 -0.63510454 0.19586088 -0.22427109 -0.06257058 0.14941865 -0.14570071 -0.5513875
-0.1953288 0.12171028 -0.2704468 -0.106344216 0.25609452 -0.6962755 -0.060101088 0.18351115
-0.20103693 -0.06379484 0.1811732 -0.062638424 -0.14553653 -0.17813973 0.23277724 -0.2589966
0.34728622 0.13533777 0.29665944 0.02608045 -0.10375917 -0.014114805 -0.32936922 0.13001598
0.094623566 -0.056765545 -0.12293126 -0.075248346 -0.46364132 0.039726056 0.34692976 -0.24819058
-0.39054453 -0.15130244 -0.7549106 -0.13597456 -0.37397376 0.10655376 -0.3423917 -0.29946762
-0.07033054 -0.5595906 0.065784626 -0.4152921 0.07167526 -0.18573304 0.018976932 -0.02511121
-0.05083628 -0.022143759 -0.20825739 0.29831427 0.10600153 0.02981408 0.029863946 -0.4043565
-0.27535483 0.16479445 0.28044078 -0.24937148 -0.26313573 0.0022931867 -0.22276236 0.022062184
0.055352632 -0.24891274 0.08322131 -0.42087168 0.27277884 0.074044876 0.016889635 -0.4801003
-0.3897059 -0.47077334 -0.12421232 -0.18292223 -0.40657288 -0.4210915 0.2561487 -0.38319564
0.09639012 0.056388214 -0.23248096 -0.024918588 0.13867563 0.068733454 -0.23287654 -0.25784692
00000000: 71fd 4e3e 0658 e03e e9da a2be 67b1 a83d
00000010: 0054 2ebb 1514 57be a9f5 babd 2d45 0e3d
00000020: 5f79 da3d 40c6 583e 5733 873e 6397 54be
00000030: 6205 93bb beb2 ed3e d5bb 7a3e 1e84 17be
00000040: 3c74 0e3e 5980 553e 0a2b 1f3d bb44 a03e
00000050: b272 133e 97b2 74be 5249 ed3d 0833 b8be
00000060: 1c61 41be 237a 6abe d63c ad3e 2ddf 4bbe
00000070: 7daf 5a3e aa86 f93d f147 773e 32f1 5e3e
00000080: a4fc ab3e e69a 77be dbce 5abe d0c0 e7be
00000090: 2957 883d 56ef feba 773b 92be 1284 09be
000000a0: bc2f 86be 4133 b8be 3f9a 19be 8709 6c3d
000000b0: b186 32be ef33 003e 139d 93be 4353 183e
000000c0: 0023 7f3e 43fc 183e 3c48 643e f63c b1bd
000000d0: d3b8 7dbc 6624 e5be 2c4a 1a3e 7536 f83d
000000e0: c14e 27be d3f0 013e 12fc 5abe b93b 103e
000000f0: a0a2 afbe 4aa6 1f3e 6204 773d f258 82be
00000100: dde9 1fbe 1539 14bd 81a4 05bf 1fb4 5c3e
00000110: bf84 8b3d 2fa4 c73c 668a abbc 3344 603d
00000120: 2db0 cc3d 4875 18bd 836f af3e cae3 7c3e
00000130: 5b29 e63e 1dc5 a63e c23f 123e 9a1b 743e
00000140: 71a3 a63d cb84 bb3e dab2 3abd ea28 3ebd
00000150: 63a0 f43d 7797 683e be28 1cbe 8c4c ccbe
00000160: 5569 913d 1fd8 4f3e 9451 4cbe bb6a 0abf
00000170: c848 d9bb 9e5b 72bd 2335 7abd 0b0b 7dbc
00000180: abf1 4dbe d3ef 5ebc 596f 95be 3277 bb3e
00000190: 6e54 bd3e 3122 44bd aea4 86bc 22cd 40bd
000001a0: e36b d038 0fd7 d93d 670e b03e bb36 3e3d
000001b0: fdaa 6cbd 238e 553e ec18 993e fe44 b43d
000001c0: 25b2 523d a094 bc3e 7266 72be 1126 073e
000001d0: 4af8 87be aaad e6bd f76f 54be 98d5 37bc
000001e0: bff6 183e 0f2f ed3e be9e ea3e aa81 bfbe
000001f0: 288c 9cbd ff52 4f3e c56e 6ebb d3a7 d5bd
00000200: 9aa2 3e3e 4fd6 413e bfe4 dc3e 0ed1 113d
00000210: f9d7 923e ea5a 6bbe 5b74 6bbd 48a1 993e
00000220: 72ab 383e d864 113e f64b 293e 4c8d 25be
00000230: f34e 98be ddfa 513e 6646 dd3e 1b97 ab3e
00000240: 32f5 8e3e 172b 6a3b cbdf b9be e7a0 603c
00000250: 1d63 e1bd c3cc 68be 74ff 2e3f f1e3 613d
00000260: 16a7 993e 53ba 943d dce3 673e 4299 bd3d
00000270: a1dc a03d 13af 143e 2af2 abbd da4c 7d3e
00000280: 5a81 30bd 3696 22bf c18f 483e 52a7 65be
00000290: 0125 80bd 3401 193e 9132 15be bb27 0dbf
000002a0: 4604 48be 3d43 f93d 0178 8abe ffca d9bd
000002b0: d21e 833e 1c3f 32bf 8f2c 76bd 59ea 3b3e
000002c0: a0dc 4dbe dea6 82bd 7885 393e 9348 80bd
000002d0: 8707 15be 436a 36be 285d 6e3e 349b 84be
000002e0: 80cf b13e fc95 0a3e bfe3 973e aba6 d53c
000002f0: b07f d4bd c841 67bc 15a3 a8be e922 053e
00000300: 00ca c13d fd82 68bd 62c3 fbbd ce1b 9abd
00000310: 6562 edbe cab7 223d c7a0 b13e ac25 7ebe
00000320: 74f5 c7be 07ef 1abe d241 41bf ea3c 0bbe
00000330: 7d79 bfbe dc38 da3d f74d afbe d253 99be
00000340: 7509 90bd 5441 0fbf 17ba 863d 2ba1 d4be
00000350: 7bca 923d cd30 3ebe 8375 9b3c 06b6 cdbc
00000360: b439 50bd d466 b5bc 6d41 55be a6bc 983e
00000370: 5517 d93d a83c f43c 3ca5 f43c d107 cfbe
00000380: 4ffb 8cbe e0bf 283e ef95 8f3e 3d5b 7fbe
00000390: bab9 86be 4a49 163b d11b 64be c1bb b43c
000003a0: 71b9 623d fbe2 7ebe ef6f aa3d 7e7c d7be
000003b0: aba9 8b3e d7a4 973d 225c 8a3c b5cf f5be
000003c0: 8887 c7be 3409 f1be 0763 febd f74f 3bbe
000003d0: 522a d0be 4e99 d7be ec25 833e 3832 c4be
000003e0: 2f68 c53d 54f7 663d 7d0f 6ebe 1122 ccbc
000003f0: fc00 0e3e 20c4 8c3d 3077 6ebe 8304 84be

gnn1_pool.convs.2.bias f4 [8]
0.19564985 -0.03840704 -0.047057435 0.012167517 -0.040194217 0.19873567 0.022913443 -0.10513791
00000000: 6f58 483e b350 1dbd 4cbf 40bd 445a 473c
00000010: b1a2 24bd 5d81 4b3e f9b4 bb3c 8b52 d7bd

gnn1_pool.convs.2.lin.weight f4 [8, 32]
-0.06379299 0.38455194 -0.21659267 0.10495031 0.07242319 -0.14476863 -0.16644388 -0.15636541
-0.13233955 -0.01725553 0.462853 0.2257511 -0.15282036 -0.2627353 -0.29072717 -0.38739258
0.19324015 -0.68099827 0.15238197 -0.14995141 0.013149493 -0.05029439 -0.012788278 -0.5029528
0.3033617 0.12066462 0.016285336 -0.17292896 -0.22209726 -0.17875934 0.23877136 0.036198966
-0.42096865 -0.15528134 -0.6207077 0.16534401 0.062172998 -0.602144 0.17700037 -0.4154544
0.44379613 0.19106503 -0.32858622 -0.030221421 0.32908878 0.29108545 0.13172857 -0.008457542
0.3528126 0.02398821 -0.4749164 0.32180893 -0.17405024 -0.41027823 0.33996633 -0.20617238
0.28238776 0.2312807 -0.1614217 -0.03192568 0.14278539 -0.24096851 0.24267226 -0.21703464
0.5190271 0.17650023 0.23736773 0.036872637 0.06067915 0.33108237 0.042798594 0.32566068
0.16750179 0.22306706 -0.06215279 -0.21788196 -0.3281807 0.4873575 0.31128743 0.065478824
0.7107704 0.19656964 0.17631292 0.28081274 0.008586956 -0.15920532 0.21525396 0.4044979
-0.17503355 0.0009075476 -0.2156479 0.19293962 0.11049376 -0.11442672 0.11006124 0.13672121
0.046349183 0.011752679 0.28110385 0.25799626 -0.14438729 -0.012104343 0.062044352 0.04585441
-0.13334954 0.029146304 0.016048387 -0.10926467 -0.21933182 0.10549357 0.42085883 0.20778494
-0.053623006 0.17404161 1.2597984 0.1519097 -0.3292952 0.12852627 1.4426415 0.25427848
0.03960521 0.24711557 -0.088065565 0.23450501 0.11265077 0.53182656 0.014135061 -0.2686988
-0.3124834 -0.30420813 -0.16787784 -0.18201576 0.09528015 -0.4183676 -0.52706015 -0.3700748
-0.12154522 -0.09489155 0.23169465 0.5126317 0.116414815 -0.035673175 0.22410388 -0.65748256
-0.27985466 -0.36046863 0.15854985 0.05494249 0.07993324 0.044954512 -0.034941826 0.21704683
-0.13513002 -0.28499317 0.19219302 -0.11031199 0.12086409 0.04892253 -0.0271271 -0.3009762
0.33918953 0.14061935 0.2407484 0.450042 -0.25075713 0.4285717 0.31192973 0.3922311
-0.1893322 -0.26956785 -0.1544847 -0.39279053 -0.03537555 0.20518126 -0.16311382 0.447975
-0.16957723 0.30869132 -0.006326709 -0.13950081 0.11745345 0.55528164 0.26994294 0.1396949
-0.27434245 -0.07513657 0.14328256 -0.16938646 -0.26270318 -0.10833887 0.18387377 0.31248388
0.23661837 -0.22412062 -0.068910204 0.37498784 0.26539937 0.34714004 -0.08940636 0.23101427
-0.14904293 0.342189 0.26549137 -0.259007 0.23566233 -0.1778128 0.5957944 0.36604908
0.32148552 0.41552165 0.1665708 -0.20820871 0.021951325 -0.1262405 -0.2021529 0.098898396
-0.31490254 0.22252938 -0.32245338 0.111273505 0.04640268 0.13183281 0.13976406 0.38640574
-0.21174458 -0.24689667 0.0650613 0.097861625 0.32693028 -0.08262732 -0.32197034 -0.08181596
0.124089696 0.647661 -0.35386854 0.08296985 -0.24694948 0.25918227 -0.07899494 0.007773866
0.10969408 -0.037200086 0.05210576 -0.19307026 0.09559189 0.08723337 0.15899408 -0.16577281
-0.49058485 0.12969616 0.10082385 0.63048095 -0.3800672 -0.20370635 -0.39414302 0.09887511
00000000: e6a5 82bd fee3 c43e 78ca 5dbe 30f0 d63d
00000010: 9c52 943d 3a3e 14be 4470 2abe 411e 20be
00000020: 0584 07be 785b 8dbc 12fb ec3e 4c2b 673e
00000030: f17c 1cbe 3e85 86be 31da 94be 5258 c6be
00000040: bfe0 453e e755 2ebf 050a 1c3e dd8c 19be
00000050: f970 573c 7e01 4ebd ed85 51bc 84c1 00bf
00000060: 3a52 9b3e 031f f73d d368 853c 4a14 31be
00000070: 776d 63be b00c 37be 7b80 743e 5e45 143d
00000080: 3489 d7be 1202 1fbe b3e6 1ebf f14f 293e
00000090: 1da9 7e3d 1c26 1abf 963f 353e 70b6 d4be
000000a0: 3f39 e33e 8da6 433e 743c a8be ea92 f7bc
000000b0: 537e a83e 2709 953e dbe3 063e 8191 0abc
000000c0: daa3 b43e ec82 c43c 3e28 f3be 24c4 a43e
000000d0: 3a3a 32be fd0f d2be 1110 ae3e da1e 53be
000000e0: 2195 903e d9d4 6c3e bb4b 25be 80c4 02bd
000000f0: 5536 123e 73c0 76be 147f 783e 543e 5ebe
00000100: f6de 043f 7abc 343e 8710 733e c307 173d
00000110: b38a 783d a183 a93e 944d 2f3d ffbc a63e
00000120: 9785 2b3e b16b 643e ed93 7ebd 731c 5fbe
00000130: 4d07 a8be ec86 f93e 1161 9f3e c319 863d
00000140: 0df5 353f 8d49 493e 608b 343e b0c6 8f3e
00000150: 4eb0 0c3c b806 23be 896b 5c3e 591a cf3e
00000160: ff3b 33be 7de8 6d3a ced2 5cbe f791 453e
00000170: 8d4a e23d 8e58 eabd ca67 e13d a500 0c3e
00000180: a4d8 3d3d 4f8e 403c d8ec 8f3e 1618 843e
00000190: 43da 13be 4b51 46bc 3822 7e3d d5d1 3b3d
000001a0: c88c 08be 3bc4 ee3c e877 833c 28c6 dfbd
000001b0: 8598 60be 030d d83d cf7a d73e 93c5 543e
000001c0: cca3 5bbd f737 323e 1341 a13f 378e 1b3e
000001d0: 6199 a8be 649c 033e 7aa8 b83f ca30 823e
000001e0: 1339 223d dd0b 7d3e b85b b4bd 1522 703e
000001f0: 72b5 e63d c925 083f be96 673c e492 89be
00000200: d3fd 9fbe 2bc1 9bbe 2be8 2bbe 5762 3abe
00000210: 3d22 c33d 4734 d6be 6aed 06bf 727a bdbe
00000220: b3ec f8bd 8056 c2bd 5d41 6d3e d53b 033f
00000230: e46a ee3d 091e 12bd 7d7b 653e c750 28bf
00000240: 1c49 8fbe 588f b8be e45a 223e 600b 613d
00000250: 0ab4 a33d 3922 383d 291f 0fbd 8641 5e3e
00000260: 865f 0abe a0ea 91be 3fce 443e 41eb e1bd
00000270: 9887 f73d fe62 483d a739 debc 8d19 9abe
00000280: 40aa ad3e 85fe 0f3e c086 763e e86b e63e
00000290: 3d63 80be c06d db3e 41b5 9f3e 84d2 c83e
000002a0: 4de0 41be cc04 8abe 3d31 1ebe d71b c9be
000002b0: f4e5 10bd 091b 523e 4f07 27be fb5c e53e
000002c0: a7a5 2dbe ca0c 9e3e 4850 cfbb 4dd9 0ebe
000002d0: 6f8b f03d f026 0e3f f635 8a3e 2e0c 0f3e
000002e0: 9d76 8cbe 34e1 99bd aab8 123e a573 2dbe
000002f0: 0881 86be c5e0 ddbd 6849 3c3e e3fd 9f3e
00000300: 164c 723e e07f 65be cb20 8dbd 68fe bf3e
00000310: 6de2 873e 57bc b13e af1a b7bd 018f 6c3e
00000320: b69e 18be 6633 af3e 7cee 873e 919c 84be
00000330: 7751 713e 8f14 36be fb85 183f c96a bb3e
00000340: c099 a43e 41bf d43e 8991 2a3e aa34 55be
00000350: 44d3 b33c 3145 01be 2b01 4fbe 3e8b ca3d
00000360: e83a a1be bede 633e 9c18 a5be 5de3 e33d
00000370: bd10 3e3d 2eff 063e 4f1e 0f3e f9d6 c53e
00000380: 92d3 58be 7bd2 7cbe dc3e 853d ad6b c83d
00000390: 6863 a73e 8338 a9bd 4cd9 a4be 208f a7bd
000003a0: bd22 fe3d 1ccd 253f 422e b5be 19ec a93d
000003b0: 53e0 7cbe 8ab3 843e 19c8 a1bd eabb fe3b
000003c0: 4aa7 e03d 1e5f 18bd d96c 553d 36b4 45be
000003d0: aec5 c33d 69a7 b23d 58cf 223e 59c0 29be
000003e0: f02d fbbe 12cf 043e bc7c ce3d 3367 213f
000003f0: 2b98 c2be 6698 50be 1dcd c9be 097f ca3d

gnn1_pool.bns.0.weight f4 [32]
0.9619895 1.2471026 0.932957 0.97141856 0.8773974 1.0240902 0.91905934 0.76238024
0.87896967 0.92532027 1.3507074 0.9714703 1.0466318 1.0578197 1.0590653 0.883068
0.99062306 1.2636268 0.8813414 0.8925725 0.95437896 1.1028287 0.912688 1.0269578
0.95795494 0.91807157 1.0971596 1.0821794 0.8580507 0.83058935 0.9103895 0.9230048
00000000: f244 763f 0fa1 9f3f 45d6 6e3f e3ae 783f
00000010: 1e9d 603f 6315 833f 7947 6b3f 5a2b 433f
00000020: 2804 613f cae1 6c3f fbe3 ac3f 47b2 783f
00000030: 08f8 853f a366 873f 748f 873f bf10 623f
00000040: 7999 7d3f 86be a13f 979f 613f a27f 643f
00000050: 2e52 743f 7e29 8d3f eca5 693f 5a73 833f
00000060: 893c 753f bd06 6b3f ba6f 8c3f db84 8a3f
00000070: 36a9 5b3f 81a1 543f 490f 693f 0b4a 6c3f

gnn1_pool.bns.0.bias f4 [32]
0.15396248 0.42903465 -0.0746681 -0.17082152 0.19909367 -0.16233091 0.12650515 0.49074265
0.25535446 -0.31218037 0.41236037 0.09688346 -0.07921544 0.6084247 0.14172266 0.04941123
0.31314933 0.45676398 0.03296733 -0.07644213 -0.18418129 0.10184378 0.25327224 0.32707718
-0.3263648 0.028740395 -0.11750498 -0.04120394 0.0061972463 0.21354513 0.31095186 -0.17139482
00000000: 57a8 1d3e 6eaa db3e 97eb 98bd d6eb 2ebe
00000010: 36df 4b3e 133a 26be 918a 013e 9f42 fb3e
00000020: d2bd 823e 1bd6 9fbe e620 d33e d66a c63d
00000030: b43b a2bd b9c1 1b3f bf1f 113e 6e63 4a3d
00000040: 1c55 a03e f8dc e93e c008 073d b18d 9cbd
00000050: 059a 3cbe 7993 d03d e6ac 813e a976 a73e
00000060: 4919 a7be fa70 eb3c 73a6 f0bd 76c5 28bd
00000070: 4512 cb3b 93ab 5a3e 1535 9f3e 2082 2fbe

gnn1_pool.bns.0.running_mean f4 [32]
-0.24358547 -0.055058733 -0.04385452 -0.099377625 -0.18538995 -0.10257069 0.37660074 -0.27410078
0.15439235 -0.094905436 -0.21669766 -0.12884796 0.034312744 0.078043364 -0.17658788 -0.1829558
0.15150532 -0.21690442 -0.28995657 -0.113972545 -0.020690428 0.09093174 -0.015252724 -0.031594303
0.054177973 -0.051252868 -0.17665172 -0.026816301 0.15586309 0.13292654 -0.1911674 -0.17734519
00000000: 786e 79be 4485 61bd cca0 33bd 7f86 cbbd
00000010: ddd6 3dbe 9510 d2bd d0d1 c03e f056 8cbe
00000020: 0719 1e3e c85d c2bd fee5 5dbe b8f0 03be
00000030: 858b 0c3d 33d5 9f3d 74d3 34be c458 3bbe
00000040: 3624 1b3e 311c 5ebe 3075 94be 706a e9bd
00000050: f97e a9bc 6c3a ba3d 90e6 79bc 0769 01bd
00000060: b9e9 5d3d 87ee 51bd 30e4 34be dcad dbbc
00000070: 939a 1f3e e51d 083e 63c1 43be fa99 35be

gnn1_pool.bns.0.running_var f4 [32]
0.0061952076 0.013270743 0.0054670186 0.01800177 0.03987501 0.01208249 0.006058294 0.016452268
0.00779386 0.013211688 0.020655144 0.037770692 0.012764543 0.009957056 0.023830924 0.023308007
0.021374805 0.023491299 0.014610305 0.033983443 0.0048133107 0.0051557594 0.023460282 0.013014614
0.0077529713 0.01055564 0.013095816 0.011259393 0.013292317 0.01028141 0.019076373 0.033138663
00000000: 2b01 cb3b 886d 593c ad24 b33b 7378 933c
00000010: fa53 233d a3f5 453c a784 c63b e8c6 863c
00000020: a363 ff3b d675 583c fa34 a93c 71b5 1a3d
00000030: 6022 513c eb22 233c 1239 c33c 6ff0 be3c
00000040: 371a af3c d370 c03c 1060 6f3c 3932 0b3d
00000050: fab8 9d3b a5f1 a83b c72f c03c 3f3b 553c
00000060: a30c fe3b 90f1 2c3c d58f 563c 5179 383c
00000070: 05c8 593c 5c73 283c 0e46 9c3c 68bc 073d

gnn1_pool.bns.1.weight f4 [32]
1.1144845 1.1193678 1.0289409 0.8826746 0.7774656 1.2381058 1.0231003 1.0482204
0.85321784 1.0384789 1.0330232 1.0223534 0.85159576 0.8698635 0.8867795 1.2172842
0.8445433 1.3658023 0.9817232 0.85242546 0.7730139 1.0040059 0.92295957 1.0161465
0.8882515 0.8291438 0.8101959 0.9668484 0.8003217 0.7898441 0.8844697 0.92092204
00000000: 6ea7 8e3f 7247 8f3f 56b4 833f f6f6 613f
00000010: fc07 473f 407a 9e3f f3f4 823f 162c 863f
00000020: 7c6c 5a3f e0ec 843f 1b3a 843f 7adc 823f
00000030: 2e02 5a3f 60af 5e3f fb03 633f f8cf 9b3f
00000040: fd33 583f 9cd2 ae3f 3652 7b3f 8e38 5a3f
00000050: 3de4 453f 4483 803f 1447 6c3f 1711 823f
00000060: 7364 633f c542 543f 0069 4f3f 6083 773f
00000070: e2e1 4c3f 3933 4a3f 9b6c 623f 8cc1 6b3f

gnn1_pool.bns.1.bias f4 [32]
0.5199173 -0.19070677 0.4544356 -0.046016388 -0.39592305 0.061215732 0.10904207 0.7258229
-0.45168647 -0.58937985 0.010248553 -0.25451246 -0.36658633 -0.15230554 -0.118204564 -0.37497097
-0.34563538 -0.07526095 0.23939632 -0.13317613 0.06805802 0.6634544 -0.23779975 0.03752964
-0.2751203 -0.3006083 -0.057259835 -0.20768064 -0.4003648 0.2008288 -0.17599717 0.58181924
00000000: 4d19 053f a348 43be c8ab e83e ae7b 3cbd
00000010: 6db6 cabe 59bd 7a3d 7351 df3d 88cf 393f
00000020: 7343 e7be 99e1 16bf 8ce9 273c 754f 82be
00000030: 34b1 bbbe fcf5 1bbe 3c15 f2bd 32fc bfbe
00000040: 1ff7 b0be 6a22 9abd 4f24 753e 535f 08be
00000050: 0162 8b3d 26d8 293f c781 73be aeb8 193d
00000060: 91dc 8cbe 55e9 99be 4a89 6abd 3caa 54be
00000070: 9dfc ccbe 11a6 4d3e 9a38 34be 1bf2 143f

gnn1_pool.bns.1.running_mean f4 [32]
1.3763853 -0.642848 0.8287423 1.0509076 2.0027452 -1.8250057 -2.166986 -1.7278407
-0.9491044 0.10103454 0.4251797 2.031512 0.7986459 0.20989627 0.16777502 -2.4192584
1.2226735 -2.0512872 0.4543015 -0.22258702 -0.168264 -1.6124678 -0.2539507 0.37451267
-0.07968667 0.9443959 0.13915007 0.010329224 -1.16236 -0.36970344 -1.5536891 0.25653386
00000000: 652d b03f b091 24bf 7528 543f 2484 863f
00000010: fa2c 0040 c999 e9bf e6af 0ac0 e229 ddbf
00000020: 82f8 72bf 32eb ce3d 27b1 d93e 4b04 0240
00000030: 0f74 4c3f 0cef 563e 37cd 2b3e 21d5 1ac0
00000040: 9180 9c3f 4a48 03c0 359a e83e daed 63be
00000050: 664d 2cbe 5865 cebf d305 82be 20c0 bf3e
00000060: c432 a3bd eec3 713f 5b7d 0e3e e83b 293c
00000070: 36c8 94bf c549 bdbe 49df c6bf 6858 833e

gnn1_pool.bns.1.running_var f4 [32]
1.938987 0.3373593 1.9600087 3.3268604 0.4563934 0.7756119 4.8210053 0.70591444
0.7572974 1.246291 0.75933105 0.59830844 0.5090311 2.4231372 1.1710474 1.2592028
3.0912282 0.3592763 2.5442443 1.0366648 0.5747961 4.9907885 1.4454039 0.52149
0.8887796 0.85811186 1.1680741 2.1439154 1.4369965 1.7964748 3.6470125 1.930082
00000000: ba30 f83f 5cba ac3e 91e1 fa3f 48eb 5440
00000010: 65ac e93e 808e 463f ad45 9a40 cfb6 343f
00000020: 3ede 413f 7786 9f3f 8563 423f be2a 193f
00000030: dd4f 023f ae14 1b40 e2e4 953f 8f2d a13f
00000040: afd6 4540 10f3 b73e e6d4 2240 6fb1 843f
00000050: d625 133f 8ab4 9f40 ff02 b93f 5e80 053f
00000060: 0f87 633f 38ad 5b3f 7483 953f e935 0940
00000070: 80ef b73f e3f2 e53f a768 6940 ed0c f73f

gnn1_pool.bns.2.weight f4 [8]
3.3567367 4.36365 1.2195495 8.692215 3.6086323 5.4867096 1.3324642 2.6536174
00000000: c6d4 5640 05a3 8b40 331a 9c3f 5013 0b41
00000010: d5f3 6640 2093 af40 308e aa3f ded4 2940

gnn1_pool.bns.2.bias f4 [8]
0.28722724 0.5174154 -0.6001965 5.893821 0.13488525 3.5833774 -0.4814727 -0.57487255
00000000: 730f 933e 5675 043f 7aa6 19bf 2e9a bc40
00000010: 5c1f 0a3e 0e56 6540 9783 f6be d92a 13bf

gnn1_pool.bns.2.running_mean f4 [8]
-0.6032852 -1.8704642 1.7853799 2.0755508 -1.4988332 2.219852 1.5279276 -0.45357043
00000000: e670 1abf 5f6b efbf 5487 e43f d3d5 0440
00000010: c4d9 bfbf 0e12 0e40 2293 c33f 623a e8be

gnn1_pool.bns.2.running_var f4 [8]
0.31578544 0.20140305 1.178162 3.4220304 0.34289664 0.24309997 0.7141827 1.3648946
00000000: a1ae a13e 9a3c 4e3e 03ce 963f 8c02 5b40
00000010: 2690 af3e 33ef 783e add4 363f deb4 ae3f

gnn1_embed.convs.0.bias f4 [32]
0.17132886 -0.21953624 0.3318671 -0.07366132 -0.1475854 0.3055624 -0.058316343 -0.08506004
0.047413606 -0.018465716 -0.02718082 -0.01418605 0.08750429 -0.22181611 -0.08667019 0.057322767
-0.09071651 -0.09096859 -0.0080699995 0.048896305 -0.19637886 -0.02982451 -0.041834064 0.038660772
-0.24177052 -0.13424332 -0.07025932 0.09683644 0.080979414 -0.086720616 0.19883041 -0.10740286
00000000: d570 2f3e 1cce 60be 7cea a93e bfdb 96bd
00000010: a120 17be ad72 9c3e 1edd 6ebd f533 aebd
00000020: c534 423d 6a45 97bc 50aa debc 9b6c 68bc
00000030: 7335 b33d c323 63be 2480 b1bd 47cb 6a3d
00000040: 94c9 b9bd bd4d babd 0838 04bc 7e47 483d
00000050: 8a17 49be 8852 f4bc 325a 2bbd c25a 1e3d
00000060: b192 77be 1577 09be 1ee4 8fbd 2f52 c63d
00000070: 89d8 a53d 949a b1bd 339a 4b3e 08f6 dbbd

gnn1_embed.convs.0.lin.weight f4 [32, 14]
0.2925512 -0.1856311 0.3507273 -0.18528005 -0.37396178 -0.19884232 0.32754812 0.021241676
-0.4278999 0.33952063 0.033397455 0.0006521347 -0.16918899 0.0017924117 -0.16311625 0.14794889
0.18101497 -0.20005801 0.233682 -0.44076565 0.28490257 -0.32195634 0.054093253 -0.6230065
-0.419098 -0.15492728 -0.059434567 -0.045757998 -0.14745446 0.22848858 0.3369771 0.13396943
-0.4705169 -0.4350138 -0.08433198 0.12342253 0.112432085 0.3316513 -0.272864 0.013130997
-0.35738286 -0.027770463 -0.31249365 -0.10160344 0.16913503 0.06408267 0.15707667 0.23391898
0.08961973 -0.2212742 0.29873043 -0.117129214 -0.44536024 0.45765102 0.11418531 0.11564951
0.2268285 0.013963079 -0.13771836 0.08115992 -0.46130985 -0.41891348 -0.17709084 0.1404769
0.29439664 0.13406019 0.41776544 0.16953695 -0.0613585 -0.43903553 0.18082242 -0.23454265
-0.46643972 -0.27460116 -0.051214136 -0.13246241 -0.41244483 0.13205095 -0.047675785 -0.2219754
-0.16330576 0.06964003 0.06643755 -0.058054376 0.26062128 0.25859523 -0.48599964 -0.23849447
-0.021064041 -0.13463774 0.0016254887 0.036799043 0.13416183 0.69966424 -0.12669711 0.017434387
0.08942943 0.08831325 0.12890124 0.0007143891 -0.34941328 -0.04144196 0.16426414 -0.20553696
-0.016856393 -0.34916097 -0.47616798 -0.5010953 -0.31780708 -0.22292212 0.0005660968 0.026580602
0.06373677 -0.49126074 0.28707632 0.2049395 0.11646195 0.37562925 -0.64626837 0.14659664
-0.10354496 0.1287014 0.26516992 -0.40117118 -0.082703665 -0.07962821 -0.4043685 0.05244621
-0.39072305 -0.13305062 0.18720485 -0.05512285 0.09813559 -0.39800733 -0.2972727 -0.4900169
-0.1568473 -0.1573655 -0.2055512 -0.17382689 -0.24593233 0.16678354 -0.42842752 -0.08184352
-0.28076857 0.294596 0.21008529 -0.11849799 0.34304374 -0.13028768 0.16795643 -0.3357362
0.2137689 -0.54610276 -0.15667331 -0.78447014 0.14581011 -0.1328882 0.20419215 0.22655599
-0.34010112 0.21061431 0.34408277 0.18976548 -0.11223871 -0.1027024 -0.12118972 -0.09533501
0.01780507 -0.38985205 -0.0028989406 -0.27558744 0.15295641 0.030542742 0.33577803 -0.4500397
-0.548588 -0.25865245 0.20691864 0.075257584 0.11493167 0.18980607 -0.24531132 0.43673235
-0.09980818 -0.2344235 0.11385931 -0.05980264 0.3926347 -0.27079496 -0.27315632 -0.40810794
-0.114324175 -0.087635405 0.025171153 -0.12284778 -0.08476766 -0.22240797 0.06116792 0.14050007
0.23545784 0.1718394 0.41948527 0.19189198 -0.24123828 0.79716414 0.19339542 -0.0016270423
0.22791296 -0.15187316 -0.35991716 -0.1980008 0.35751334 0.27064824 0.25877237 0.31279618
-0.07978715 -0.3179555 -0.22119543 -0.24117844 0.15005235 0.33517066 -0.09021276 0.3820325
-0.18174928 0.277289 -0.21823625 0.05088252 -0.3416758 0.1273283 0.24879463 0.40767354
0.24562517 0.4715506 0.019029234 -0.047759872 -0.2703428 0.35932416 -0.16103943 -0.291488
0.26459175 0.24223197 -0.43749365 -0.28992406 -0.015593169 0.19587427 0.06953908 0.15880865
-0.11289565 0.09638959 -0.36861992 -0.15418842 -0.20603362 0.2768346 0.35730132 -0.3145395
00000000: 45c9 953e 1416 3ebe 8792 b33e 0eba 3dbe
00000010: eb77 bfbe 529d 4bbe 63b4 a73e 0603 ae3c
00000020: b215 dbbe a6d5 ad3e c5cb 083d 05f4 2a3a
00000030: e13f 2dbe 5bef ea3a f207 27be ea7f 173e
00000040: fd5b 393e 02dc 4cbe 564a 6f3e 09ac e1be
00000050: c0de 913e 76d7 a4be e390 5d3d 5b7d 1fbf
00000060: 0394 d6be 42a5 1ebe a971 73bd bd6c 3bbd
00000070: 4dfe 16be e9f8 693e 4388 ac3e 482f 093e
00000080: 97e7 f0be 21ba debe 3fb6 acbd f4c4 fc3d
00000090: cb42 e63d 33ce a93e d5b4 8bbe 6523 573c
000000a0: e3fa b6be e27e e3bc 2bff 9fbe 7715 d0bd
000000b0: bc31 2d3e c63d 833d b5d8 203e 7588 6f3e
000000c0: 8d8a b73d b495 62be 32f3 983e 71e1 efbd
000000d0: 4206 e4be 3c51 ea3e fdd9 e93d a6d9 ec3d
000000e0: bb45 683e 66c5 643c 0b06 0dbe 2c37 a63d
000000f0: ce30 ecbe d47b d6be 4d57 35be 2dd9 0f3e
00000100: 28bb 963e 1347 093e 5ae5 d53e 189b 2d3e
00000110: 0d53 7bbd 44c9 e0be 8329 393e f32b 70be
00000120: 30d1 eebe 8698 8cbe eac5 51bd 3aa4 07be
00000130: f82b d3be 5d38 073e af47 43bd 854d 63be
00000140: a039 27be 6f9f 8e3d 6910 883d 6dca 6dbd
00000150: 2770 853e 9866 843e f2d4 f8be e537 74be
00000160: 7f8e acbc 7ade 09be 5a0e d53a 98ba 163d
00000170: b861 093e 321d 333f e3bc 01be 8fd2 8e3c
00000180: c726 b73d 94dd b43d b0fe 033e d745 3b3a
00000190: 4ce6 b2be 0bbf 29bd dc34 283e 4878 52be
000001a0: 6b16 8abc 3ac5 b2be 4acc f3be c847 00bf
000001b0: 9cb7 a2be b245 64be 1d66 143a 90bf d93c
000001c0: 6c88 823d 8786 fbbe abfb 923e a9db 513e
000001d0: 9a83 ee3d 7a52 c03e d871 25bf 6e1d 163e
000001e0: 610f d4bd 4dca 033e 5ac4 873e 4f66 cdbe
000001f0: 8a60 a9bd 1d14 a3bd 6309 cfbe d6d1 563d
00000200: da0c c8be 6c3e 08be a1b2 3f3e 7fc8 61bd
00000210: 50fb c83d 9ec7 cbbe 2134 98be 7fe3 fabe
00000220: 949c 20be 6c24 21be 047c 52be adff 31be
00000230: afd5 7bbe 4ec9 2a3e da5a dbbe 939d a7bd
00000240: e6c0 8fbe 49d5 963e 9920 573e 13af f2bd
00000250: 6ea3 af3e 226a 05be c5fc 2b3e 9de5 abbe
00000260: 3ce6 5a3e 64cd 0bbf f86e 20be 09d3 48bf
00000270: 3f4f 153e d813 08be bf17 513e 4bfe 673e
00000280: bc21 aebe 47ab 573e 9e2b b03e e251 423e
00000290: 69dd e5bd a355 d2bd 5132 f8bd 003f c3bd
000002a0: f0db 913c b09a c7be 27fc 3dbb cc19 8dbe
000002b0: 9ba0 1c3e c634 fa3c 19eb ab3e 9b6b e6be
000002c0: 4370 0cbf 186e 84be 7be2 533e a620 9a3d
000002d0: 4c61 eb3d 865c 423e e432 7bbe 629b df3e
000002e0: 3b68 ccbd b70c 70be 122f e93d 9df3 74bd
000002f0: 6a07 c93e a3a5 8abe 25db 8bbe 86f3 d0be
00000300: cb22 eabd 317a b3bd bc33 ce3c 9e97 fbbd
00000310: ab9a adbd eabe 63be 368b 7a3d 40df 0f3e
00000320: dc1b 713e abf6 2f3e c6c6 d63e 557f 443e
00000330: 2b07 77be f312 4c3f 7309 463e 7b42 d5ba
00000340: 0462 693e a384 1bbe 1047 b8be b9c0 4abe
00000350: fd0b b73e 6892 8a3e d07d 843e d226 a03e
00000360: 7267 a3bd 10cb a2be 0e81 62be 7bf7 76be
00000370: 53a7 193e 7d9b ab3e 78c1 b8bd c499 c33e
00000380: 7c1c 3abe d3f8 8d3e 5379 5fbe 306a 503d
00000390: 21f0 aebe 5a62 023e 05c4 7e3e 96ba d03e
000003a0: 2a85 7b3e 156f f13e 32e3 9b3c db9f 43bd
000003b0: 5f6a 8abe 56f9 b73e 85e7 24be ea3d 95be
000003c0: 9278 873e a80b 783e 2bff dfbe ed70 94be
000003d0: 7e7a 7fbc 4493 483e 816a 8e3d bc9e 223e
000003e0: d635 e7bd e867 c53d c0bb bcbe 92e3 1dbe
000003f0: 7afa 52be 44bd 8d3e 33f0 b63e 520b a1be

gnn1_embed.convs.1.bias f4 [32]
-0.07683902 -0.005579854 -0.053093575 -0.19498299 0.04358694 0.0874685 -0.0022875636 -0.054493777
0.12646517 0.11496666 -0.0058459686 -0.07482976 0.07300618 0.013398052 0.06901237 0.1349657
0.052881118 -0.02412628 -0.037564155 0.111085325 0.1537385 0.024816688 -0.029508507 0.08679087
0.047570966 -0.08713038 0.102042526 -0.029063493 -0.048709035 0.003684408 0.09272029 -0.16345991
00000000: c75d 9dbd 35d7 b6bb a678 59bd 9fa9 47be
00000010: 3888 323d af22 b33d f3ea 15bb de34 5fbd
00000020: 1680 013e a473 eb3d 8a8f bfbb 5840 99bd
00000030: 4484 953d 8183 5b3c 5c56 8d3d 7334 0a3e
00000040: df99 583d 7aa4 c5bc dfdc 19bd b480 e33d
00000050: a06d 1d3e 5e4c cb3c d3bb f1bc 69bf b13d
00000060: c6d9 423d 6a71 b2bd acfb d03d 9016 eebc
00000070: 2083 47bd 1c76 713b 23e4 bd3d 0962 27be

gnn1_embed.convs.1.lin.weight f4 [32, 32]
-0.06041088 -0.056443717 -0.39680925 0.106978245 -0.14524966 0.29124755 0.076929376 0.141672
0.417065 -0.121405505 -0.011457906 -0.112358324 -0.48475388 0.10215967 -0.09458086 -0.23018748
-0.30931732 0.23459706 -0.234255 0.037051745 -0.27896085 -0.14432743 -0.0680666 0.058475405
-0.36378133 0.32860544 -0.025873603 0.2824837 -0.3514175 0.2146287 0.37889504 -0.22279003
-0.044656094 -0.01625048 -0.16241942 -0.08573344 -0.1364451 0.21431288 0.27701977 -0.06976895
-0.012528699 0.055296056 0.18418424 -0.13744219 -0.15855843 -0.3550532 -0.47396138 -0.21361038
0.1339738 -0.17347153 -0.028060941 -0.58384514 -0.058240566 0.059880685 -0.04386612 -0.3909328
0.30301052 -0.21223289 0.07130898 -0.118098125 0.14803436 0.09595297 -0.52018005 0.32766977
-0.09130793 -0.25773567 -0.053804368 0.38590574 -0.2394005 0.25450638 -0.11617539 -0.20174633
-0.04862407 -0.32726648 -0.25033638 0.33845675 0.27143678 -0.011264911 0.19255567 0.34888804
-0.06950318 -0.25989428 -0.016792199 -0.20419037 0.4436415 0.052876778 -0.01648948 0.191445
0.33932784 0.20091233 0.043699235 0.04437622 0.12138383 -0.2372393 -0.29378623 0.14667115
0.34886628 0.03806602 -0.13307469 -0.14527796 0.045755923 -0.14376648 -0.10297274 0.16222878
-0.04956038 0.30192488 0.17768463 0.02381327 -0.07644971 -0.33909172 -0.06739602 -0.18494989
-0.46035454 -0.093294516 -0.07368821 0.25678635 -0.15625823 0.15757573 -0.3324805 0.044423442
-0.35185018 -0.5222354 -0.021724628 -0.038551368 -0.3725074 0.07491012 -0.06194214 -0.1003008
0.02136912 0.10899726 -0.18146545 0.15767476 0.19103698 -0.28001484 0.087979086 0.13767247
-0.23824884 -0.0028248583 -0.24118066 -0.023594271 0.23959002 -0.2556867 0.058396045 0.30920666
-0.38679314 -0.24115573 0.018907467 0.34729537 0.1256437 -0.28097612 0.20093757 -0.20970988
-0.31543252 0.16372377 -0.4183586 -0.2140704 0.29903302 0.26130083 -0.4218147 -0.408573
-0.05929512 0.30757147 0.17235246 0.06877919 0.0022654044 0.13783826 -0.09313167 0.28971535
0.16921125 0.24035592 0.31785774 0.037313618 0.57103467 -0.24439712 -0.24491177 0.32618263
0.1519601 -0.41445652 -0.16987947 0.05634756 0.11413467 0.28466165 -0.19656323 -0.17671245
0.22279707 0.11854493 0.20498635 0.29081735 -0.21403857 -0.11129581 0.07755128 0.36594337
-0.050466284 0.09620088 -0.12112656 0.077437624 -0.023227172 0.34398773 -0.1868179 -0.2333394
-0.11477426 0.5599989 0.0874742 -0.11352214 0.29302624 0.4407914 -0.035989724 -0.07195026
-0.19112222 -0.23974039 0.063815646 0.60393935 0.24189606 -0.29322538 0.087526046 0.2701672
0.06447578 -0.054115668 -0.18160108 0.21306531 -0.0530399 -0.004149695 0.20786335 -0.032120842
0.12647863 -0.16065267 0.06747018 0.30590707 0.30455264 -0.20178154 -0.11728932 -0.09884191
0.10696162 0.0041021304 0.37946576 -0.14660871 0.0018232997 -0.36663112 0.04736051 -8.788996e-05
0.20430876 -0.40657175 -0.29126427 0.014023356 0.3065662 0.23654976 -0.47943717 0.12603378
-0.18618974 0.26308498 0.18381952 0.26271978 -0.117548384 0.17330681 -0.06342546 0.1654081
00000000: 6671 77bd 8731 67bd 952a cbbe 6917 db3d
00000010: 54bc 14be 661e 953e 268d 9d3d 7712 113e
00000020: 8b89 d53e 73a3 f8bd f1b9 3bbc 1f1c e6bd
00000030: a931 f8be 1739 d13d 9cb3 c1bd 44b6 6bbe
00000040: d75e 9ebe 363a 703e 8be0 6fbe 92c3 173d
00000050: f5d3 8ebe 92ca 13be 8066 8bbd e883 6f3d
00000060: 8c41 babe f93e a83e e1f4 d3bc b4a1 903e
00000070: ffec b3be a0c7 5b3e 88fe c13e 1223 64be
00000080: 4fe9 36bd ba1f 85bc 4751 26be 0495 afbd
00000090: 44b8 0bbe d674 5b3e 89d5 8d3e 06e3 8ebd
000000a0: 2c45 4dbc 1e7e 623d cb9a 3c3e a5bd 0cbe
000000b0: 245d 22be 88c9 b5be 11ab f2be aebc 5abe
000000c0: 6e30 093e 85a2 31be 0fe0 e5bc e076 15bf
000000d0: a98d 6ebd 7345 753d f6ac 33bd 5828 c8be
000000e0: 3224 9b3e 9453 59be 710a 923d 6edd f1bd
000000f0: 5296 173e fe82 c43d 852a 05bf 55c4 a73e
00000100: a7ff babd eef5 83be f861 5cbd 7095 c53e
00000110: 6825 75be a94e 823e 5ded edbd 9796 4ebe
00000120: 082a 47bd 798f a7be 172c 80be 344a ad3e
00000130: c3f9 8a3e 7690 38bc 502d 453e 74a1 b23e
00000140: af57 8ebd dd10 85be cb8f 89bc 4817 51be
00000150: fb24 e33e 5295 583d f214 87bc 280a 443e
00000160: 61bc ad3e f6bb 4d3e f8fd 323d d7c3 353d
00000170: 1698 f83d dcee 72be 266b 96be f630 163e
00000180: 9a9e b23e 1deb 1b3d bb44 08be bfc3 14be
00000190: 906a 3b3d 8537 13be 5fe3 d2bd 4d1f 263e
000001a0: d3ff 4abd e695 9a3e f6f2 353e 0c14 c33c
000001b0: aa91 9cbd 6e9d adbe ed06 8abd 8163 3dbe
000001c0: 97b3 ebbe 3211 bfbd d8e9 96bd 8079 833e
000001d0: 2802 20be 885b 213e e23a aabe 5bf5 353d
000001e0: b525 b4be 38b1 05bf d9f7 b1bc 0ae8 1dbd
000001f0: 4ab9 bebe 7a6a 993d 0bb7 7dbd 816a cdbd
00000200: 4b0e af3c f539 df3d 14d2 39be 7e75 213e
00000210: 339f 433e 1b5e 8fbe 612e b43d 03fa 0c3e
00000220: 81f7 73be 4221 39bb 10f8 76be c648 c1bc
00000230: 1657 753e 5ee9 82be b130 6f3d 5650 9e3e
00000240: c009 c6be 87f1 76be d5e3 9a3c b3d0 b13e
00000250: bea8 003e 1adc 8fbe 94c2 4d3e 30be 56be
00000260: 5f80 a1be 34a7 273e 1933 d6be 4535 5bbe
00000270: db1a 993e 39c9 853e 19f8 d7be 7b30 d1be
00000280: 71df 72bd 027a 9d3e 2a7d 303e 1bdc 8c3d
00000290: 2e77 143b 7925 0d3e d1bb bebd 9255 943e
000002a0: b745 2d3e dd1f 763e 40be a23e 2ad6 183d
000002b0: 542f 123f 3d43 7abe 27ca 7abe 6901 a73e
000002c0: 6e9b 1b3e a533 d4be e2f4 2dbe b3cc 663d
000002d0: 70bf e93d 2cbf 913e df47 49be 1cf4 34be
000002e0: ea24 643e afc7 f23d f1e7 513e 03e6 943e
000002f0: ed2c 5bbe 0fef e3bd 35d3 9e3d ee5c bb3e
00000300: bcb5 4ebd f804 c53d 3411 f8bd 9e97 9e3d
00000310: e946 bebc 291f b03e 314d 3fbe 86f0 6ebe
00000320: c40e ebbd 175c 0f3f ac25 b33d 4c7e e8bd
00000330: 8907 963e 69af e13e f669 13bd a85a 93bd
00000340: 8bb5 43be 817e 75be c7b1 823d c59b 1a3f
00000350: 9ab3 773e a321 96be db40 b33d 5b53 8a3e
00000360: e10b 843d 64a8 5dbd a2f5 39be cb2d 5a3e
00000370: 5e40 59bd 2afa 87bb 21da 543e 2591 03bd
00000380: 9d83 013e 2282 24be ce2d 8a3d da9f 9c3e
00000390: 53ee 9b3e d29f 4ebe 6235 f0bd a16d cabd
000003a0: b20e db3d 2a6b 863b 5649 c23e 9820 16be
000003b0: c9fb ee3a 13b7 bbbe 18fd 413d 9051 b8b8
000003c0: 5136 513e 2c2a d0be 9720 95be 38c2 653c
000003d0: 3ff6 9c3e 1a3a 723e ca78 f5be 000f 013e
000003e0: 86a8 3ebe 13b3 863e 2f3b 3c3e 3583 863e
000003f0: 35bd f0bd 5777 313e 35e5 81bd be60 293e

gnn1_embed.convs.2.bias f4 [32]
0.13068023 -0.020465218 0.007939239 -0.17278658 -0.0060098334 -0.09359114 -0.04120792 0.14165606
-0.022993593 0.043698657 0.054295488 -0.0011011161 -0.017459605 -0.19083874 -0.070625626 0.12778802
-0.026331425 0.016524618 -0.171119 0.009480336 0.13104698 0.020837031 -0.0963282 0.10574977
-0.06991945 0.120635554 -0.21158075 0.008977379 0.04715067 -0.014646385 -0.02674603 -0.05512873
00000000: 0ad1 053e aca6 a7bc 9513 023c f7ee 30be
00000010: 23ee c4bb b6ac bfbd a3c9 28bd 490e 113e
00000020: 0f5d bcbc 5dfd 323d f264 5e3d 5353 90ba
00000030: 7207 8fbc 3b6b 43be 2ba4 90bd ddda 023e
00000040: 00b5 d7bc a35e 873c d239 2fbe 6953 1b3c
00000050: 2e31 063e 6cb2 aa3c b847 c5bd 5693 d83d
00000060: ee31 8fbd c60f f73d a0a8 58be db15 133c
00000070: 1021 413d 64f7 6fbc 7e1a dbbc aace 61bd

gnn1_embed.convs.2.lin.weight f4 [32, 32]
-0.13084587 0.02830267 0.026967773 -0.4381513 -0.23523465 -0.17045 -0.037082333 0.047833662
0.3571299 0.28211513 0.13416433 -0.08078626 -0.1981084 0.12009208 0.09092406 -0.2939141
0.08840446 0.042263925 0.4379188 0.19228195 0.0010307399 0.3495807 -0.20132428 0.15213749
0.2090785 0.323022 -0.39824727 0.27997813 0.027897699 0.38708064 0.2978516 0.29866606
-0.32931438 0.36575383 -0.29182887 -0.20436978 0.39848173 0.067162275 0.27058357 -0.16499943
-0.08962833 0.00405097 0.20108205 0.07995534 -0.02903815 -0.36799085 -0.13452251 0.31265944
0.13102485 0.26759797 0.1220593 -0.21746819 0.22721626 -0.10426321 0.03178957 -0.26423904
-0.21430564 -0.06265248 0.2140366 -0.024505176 -0.3081236 -0.08416875 -0.111666344 -0.22036922
-0.14190508 -0.25419384 -0.015098127 -0.16681516 -0.18688099 0.025783787 -0.20186897 -0.008342389
-0.05529729 -0.2679846 0.10620562 0.06354552 0.087768555 -0.39267656 -0.45889223 -0.21678042
-0.40802246 0.14683226 -0.20020726 0.34754062 0.15638883 -0.29783574 -0.09090707 -0.23647353
-0.25594035 -0.23861802 -0.44943398 0.18689816 0.2170058 -0.35584962 0.06867957 0.0679924
0.12895063 0.13059801 -0.3586252 0.2727408 0.2913609 -0.008075133 -0.4203571 -0.20186397
0.13052875 -0.61355597 0.08316802 -0.5731023 0.2592307 0.19276331 0.36526635 -0.133069
0.22749199 -0.29974234 -0.22511144 -0.05544834 0.26976937 -0.019116564 -0.2610796 0.049841546
0.021494687 0.16788504 -0.21801634 -0.041898683 0.1071491 0.23580688 -0.14370994 -0.085085064
0.10749578 -0.1745557 0.047755387 -0.115020074 0.14570181 -0.19846182 -0.42105937 0.44426107
0.17654717 -0.41903493 0.35527718 -0.4198539 0.3047484 0.04529104 -0.10478357 -0.08892485
-0.054713376 0.20594306 -0.05194181 -0.35248026 0.0227231 -0.100635394 -0.2816467 -0.01363203
0.4792785 -0.08610453 0.46027604 0.022684973 -0.14524369 0.14538616 0.06978184 0.13392515
-0.22826315 -0.15398483 0.14561404 -0.188296 0.2213608 0.08367622 0.48167577 -0.27227345
0.06954168 0.32513103 -0.3492512 0.25585395 0.21683937 0.051958848 -0.108391285 -0.19419308
-0.2047936 0.21807852 0.064647794 -0.16477756 -0.43128112 -0.37897274 0.11230716 -0.15208721
0.018772788 -0.55471486 -0.3469021 0.13764559 -0.06749608 0.3143457 -0.13423398 0.13928993
-0.21023192 0.23504421 -0.18275191 -0.19621603 0.4393673 0.037933048 0.2540459 0.17830291
0.0391144 -0.28238356 0.101011455 0.10078203 0.22810405 -0.20312753 0.07367348 -0.35373247
0.32262182 0.23052529 -0.24110588 -0.17799339 -0.17701262 -0.27002698 -0.06829249 0.049373962
0.121408224 0.13518098 -0.01540749 0.09776346 -0.16218588 -0.2187788 -0.33823392 0.14876075
-0.3890232 0.41207948 -0.1576435 -0.14191589 -0.33906478 0.36755267 -0.104414344 -0.28756902
0.07965621 0.23563716 0.27213937 -0.084626846 -0.0961185 -0.33336854 0.2146342 0.28899133
0.0826777 0.03010606 0.34177887 -0.12580374 -0.3047818 -0.098831825 -0.17159632 0.02006504
0.060504887 0.37336823 -0.17013343 -0.29173666 -0.09787136 -0.106044784 -0.03671735 -0.014588187
00000000: 76fc 05be 00db e73c 85eb dc3c 5e55 e0be
00000010: 5ae1 70be 728a 2ebe a5e3 17bd 3bed 433d
00000020: bbd9 b63e 6571 903e 6062 093e 4473 a5bd
00000030: eedc 4abe d6f2 f53d 6536 ba3d e97b 96be
00000040: 660d b53d f01c 2d3d e536 e03e 8fe5 443e
00000050: e419 873a 3efc b23e f427 4ebe eec9 1b3e
00000060: ad18 563e 2463 a53e 11e7 cbbe 4b59 8f3e
00000070: b789 e43c 6f2f c63e 0180 983e c2ea 983e
00000080: e59b a8be 1644 bb3e 986a 95be 5046 51be
00000090: cc05 cc3e 608c 893d ee89 8a3e 9cf5 28be
000000a0: 0f8f b7bd 00be 843b 74e8 4d3e a0bf a33d
000000b0: 6ae1 edbc 4c69 bcbe 45c0 09be e614 a03e
000000c0: 612b 063e 9a02 893e 3afa f93d fbaf 5ebe
000000d0: 61ab 683e f387 d5bd c835 023d 574a 87be
000000e0: f072 5bbe f24f 80bd 692c 5b3e 14bf c8bc
000000f0: 60c2 9dbe aa60 acbd 53b1 e4bd 78a8 61be
00000100: 914f 11be b225 82be 225e 77bc 98d1 2abe
00000110: bb5d 3fbe 8538 d33c bdb6 4ebe 84ae 08bc
00000120: 697f 62bd 4735 89be 5582 d93d 2724 823d
00000130: 00c0 b33d e70c c9be ecf3 eabe b0fb 5dbe
00000140: 52e8 d0be 325b 163e 2203 4dbe d8f0 b13e
00000150: 6524 203e ed7d 98be 7c2d babd 1e26 72be
00000160: 9d0a 83be 4858 74be 361c e6be 3b62 3f3e
00000170: c536 5e3e ec31 b6be e0a7 8c3d 993f 8b3d
00000180: a20b 043e 7cbb 053e b99d b7be afa4 8b3e
00000190: 422d 953e 904d 04bc 0c39 d7be 6eb5 4ebe
000001a0: 54a9 053e 0112 1dbf ff53 aa3d d5b6 12bf
000001b0: e3b9 843e bf63 453e 3104 bb3e 3d43 08be
000001c0: a9f3 683e d477 99be 9d83 66be cc1d 63bd
000001d0: 361f 8a3e 579a 9cbc 3aac 85be a626 4c3d
000001e0: a015 b03c 0eea 2b3e ad3f 5fbe f49d 2bbd
000001f0: fd70 db3d 5c77 713e b328 13be 1441 aebd
00000200: bf26 dc3d bbbe 32be 279b 433d a58f ebbd
00000210: db32 153e 9339 4bbe 1895 d7be 3076 e33e
00000220: c8c8 343e bf8b d6be e4e6 b53e 17f7 d6be
00000230: fb07 9c3e 1983 393d c598 d6bd 3b1e b6bd
00000240: 221b 60bd bde2 523e efc0 54bd 4b78 b4be
00000250: cb25 ba3c ee19 cebd ff33 90be e158 5fbc
00000260: fe63 f53e 9257 b0bd 4da9 eb3e d6d5 b93c
00000270: c3ba 14be 1ce0 143e c8e9 8e3d ad23 093e
00000280: d1bd 69be 33ae 1dbe d91b 153e abd0 40be
00000290: 68ac 623e 705e ab3d 359e f63e 6d67 8bbe
000002a0: de6b 8e3d 9377 a63e 0ed1 b2be 4aff 823e
000002b0: 240b 5e3e cdd2 543d 40fc ddbd 8dda 46be
000002c0: 6ab5 51be fa4f 5f3e 1066 843d 73bb 28be
000002d0: e1d0 dcbe b708 c2be 4c01 e63d c0bc 1bbe
000002e0: 64c9 993c cb01 0ebf 279d b1be f7f2 0c3e
000002f0: 633b 8abd ebf1 a03e a274 09be 05a2 0e3e
00000300: 0947 57be 6eaf 703e 5123 3bbe dbec 48be
00000310: c0f4 e03e af5f 1b3d 4e12 823e 0a95 363e
00000320: 6c36 203d 9494 90be 18df ce3d cf66 ce3d
00000330: 1c94 693e aa00 50be 1fe2 963d 6c1c b5be
00000340: b02e a53e d20e 6c3e 76e4 76be e643 36be
00000350: cc42 35be fa40 8abe efdc 8bbd 5a3c 4a3d
00000360: e0a4 f83d e26c 0a3e b26f 7cbc 3538 c83d
00000370: 0e14 26be 8d07 60be ff2c adbe bd54 183e
00000380: 0d2e c7be 15fc d23e 4c6d 21be 6652 11be
00000390: e699 adbe dd2f bc3e 30d7 d5bd 3f3c 93be
000003a0: cc22 a33d de4a 713e da55 8b3e d750 adbd
000003b0: c7d9 c4bd 48af aabe 11c9 5b3e acf6 933e
000003c0: ed52 a93d fca0 f63c a4fd ae3e b2d2 00be
000003d0: 5c0c 9cbe 5768 cabd f2b6 2fbe 705f a43c
000003e0: f9d3 773d 1f2a bf3e 7537 2ebe 825e 95be
000003f0: c870 c8bd 022e d9bd ef64 16bd 4b03 6fbc

gnn1_embed.bns.0.weight f4 [32]
1.0079451 0.9056461 1.1263305 0.8453845 0.81544405 1.2432181 1.0221903 0.8370931
0.9415495 1.1613705 0.9243249 0.7700666 1.0198584 1.1091444 0.99208796 0.96953225
1.0858141 1.0516632 1.0586631 1.1701807 1.0021462 0.9944759 0.90909547 1.0956875
1.2417529 0.98801136 1.0178833 1.1119155 0.87149364 0.9115774 1.038938 1.1608915
00000000: 5804 813f 6cd8 673f 992b 903f 1e6b 583f
00000010: f1c0 503f c521 9f3f 22d7 823f bc4b 563f
00000020: 6309 713f caa7 943f 8fa0 6c3f 1623 453f
00000030: b88a 823f 72f8 8d3f 7af9 7d3f 4433 783f
00000040: f5fb 8a3f e69c 863f 4682 873f 7bc8 953f
00000050: 5446 803f f995 7e3f 7bba 683f 7d3f 8c3f
00000060: c2f1 9e3f 50ee 7c3f 004a 823f 3f53 8e3f
00000070: 351a 5f3f 235d 693f ecfb 843f 1898 943f

gnn1_embed.bns.0.bias f4 [32]
-0.021585701 -0.24024333 -0.21799576 -0.17525561 -0.12766512 0.17243204 -0.039074842 -0.049464863
-0.015830401 -0.07448196 -0.10611158 -0.084810585 -0.029904054 -0.08843833 -0.06827771 -0.07353026
-0.26093745 0.09488254 -0.112851866 -0.03722771 0.041379906 0.033677466 -0.03820463 -0.11195338
0.027821926 -0.03876764 -0.2773416 -0.0109705385 -0.111216344 0.028617263 0.082796305 0.096290894
00000000: 7fd4 b0bc 5902 76be 483a 5fbe 3576 33be
00000010: a5ba 02be 0692 303e f10c 20bd ab9b 4abd
00000020: c2ae 81bc ff89 98bd 0751 d9bd 2cb1 adbd
00000030: 59f9 f4bc 281f b5bd 2fd5 8bbd 0897 96bd
00000040: 9899 85be c751 c23d e11e e7bd 157c 18bd
00000050: fa7d 293d 62f1 093d 757c 1cbd d047 e5bd
00000060: cfea e33c d1ca 1ebd b8ff 8dbe c6bd 33bc
00000070: 65c5 e3bd c06e ea3c 1c91 a93d 2934 c53d
