checkpoints/model_hidden_unit_40_diffpool_clusters_12_4_seed_8.pth (torch, 136524 bytes, 94 tensors)

gnn1_pool.convs.0.bias f4 [40]
000000 9a 0e de bc 5b dc 15 3e b1 75 35 bd d9 6e 4f 3c
       -0.027106572 0.1463484 -0.044301692 0.0126607055
000010 ff 8d 27 bd 76 7a 04 bc 24 8c 99 3d d9 da d7 3d
       -0.040906902 -0.008085838 0.07497433 0.10539789
000020 74 dc 26 3d f2 f1 f6 bc a9 df ac bd 62 38 66 3d
       0.040737584 -0.030144665 -0.08441097 0.056206115
000030 86 20 ac 3d 8e 64 36 be d8 c7 d3 3d 36 64 d8 bd
       0.08404641 -0.17811796 0.103408515 -0.10565989
000040 e4 45 9d 3d 3a 09 11 be b7 76 5f 3d 61 29 8e be
       0.07679346 -0.14163676 0.054556575 -0.27765945
000050 69 8a c8 3c c6 84 f7 bd 4f 2e 7f 3b ae 94 84 bd
       0.024480062 -0.120858714 0.0038937514 -0.06473671
000060 dd 07 37 bd f4 b9 54 be f6 b1 51 3c 9e 73 a7 3c
       -0.044685233 -0.2077406 0.012798777 0.020440873
000070 fa 24 42 be c8 21 7d 3c d5 a0 02 3d 5c b7 ef bd
       -0.18959418 0.015449949 0.031891663 -0.11704895
000080 0d 63 29 be fa 90 81 bd d5 41 59 bd 10 5b c8 bd
       -0.16541691 -0.0632648 -0.053041298 -0.09782994
000090 ec ff 2e bd c6 3c 5b 3c 70 11 0b 3e 7f 24 2b bd
       -0.042724535 0.013381189 0.1358087 -0.041782852

gnn1_pool.convs.0.lin.weight f4 [40, 14]
000000 72 62 95 3d 27 0f bd be cc 06 4e 3c 8a de b3 be
       0.072941676 -0.36925623 0.012574863 -0.3513072
000010 6f 6f e3 bc aa 5f a5 bb 34 26 b0 3d d4 0c 99 be
       -0.027763097 -0.0050468044 0.08601037 -0.298926
000020 26 54 74 be ea 5a 2a be 1e ff 5a 3e dd 7d 05 3e
       -0.23860225 -0.16636243 0.21386382 0.13036294
000030 3f f9 b0 bd 46 08 9d 3c 49 f1 7d be b5 4e 7a be
       -0.0864129 0.019168984 -0.24799074 -0.24444087
000040 06 1c d0 3e d0 1c bf 3d 0c e8 ab 3e fe 46 30 be
       0.4064638 0.093316674 0.33575475 -0.17214581
000050 b5 1a 16 be 2d 36 b4 3e 2b 8b 48 3d 1d 1c e6 bd
       -0.14658625 0.35197583 0.048960846 -0.11235831
000060 25 51 9f 3e 92 d8 62 be 8d 6a 6c 3e a5 5e 5a 3e
       0.31116596 -0.22152928 0.23087521 0.21325167
000070 57 91 a5 be 78 8a eb bd 6f 51 20 3e 69 44 57 be
       -0.32337448 -0.1150102 0.15656064 -0.2102219
000080 3e 10 35 3e 2a 20 9c bd b4 e6 8b 3c c4 a7 e4 3e
       0.17681977 -0.07623322 0.017077781 0.44659245
000090 f0 36 1c 3c b9 61 06 be 01 97 50 bd 80 f8 2b 3e
       0.0095345825 -0.13123216 -0.05092526 0.16794014
0000a0 37 1a 7e be 9f 99 7b 3e c0 ef cc be 26 9b 97 3e
       -0.24814688 0.2457032 -0.40026665 0.29610556
0000b0 a2 d7 b2 3e 5b ef 23 bd 1f c8 8e 3e d5 dc 4d bd
       0.3493014 -0.04002319 0.27887055 -0.05025943
0000c0 3d 47 ee be dd 2a f6 bd 21 25 ef be 8d d1 a1 be
       -0.46538725 -0.12019894 -0.46708015 -0.31605187
0000d0 eb 21 34 be f4 3c 85 be 4f 7e 38 3e 43 fb df be
       -0.17591064 -0.26023066 0.18016933 -0.43746385
0000e0 5d 6a a8 be 08 0e 55 be 3d 0b 7f 3d c7 1f f1 bd
       -0.3289365 -0.20806134 0.062266577 -0.11773639
0000f0 63 c6 ef bd 54 66 16 bc 5e 8f 39 be 2a a9 1e bd
       -0.11707761 -0.00917967 -0.18121096 -0.038735546
000100 89 f7 ac be 63 ed e5 3b 06 75 99 3e 62 d2 a7 be
       -0.33782604 0.007016824 0.29972094 -0.32777697
000110 7a 42 62 be 6f e0 d8 bd 95 50 11 bf f6 23 1f bd
       -0.22095671 -0.10589682 -0.56763583 -0.038852654
000120 fa 10 30 bc bf e9 02 3d 14 2a 95 be 4a 2a f5 be
       -0.010746235 0.0319612 -0.29133666 -0.47883826
000130 ba 4d 8f be 3e 59 5d bd 87 bf ae 3d be c6 a5 3e
       -0.27988988 -0.054040186 0.08532625 0.3237819
000140 83 88 9e be c9 c8 5f be 54 a8 9b 3e 72 c2 41 3e
       -0.30963525 -0.21853937 0.30401862 0.18921831
000150 7b a9 a0 be 65 a9 bc 3d c2 9a d5 3c bb 2a ea be
       -0.31379303 0.09211997 0.02607477 -0.45735726
000160 b3 e2 aa bc 68 0b 34 3e f7 ee 8e 3c 69 ac de be
       -0.020860052 0.17582476 0.017447932 -0.43490914
000170 a2 28 22 be c2 5f 80 bd a5 d2 59 be 23 54 bc be
       -0.15835813 -0.06268264 -0.21271761 -0.3678294
000180 76 25 9d be 94 b1 bb be 86 35 27 3e 6e c5 91 3e
       -0.30692643 -0.3665892 0.16329011 0.2847094
000190 d7 bb bd be 2b 7b 0a 3e 2f 16 22 bf 2e 67 10 3e
       -0.37057373 0.13523547 -0.633151 0.1410186
0001a0 09 1e 2b be 01 07 df 3e 75 38 44 bc c8 e3 63 be
       -0.16710676 0.4356003 -0.011976351 -0.2225486
0001b0 b2 ef 9b bb a9 c6 78 be 57 43 f9 be 6a f7 94 3e
       -0.0047587985 -0.24294533 -0.4868419 0.29095012
0001c0 60 6a a1 3e 20 42 8b 3e 7f 53 95 bd 6d 64 ab 3e
       0.3152647 0.27198887 -0.07291316 0.33475056
0001d0 46 cb 88 3e 33 69 2b bc 7a 30 ae bc 5e 91 a1 3e
       0.26717585 -0.010462093 -0.02126335 0.3155622
0001e0 af f3 8c 3e 67 f4 14 be db ed bc 3d 6d 2d 56 3e
       0.27529666 -0.14546357 0.09225055 0.20915766
0001f0 3b 9d 8c be 82 3d b2 3d 86 2e 0d 3e a2 43 17 bd
       -0.27463707 0.08703138 0.13787279 -0.036929734
000200 a7 78 80 bd dd 80 04 bf d7 63 fe 3b 71 04 74 be
       -0.062730126 -0.5175913 0.0077633667 -0.2382982
000210 6a 2e 84 be 69 52 36 3e 77 53 47 bc 15 a9 37 be
       -0.2581666 0.17804874 -0.012165896 -0.17935593
000220 33 e6 96 3d 27 11 fc bc 02 3c 00 3e 5a 3e e0 3e
       0.07368126 -0.030769898 0.12522891 0.4379757
000230 5a cf fb 3d f1 72 b0 3e 7f dc 1f bd 36 5c d9 be
       0.122954085 0.34462693 -0.03902864 -0.42453164
000240 9b 53 83 bd fb 50 b1 3d 40 57 6e 3e b9 4d a0 be
       -0.06412431 0.08658024 0.2327547 -0.31309298
000250 1d 5f 46 be 06 69 1d be a2 32 53 be a9 62 0d 3e
       -0.1937222 -0.15372095 -0.20624784 0.13807167
000260 cd 34 d7 3d 11 91 7a bd 0f ad 09 bf f9 51 66 be
       0.10508118 -0.061173502 -0.5377969 -0.22492208
000270 c1 6a 92 be be 48 b6 bd 15 1d 01 3d 29 a1 65 3e
       -0.28597072 -0.08900593 0.031521875 0.22424759
000280 de 62 a5 be dd 17 9c be d9 ea 7f 3e 49 95 9c be
       -0.32301992 -0.30486956 0.24991931 -0.30582646
000290 83 9b 01 bf da af 09 bd 82 72 17 3c 11 41 7b 3d
       -0.5062792 -0.03361497 0.009243609 0.06134135
0002a0 50 29 54 be 20 09 61 3e 70 3d 50 be ce 11 56 3e
       -0.20718884 0.21976137 -0.20335937 0.2090523
0002b0 40 c9 1f 3e ce c6 88 bd d7 e2 5f be 21 3b 39 bc
       0.15604115 -0.06678544 -0.21863876 -0.011305601
0002c0 23 1e 11 3e 83 50 61 be 4e 4a 4d be de 4d 9a be
       0.14171652 -0.22003369 -0.20047876 -0.30137533
0002d0 2a fd cb 3e d2 29 52 3e ed 28 5e 3e 3e 27 94 bd
       0.39841586 0.20523766 0.216953 -0.07234047
0002e0 21 88 6b be c6 ca 90 be 9d 12 5e be 1f 5a f3 3d
       -0.23001148 -0.28279704 -0.21686788 0.118824236
0002f0 86 c9 25 be d7 0b 83 3d b6 f5 14 3f 29 77 91 3e
       -0.16190156 0.06398743 0.58187425 0.28411224
000300 ba cc 39 3e 18 7f 41 be f6 e1 36 bd 44 28 a4 3c
       0.18144503 -0.18896139 -0.044649087 0.020038731
000310 d1 e6 3d 3e 36 8e 21 bf 39 56 db be 49 a1 2f 3e
       0.1854508 -0.6310762 -0.4283922 0.17151369
000320 8a fa 78 be 27 17 5f bb c1 86 8f 3e 3e 04 b0 3e
       -0.24314323 -0.00340409 0.28032497 0.34378237
000330 62 97 1b be a0 c2 20 be 0e 6b ec be 96 a6 08 3e
       -0.15194467 -0.15699244 -0.46175426 0.13344797
000340 49 54 f2 bc 54 68 d0 be 62 ef 17 3e 6e 16 08 bf
       -0.029581206 -0.40704596 0.14837411 -0.53159225
000350 58 70 5f 3e 48 ef cb 3d 2d 7f 76 3e 1c a0 94 be
       0.218202 0.09957749 0.24071951 -0.29028404
000360 75 5b 8c bd 5e be 63 3c 6a 72 6a be 52 a1 ad 3e
       -0.068533815 0.013900368 -0.22895208 0.3391214
000370 fd 2e a7 3c 40 ca f8 bd a8 08 10 be 16 3d c5 39
       0.020408148 -0.12147951 -0.14065802 0.0003762028
000380 c8 33 30 3e 59 4a 55 be fb 32 c3 be 86 97 8b be
       0.17207253 -0.20829143 -0.38124833 -0.2726404
000390 ec d7 0e be 3f fa 4c 3e 30 37 0a 3e 5d a9 84 be
       -0.13949555 0.20017336 0.13497615 -0.25910464
0003a0 ed a6 a5 3e 4a cf dd 3d 84 9e b8 bd bc 2a d4 be
       0.32353917 0.10830553 -0.090146095 -0.41438854
0003b0 08 ca 7e 3c ae 0e aa 3d 9a 70 fe bc d3 a4 12 3e
       0.015551098 0.08303581 -0.031059552 0.14320688
0003c0 10 12 aa 3e 5c 67 83 be c7 53 f1 3c f1 39 28 3c
       0.33216906 -0.25664794 0.029458893 0.010267721
0003d0 5e 30 94 3d f1 a4 3b bf 81 5b a2 be 85 97 de be
       0.07235788 -0.73298556 -0.31710437 -0.43474975
0003e0 07 a6 2c be 0e 3c 0d be fb 76 9e 3d 86 17 c6 be
       -0.1686021 -0.1379244 0.077375375 -0.38689822
0003f0 57 45 c3 be 10 02 42 be d9 d3 27 be 8d e9 11 be
       -0.3813884 -0.189461 -0.16389407 -0.14249249

gnn1_pool.convs.1.bias f4 [40]
000000 a0 bc a2 bd 26 e7 23 bc ab fd ad bb 69 75 42 bc
       -0.079461336 -0.010003841 -0.0053097806 -0.011868813
000010 9d 1e 37 3b ee c8 a2 bd fe 7c ea bc ec 84 46 3b
       0.002794183 -0.079484805 -0.028624054 0.003029163
000020 03 2d f8 3c ca 9f 5e bc a2 dd 14 3e a4 08 84 bd
       0.0302949 -0.013587901 0.14537671 -0.064469606
000030 cf 78 88 bd da 1d b1 3d d4 9d 2f 3d b1 88 01 3e
       -0.066636674 0.08648272 0.042875126 0.126498
000040 69 c9 94 3c 96 ed d1 3c 26 10 04 3d 3a a9 3a bd
       0.018162446 0.025625985 0.032241963 -0.045571543
000050 24 6b ce bc 86 ba 6e bb 21 5d d7 3c fa 8f 57 3c
       -0.025197573 -0.0036427095 0.026289525 0.013156885
000060 8f 77 35 3d 8f b3 f8 bb 81 71 fa bb a3 22 2f 3d
       0.044303473 -0.0075897644 -0.0076429253 0.04275764
000070 07 dc bf bb 97 23 42 3d 4c f0 06 bd ba 34 fe bb
       -0.0058550867 0.047397222 -0.03294401 -0.0077577503
000080 85 17 ca 3d 7e c7 e5 bc 39 cd 23 bd 5a 8e 1a bd
       0.09867767 -0.028049227 -0.039990637 -0.037733413
000090 60 3a 55 bc 5c 9e 1b 3c 07 c2 35 bd 52 c0 47 3b
       -0.013014406 0.009498205 -0.044374492 0.0030479622

gnn1_pool.convs.1.lin.weight f4 [40, 40]
000000 a6 41 fc bd 3b 4c 90 be 83 e0 78 3d 44 c7 cf bb
       -0.12317209 -0.2818316 0.060760986 -0.006340893
000010 fa 5b f6 3d af 47 79 bd 6c f2 b6 be 56 a6 22 be
       0.12029262 -0.06085938 -0.35731828 -0.15883765
000020 0a eb a5 be e9 c8 95 3d 66 71 74 bc 7e 14 f1 bc
       -0.32405883 0.07313711 -0.014919614 -0.029428717
000030 de 2e 82 be d8 d2 9b bd 87 eb a5 3e 30 7b 8a 3e
       -0.25426382 -0.07608575 0.32406256 0.2704711
000040 74 ea 95 bd 50 d2 fc 3c c1 09 aa 3d 23 36 b5 3e
       -0.07320109 0.030862004 0.08302642 0.35392866
000050 e8 a4 e1 3c 82 bd c6 be 67 20 f0 bd a3 19 ac be
       0.027544454 -0.38816458 -0.1172493 -0.3361331
000060 17 b5 81 be 41 f6 d8 be 91 80 26 3d a5 7d 75 3e
       -0.25333473 -0.42375377 0.040649954 0.23973711
000070 40 2f f5 bd 6e 88 22 be 23 ec a2 3e a8 43 a1 3e
       -0.11971903 -0.15872356 0.31820783 0.3149693
000080 38 32 cb 3d bc f9 98 bd 3a e0 9b be 91 54 28 be
       0.09921688 -0.07469508 -0.3044451 -0.1643851
000090 45 38 ab be d8 03 4f 3d ff 32 b1 3d 16 64 42 3e
       -0.33441368 0.050540775 0.08652305 0.18983492
0000a0 80 20 f8 bd 6c 52 42 3e f9 b3 38 3e 22 c6 28 be
       -0.12115574 0.18976754 0.18037404 -0.16481832
0000b0 80 70 b8 be 56 ce b7 be 91 a3 49 be e1 52 88 3d
       -0.3602333 -0.3589961 -0.19691302 0.06656433
0000c0 5d 06 8a 3c c2 54 78 3e 29 a8 d8 3e 78 56 b5 ba
       0.016848737 0.24251083 0.42315796 -0.0013834974
0000d0 24 e7 4e 3e 06 ca 9f 3e f6 13 25 3e c2 03 b5 be
       0.2020536 0.3120882 0.16120896 -0.3535443
0000e0 05 a0 29 3e 24 a2 51 be 2f 7c aa bd 43 ba cf bd
       0.16564949 -0.20472008 -0.083244674 -0.101429485
0000f0 1c 97 1c 3e e3 21 a0 be e0 03 9c bb c9 4c 13 3e
       0.15292019 -0.31275854 -0.004761204 0.1438476
000100 45 96 06 be eb 96 d0 bd ae 8b a7 be f8 1f 4b be
       -0.13143261 -0.10185035 -0.32723755 -0.19836414
000110 45 df 3f be d9 86 b2 bd 48 76 8e 3e 98 a5 75 bd
       -0.18737514 -0.087171264 0.27824616 -0.059972376
000120 9d 9b 31 be 72 3f e1 3d 29 5f 05 3e c6 e5 a9 3d
       -0.17344518 0.10998429 0.13024582 0.08295779
000130 cd e0 14 3e 0a ba 8a be eb 4e f3 3d 9c df 99 3e
       0.1453888 -0.27095062 0.11880287 0.30053413
000140 d5 a2 05 bf 25 da b1 3d fa ff ed 3c 14 1a 7a 3e
       -0.52201587 0.08684186 0.029052723 0.2442401
000150 09 96 c2 be d0 c6 ae be 45 cb b8 bb 24 6a 91 3d
       -0.38005093 -0.34136057 -0.005639466 0.07100323
000160 de 07 73 3e 01 be 87 be 35 23 b3 bb 7f ce a6 be
       0.2373347 -0.2651215 -0.0054668435 -0.3257942
000170 ad 74 37 3d 0e be 01 3f 17 7c 1d bc 9b 77 fd 3d
       0.044789005 0.50680625 -0.009612105 0.123763286
000180 0d 8f da 3d 15 b9 21 3e 32 85 4a 3e a2 9e 83 3d
       0.10671816 0.1579326 0.19777372 0.06426741
000190 bb b9 27 be c3 c6 2d bd 34 e2 8f be d7 86 71 bd
       -0.16379444 -0.042425882 -0.28102267 -0.058966484
0001a0 35 8b 4b bc 67 93 ce bc 51 d3 e6 3d b0 d0 48 3e
       -0.012423326 -0.025216771 0.11270774 0.19610858
0001b0 46 c4 0d be 29 ab d9 3d 59 7e 2e 3e 7f 12 52 be
       -0.13844404 0.10628349 0.17040385 -0.20514868
0001c0 03 98 71 be 90 60 c3 bc de 54 8b be 96 1c 2d bd
       -0.23593144 -0.023849756 -0.27213186 -0.04226359
0001d0 f3 27 94 3e 78 aa 9b be af a9 b1 3e 75 a7 9a 3e
       0.2893673 -0.30403495 0.3469977 0.30205885
0001e0 1f 7a ee 3c 8d 73 91 be 09 23 96 3d 98 ac 29 3e
       0.029110966 -0.2840847 0.07330901 0.16569746
0001f0 68 fe 8d be fe 83 8a be e4 f2 3e be a0 ca db 3d
       -0.2773316 -0.27053827 -0.18647343 0.10732007
000200 64 bd 6a be 60 85 c1 be f8 e6 cc be ea 9f ee bd
       -0.2292381 -0.3779707 -0.40019965 -0.11651595
000210 e9 f0 f9 bc 3f c7 e0 3d 98 9e 97 bd ec df 80 3e
       -0.030510383 0.10975503 -0.07403296 0.2517084
000220 d0 c8 a0 3d ed 3b a9 bc 05 15 e8 3e 59 e3 40 3d
       0.07850802 -0.020658458 0.45328537 0.047091816
000230 50 e4 2e 3e 23 9c e0 be dd f8 bf bd 18 19 70 3e
       0.17079282 -0.43869123 -0.09373639 0.23447073
000240 a3 d3 d6 be 77 5d a5 3d 78 d0 7d be 51 5f e4 bd
       -0.4195834 0.08074468 -0.24786556 -0.11150993
000250 b5 0e a0 be ce ee 0a bc 6e 27 e7 3d 60 79 73 3e
       -0.3126122 -0.008479787 0.112868175 0.2377677
000260 1a 1d 0a 3d 10 96 31 3d e9 bd 57 be c9 f2 a1 be
       0.03371916 0.043356 -0.21068539 -0.31630543
000270 11 fa de be ee 39 67 3d 39 a1 09 3e 80 77 5f be
       -0.4355016 0.05645173 0.13440408 -0.2182293
000280 f0 9c ac bd f3 e9 7f 3d d0 09 91 3d 85 6e 7e 3d
       -0.08428371 0.06247897 0.0708195 0.06211712
000290 25 b5 7f bd 1f 5a 9f 3d b1 27 30 3e b4 16 13 3e
       -0.062428612 0.07780861 0.17202641 0.1436413
0002a0 73 7c 1d 3e ca 5b 8f be b5 64 9c bd c2 50 97 3e
       0.15379505 -0.27999717 -0.07636396 0.295538
0002b0 31 02 3d be 64 da f4 3e c9 1a 58 be c5 3b 7a 3d
       -0.18457867 0.4782287 -0.21103968 0.061092157
0002c0 2e 85 c1 3e 61 3f 3f 3e f7 9f 87 bc 1c 08 5d 3e
       0.3779692 0.18676521 -0.01655577 0.21585125
0002d0 4f 98 69 3d f5 38 b6 be 57 49 00 be 43 82 00 3e
       0.05703002 -0.3559033 -0.12527977 0.12549691
0002e0 f2 aa 75 bd 82 fa 9a be 1e 00 02 3e 1a 01 d1 bd
       -0.05997748 -0.30269247 0.12695357 -0.10205288
0002f0 26 19 21 3e 0b bf 14 bd a0 70 ef 3e 7d 41 11 be
       0.1573225 -0.036315005 0.46765614 -0.14185138
000300 2a 74 4d 3e ce 7f 23 be 3b 5d 3d 3e 05 8c 65 3c
       0.20063844 -0.15966722 0.18492596 0.014010434
000310 bf 85 a6 bd 2c 90 77 be 4d ea 23 bc 22 e6 01 3e
       -0.08130979 -0.24176091 -0.010004592 0.12685445
000320 4e f0 55 3e f2 e3 81 3e 5c 1e bc bd b5 7b 2c 3e
       0.2089245 0.2536922 -0.09185478 0.16844065
000330 11 09 36 3e 2a b5 33 be f9 61 81 3e 9c 03 34 be
       0.17776896 -0.17549577 0.2527006 -0.17579502
000340 90 96 88 bd c8 01 86 3d f9 9e 4e 3e 8a e8 6a be
       -0.066693425 0.065433085 0.20177831 -0.22940269
000350 96 47 2e be 4a 69 d0 3e 40 46 06 3e b2 1d a7 3e
       -0.17019495 0.4070533 0.13112736 0.32639843
000360 aa ab 33 3e ee 9f 0c be df b8 0f 3e 80 e1 d6 bb
       0.17545953 -0.13732883 0.14035366 -0.0065576434
000370 d1 13 8e be 76 24 c8 3d b8 d1 0d 3e db 33 4e be
       -0.27749494 0.09772579 0.13849533 -0.20136969
000380 bb 25 44 3e 35 4e ad be 51 99 1b 3f b8 0a 0a 3e
       0.19155018 -0.3384873 0.6078082 0.13480651
000390 e5 d1 f9 3d b0 b4 ab 3e da 1b 5d 3d e6 09 a4 be
       0.12198237 0.3353629 0.05398164 -0.32038802
0003a0 2f cc c2 3d 7e d4 81 3e 7f 91 1e be f3 7b 12 be
       0.09511601 0.2535743 -0.1548519 -0.14305095
0003b0 40 fb 3c 3d 5b a9 92 be 64 d9 53 3e 8e dc 62 3e
       0.04613805 -0.28644833 0.20688397 0.22154447
0003c0 2a f1 11 39 e6 a1 38 be f3 e9 f6 3c f6 d0 eb bd
       0.00013918118 -0.1803051 0.030140853 -0.115144655
0003d0 ee a7 bb 3e f6 76 aa 3e 2c 0a 87 3e c5 f0 b4 3e
       0.36651558 0.33293885 0.26374948 0.35339943
0003e0 7b da a9 3d 4c 30 07 3d d9 31 d2 3e c3 61 9b 3e
       0.08293625 0.033005044 0.41053656 0.30348024
0003f0 bf 80 87 be a2 5b b6 bd 0d 2f d6 bb d5 02 a1 be
       -0.26465413 -0.08904196 -0.0065363706 -0.31447473

gnn1_pool.convs.2.bias f4 [12]
000000 b8 81 6c bc 0c 5b ae 3b 79 d8 41 be 04 7d 17 bd
       -0.014435224 0.005320912 -0.18930234 -0.03698446
000010 5d 73 d9 3c 43 c3 66 3d 53 6c f2 3c 10 e7 2d bc
       0.026544267 0.05633856 0.029592669 -0.010614172
000020 58 2e cb 3c 2d 6b fd 3c 69 61 b3 bd f6 28 af 3a
       0.024802372 0.030934894 -0.08758814 0.0013363648

gnn1_pool.convs.2.lin.weight f4 [12, 40]
000000 eb 69 24 3e 7e e3 4e be 74 09 4b be ea 6b 01 3f
       0.1605603 -0.20203969 -0.19827825 0.5055529
000010 e1 3e 8b be 92 26 43 3e 4c fc fd bd 18 6d cc 3e
       -0.2719641 0.19057682 -0.124016374 0.39926982
000020 26 13 de 3e d9 67 e4 3e 90 84 96 3c e7 af 8f 3e
       0.43373984 0.4461048 0.018373758 0.2806389
000030 10 5c 9e 3d 14 a1 62 3e 34 ee a7 be 68 43 71 bd
       0.07732403 0.22131759 -0.32798922 -0.058902174
000040 8f 37 a5 3e 1f fe d9 3d 89 da 99 3e 52 ec 8d 3d
       0.3226895 0.10644173 0.30049542 0.0692984
000050 46 63 db 3b 09 d5 e0 bd 6b 1e 6c 3e 4e be 94 3e
       0.006695184 -0.10978133 0.23058479 0.2905144
000060 3b 3e 8d 3e c1 e0 cc 3d 30 92 b4 bd c9 49 de be
       0.2758654 0.10003806 -0.088169456 -0.4341567
000070 56 c4 3c 3e 13 df 49 be b8 de c2 bd 5b b3 5c be
       0.18434271 -0.19714002 -0.095151365 -0.21552794
000080 34 6c ce 3e c4 e4 31 3d 57 38 37 be c6 ff 80 3c
       0.40316927 0.04343106 -0.17892586 0.015746962
000090 9b d7 fd bd be 34 db bc 47 1c 72 3e 9d d2 fa be
       -0.12394639 -0.026758548 0.236436 -0.4898881
0000a0 12 e6 95 3c 6f 60 08 bf 55 9a 4f bc 92 ae 75 3e
       0.018298183 -0.53272146 -0.012671073 0.23992375
0000b0 3c 10 e7 3b 11 d5 de 3d d3 b2 54 be ec 6a 64 3e
       0.007051496 0.10880483 -0.20771341 0.22306412
0000c0 dd f9 58 3e b0 b4 bc 3e ee 57 45 be 93 b7 04 3d
       0.21189065 0.36856604 -0.19271824 0.032401633
0000d0 71 80 df bc c5 0f f3 3d 1c cb 35 be a4 e2 ac bd
       -0.027282925 0.11868242 -0.17753261 -0.08441666
0000e0 d7 fe b2 3e 1e c8 a6 3c 6d d3 9f 3e f0 4b b8 bd
       0.34960052 0.020359095 0.31215993 -0.08998859
0000f0 15 88 df 3e 11 c0 94 bd 4f 64 57 3e 4a b0 86 3e
       0.4365851 -0.07263196 0.21034358 0.26306373
000100 8f bc 89 3e 76 3d 1d 3e 19 ac e6 be bd 36 c9 be
       0.2690167 0.15355477 -0.45053175 -0.39299574
000110 a2 75 08 be dc 20 06 be dd c7 02 bd cd 18 65 bd
       -0.13326123 -0.13098472 -0.031928886 -0.055931855
000120 62 b7 73 3e c0 62 3a 39 6e 76 3e 3d 26 54 a8 3d
       0.23800424 0.0001777513 0.046499662 0.08219175
000130 11 c6 75 bb 46 0e e7 3e 32 06 9b 3e 51 6a b4 be
       -0.003750209 0.45128077 0.30278164 -0.35237363
000140 76 fc 49 bd ad 29 ef bd 05 72 aa be 7b 45 9c be
       -0.04931303 -0.11677871 -0.33290115 -0.3052176
000150 4c b7 97 3c f6 f0 77 be c0 97 78 3d f6 2c 1f 3d
       0.01852002 -0.24213013 0.060691595 0.038861237
000160 3c 0c be 3d d7 49 a9 bd 3d fd 55 3e 0a 4b 82 be
       0.09279677 -0.08266037 0.20897384 -0.25447875
000170 b4 42 84 be 4b c6 eb 3e 3e e1 f0 3d 88 57 c8 bd
       -0.2583214 0.46049723 0.117617115 -0.0978232
000180 6c 63 77 bc bf db ee be 50 57 0e be c5 ce 85 3d
       -0.015099388 -0.46652028 -0.13900495 0.06533579
000190 1c 85 ea 3d 0d 64 02 3f 38 6f f8 bd cd 62 e0 be
       0.1145117 0.50933915 -0.12130588 -0.4382538
0001a0 20 4e 85 be ef b1 27 bd 01 63 74 3c 5e e6 18 3e
       -0.26036167 -0.040941175 0.0149161825 0.14931628
0001b0 7b 7c fe bd e9 49 06 bd 05 19 cf bd 93 2f e8 3d
       -0.124260865 -0.03278533 -0.10112194 0.11337199
0001c0 f7 c4 96 3e 54 1c 6e bd 57 a3 9c be 16 cf d6 bc
       0.29447147 -0.058132485 -0.30593368 -0.026221793
0001d0 01 9e b4 bd bb ca e1 3c da 57 97 3e 0f 85 24 bd
       -0.08819199 0.02756249 0.29559213 -0.040165957
0001e0 90 f5 bb 3e e1 e1 62 3d 76 2c 08 be 52 f0 28 3e
       0.36710787 0.055391196 -0.1329821 0.16497925
0001f0 9f 70 cb 3d 43 5e 37 be 75 a4 b4 3d f1 38 96 be
       0.0993359 -0.17907052 0.0882043 -0.29340318
000200 b6 a2 06 be 6f ba b0 be 1c 94 97 3e 4d c0 bd bd
       -0.13148007 -0.34517238 0.29605186 -0.09265194
000210 48 e3 9d 3a cb 93 87 bd 13 9b a0 bd c6 a9 b0 be
       0.0012045885 -0.06619986 -0.07842078 -0.34504527
000220 6c f9 ea bd 3e a7 84 be 71 7c 96 3b a8 40 85 3d
       -0.11473355 -0.25908846 0.0045924713 0.06506473
000230 8f bb 84 3c 9e 3e 51 be 11 45 52 be 8f d2 89 be
       0.016202716 -0.20434043 -0.20534159 -0.26918456
000240 43 e7 0c 3e 23 37 8a be 62 ac 90 bc 5d 1c 04 3e
       0.13760094 -0.2699519 -0.017660324 0.12901445
000250 17 bb 12 3f 7a 09 96 be 29 8b 0e 3f f2 bd 58 3e
       0.57316726 -0.29304105 0.5568109 0.21166208
000260 13 ed f1 3d d6 12 80 be db ee 21 3e de 76 64 bc
       0.118127964 -0.2501437 0.15813772 -0.013944356
000270 79 8e 13 3f bb b8 e5 3e f8 ba 93 bc 78 7c 4a bd
       0.5763927 0.448675 -0.01803349 -0.04943511
000280 49 c5 b9 be 2a 29 3b 3d ef 7d 0b 3e fb 68 14 bf
       -0.3628333 0.045693554 0.13622259 -0.5797269
000290 3d 12 47 3d 68 ce 3e 3e 68 9d a4 be e0 2f 54 bd
       0.048601378 0.18633425 -0.3215134 -0.05180347
0002a0 e5 c2 57 3e 24 32 92 3d 4e 22 e3 bc f5 f4 dd be
       0.2107044 0.0713847 -0.027726319 -0.4335095
0002b0 8b f8 f6 be fb 1a ae 3e f4 ea a6 3e ec 97 d9 be
       -0.48236498 0.3400496 0.3260113 -0.4249872
0002c0 0f a0 eb 3d ad d7 d0 3d 28 87 6c be b5 65 9f bc
       0.11505138 0.10197387 -0.23098433 -0.019457677
0002d0 ac cb 9a be a5 25 25 be 6f 49 2f 3d 10 c0 62 3e
       -0.30233514 -0.16127641 0.04279464 0.22143579
0002e0 f8 69 bb be be 80 4c be 0a 8b e2 bd 7a 2c 26 3e
       -0.36604285 -0.19970986 -0.11061676 0.16227904
0002f0 be c4 e5 bd fd 8e 80 be 39 70 8d be 3c f0 61 3e
       -0.11219166 -0.2510909 -0.27624682 0.22064298
000300 c2 d5 aa 3a 35 95 c8 be f2 48 ae be aa 56 c8 3d
       0.0013033675 -0.39176336 -0.34040028 0.09782155
000310 2d 07 88 3e 06 1e ee be f5 85 9d 3d f4 60 a3 bc
       0.26567975 -0.4650728 0.07691566 -0.019943692
000320 4d bd 34 3d 82 05 ae 3d 62 1f 85 bd b1 5b 81 be
       0.044125844 0.08497144 -0.065001264 -0.25265267
000330 3d 94 d3 3d 8a 7a 44 be ba ed 01 bd 75 b6 68 3e
       0.103310086 -0.1918737 -0.031720854 0.22725852
000340 e9 61 7e be 40 6e f3 3e b7 ca 63 3e 2a 5b c0 3d
       -0.24842037 0.47545052 0.22245298 0.09392388
000350 d3 2a 4a 3d ce 79 03 3e 50 60 a1 3b 7b da 38 bc
       0.049357247 0.12839434 0.0049248114 -0.011282559
000360 6f fc 27 3e ba d6 63 3e 34 3c 26 be b5 af ed bd
       0.1640489 0.2224988 -0.16233903 -0.11605779
000370 be 0b b6 be 9a 7f 00 3c cb 21 9c 3d 31 f1 84 be
       -0.35555834 0.007842923 0.07623633 -0.25965264
000380 b9 b6 92 bd 80 f0 6f 3e 8c 15 3d 3e 48 c2 57 3c
       -0.07163758 0.23431587 0.1846525 0.013168879
000390 81 40 81 3e da 30 b1 bd e6 d4 fd be dc 43 bc be
       0.25244525 -0.08651896 -0.4957649 -0.36770523
0003a0 b2 24 b6 3d df e3 07 3f 9c 28 a0 3d b6 90 80 be
       0.08893718 0.5308208 0.078202456 -0.25110406
0003b0 13 24 26 bf 55 f5 cc 3d 9a b5 66 3e ec 92 8e be
       -0.64898795 0.10007731 0.22530213 -0.27846467
0003c0 8c 31 fa 3c 49 c1 d9 be 4a f3 10 3c 94 aa c2 3e
       0.030541204 -0.42530277 0.008847067 0.38020766
0003d0 e2 12 96 bd a2 9c 01 be fb b9 b7 3e 1e 7b 19 3e
       -0.0732782 -0.12657407 0.3588408 0.14988372
0003e0 a9 35 37 3e 3f 78 51 3e 8c 4e 03 3e a5 6b 40 3e
       0.17891563 0.20456026 0.12822932 0.18791063
0003f0 1a 0a 83 be 0c 29 e8 3d 18 46 83 3d 15 d2 6e 3e
       -0.25593644 0.11335954 0.06409854 0.23322327

gnn1_pool.bns.0.weight f4 [40]
000000 29 ac 9a 3f 87 4b 73 3f 76 d6 47 3f 7c da 49 3f
       1.2083789 0.9503712 0.78061616 0.78849006
000010 17 d5 7e 3f db be 7f 3f 24 be 57 3f f4 49 7b 3f
       0.995439 0.999006 0.84274507 0.9815972
000020 ac 8a 8c 3f b6 34 b6 3f 57 53 9e 3f a4 67 63 3f
       1.0979819 1.4234836 1.2369183 0.8883002
000030 bd 9e 6e 3f 3f 89 a6 3f fc 5b 68 3f d5 f0 7a 3f
       0.93210965 1.3010634 0.90765357 0.9802373
000040 63 66 62 3f 6a 4d 12 3f 46 d3 5e 3f ac 63 a0 3f
       0.8843748 0.57149374 0.8704113 1.2530417
000050 c6 db 86 3f c8 39 a6 3f 46 79 71 3f fb cb 45 3f
       1.053582 1.2986383 0.94325674 0.77264374
000060 9c 21 69 3f ea ec 74 3f af ca b2 3f 55 70 5e 3f
       0.9106691 0.95674 1.3968104 0.86890155
000070 ea 51 57 3f 35 23 69 3f 6f f1 92 3f 93 b0 81 3f
       0.84109366 0.91069347 1.147993 1.0132011
000080 0d 4d 8f 3f 41 5c 3e 3f 41 6b 84 3f e9 0d 81 3f
       1.1195389 0.7435952 1.0345231 1.008237
000090 53 55 66 3f aa bd 81 3f 2e 01 7d 3f cf 11 5e 3f
       0.89973944 1.0136006 0.98829925 0.86745924

gnn1_pool.bns.0.bias f4 [40]
000000 25 8d a5 bc c2 f9 46 3e 3a a7 c4 bd 10 d3 87 3d
       -0.020208905 0.19431213 -0.096022084 0.06632054
000010 48 63 d1 3d 0e 1e 7d 3e 45 8d ad 3e df 3d 07 3d
       0.102240145 0.24718496 0.33896843 0.03301799
000020 ee 15 0d 3e 5a f6 1b 3e 76 97 d9 3e 5f 0c 17 3e
       0.13777897 0.15230694 0.42498368 0.14750813
000030 42 a1 33 bd 10 1d 73 3e ee 8a 55 be ff d8 be 3d
       -0.04385496 0.23741555 -0.20853779 0.093187325
000040 07 d9 3f 3e a1 62 3b 3f 1a 9c b6 be 35 f0 a2 3d
       0.18735133 0.7319737 -0.3566597 0.07955972
000050 55 a4 63 bd cf 1a e0 3d 75 e1 1c 3e 0f 51 c0 be
       -0.05557664 0.10942613 0.1532038 -0.37561843
000060 41 76 af bd 29 7f 5b be 60 50 be 3e 74 28 95 bd
       -0.08567477 -0.21435227 0.37170696 -0.072831064
000070 a3 0e 80 3e 11 88 14 bd 4b 65 45 3e a0 13 e7 3d
       0.25011167 -0.036262576 0.19276921 0.1128304
000080 c5 26 09 3f c6 00 72 3e be a2 3a 3e 38 a3 a4 3e
       0.5357478 0.23633108 0.18226144 0.32155776
000090 43 3b fe 3d ae 47 c0 3e 88 84 38 bd ca 92 0f bd
       0.12413647 0.37554687 -0.045048267 -0.0350521

gnn1_pool.bns.0.running_mean f4 [40]
000000 bc 07 b2 bd e0 b7 e5 3d e2 dd 17 be 54 d4 81 bd
       -0.086928815 0.11216712 -0.14830735 -0.063393265
000010 54 31 14 be a6 b2 0a be 1e 16 94 bd 07 bf 22 3e
       -0.14471942 -0.13544711 -0.07230781 0.15893184
000020 33 de 3d 3e 51 b8 bb bd 0c ed fc bd 4a 56 b1 bd
       0.18541794 -0.09166015 -0.123499006 -0.086590365
000030 4f da b0 3d 66 30 42 be 87 1a 16 3e 6c e9 89 bd
       0.08635389 -0.18963775 0.14658557 -0.06733975
000040 4e 2f 5b 3d 21 78 41 be f1 9d 5b bd 66 1b 87 be
       0.05351191 -0.18893482 -0.05361742 -0.2638809
000050 e5 52 9f 3d b5 d7 30 be 4f 5e 87 bd d0 50 59 be
       0.07779483 -0.17269786 -0.06609785 -0.21222234
000060 de 67 0d 3c 68 a3 8b be 6c 43 35 bc a2 82 83 3d
       0.008630721 -0.27273107 -0.011063438 0.064214006
000070 65 28 c1 bd 76 e3 bb 3d a1 2b b2 3c f5 a0 f8 bd
       -0.09431533 0.09174244 0.02174932 -0.12140075
000080 e9 fa 41 be 23 eb 19 be d5 6b 01 be 3a f6 d8 bd
       -0.18943371 -0.15031104 -0.12638791 -0.10593839
000090 9e 8e 04 3d a2 14 ee 3c 66 e5 37 3e 79 ba 1b bb
       0.032362573 0.029062573 0.17958602 -0.002376227

gnn1_pool.bns.0.running_var f4 [40]
000000 c1 53 08 3c f0 05 bc 3b b1 bc 79 3c 99 db 76 3c
       0.00832075 0.0057380125 0.015242741 0.015067005
000010 8b b5 55 3c a7 70 d9 3c cf 88 f0 3c bd 47 08 3c
       0.0130437715 0.026542975 0.02936211 0.008317885
000020 eb db c1 3c 70 bf 68 3c 07 11 41 3c f7 bf e5 3c
       0.023664435 0.0142057985 0.011783845 0.028045638
000030 6e d9 90 3b a0 c8 b2 3b cf d6 52 3c 1c 86 f0 3b
       0.004420451 0.0054560453 0.012868597 0.007340206
000040 7a f7 a3 3b 56 5d bc 3b 03 07 8a 3c dd 54 fa 3b
       0.0050038667 0.005748431 0.016849047 0.007639511
000050 5f 37 07 3c 2a 90 ec 3b 51 ba 16 3c e3 63 15 3d
       0.008252948 0.007219334 0.009199695 0.036472213
000060 5b c0 f6 3b fd d2 16 3c 3f 2a e6 3b 7c 3a fa 3b
       0.007530255 0.009205577 0.007024079 0.0076363664
000070 90 ef 43 3c ae f3 41 3c a4 6a 22 3b 3e 4f e4 3b
       0.011958972 0.011837883 0.00247828 0.006967454
000080 c9 73 36 3c 83 f4 61 3c dc a5 40 3c ab 9a 1d 3b
       0.011136004 0.013791206 0.011758294 0.0024048488
000090 b9 d9 e9 3b f0 26 fc 3b bb a5 31 3c 04 de 2b 3c
       0.0071365503 0.0076950714 0.010842736 0.010489944

gnn1_pool.bns.1.weight f4 [40]
000000 f1 c7 84 3f 1e e6 37 3f f8 80 80 3f f7 bc 9e 3f
       1.0373517 0.71835506 1.0039358 1.2401417
000010 f9 34 6c 3f 79 25 4a 3f d7 74 5f 3f e2 5b 5d 3f
       0.9226833 0.7896343 0.8728766 0.8646833
000020 91 5a 4f 3f 39 a6 99 3f 24 02 bf 3f 1e 96 96 3f
       0.8099757 1.2003852 1.4922528 1.1764562
000030 fa a3 76 3f 83 30 8d 3f a4 bf 5c 3f 5f dc b2 3f
       0.9634396 1.103043 0.8622992 1.3973502
000040 e3 52 5e 3f 0c dd 65 3f 4b 26 92 3f 12 2f 37 3f
       0.86845225 0.89790416 1.1417936 0.715562
000050 c6 ed 89 3f 01 bd 57 3f 17 f2 67 3f 1c 47 82 3f
       1.0775688 0.8427277 0.90603775 1.0177951
000060 d3 97 63 3f 51 15 55 3f 33 47 40 3f 21 7b 6c 3f
       0.8890354 0.8323565 0.7510864 0.9237538
000070 ad 7f aa 3f 94 f1 50 3f b6 26 a1 3f a3 61 9e 3f
       1.3320214 0.8161862 1.2589939 1.2373546
000080 b0 4c 73 3f 50 ee 8f 3f 02 a8 65 3f b7 a3 5c 3f
       0.9503889 1.1244602 0.89709485 0.8618731
000090 d1 a5 ac 3f 20 77 91 3f c0 40 6f 3f 8f f2 40 3f
       1.3488103 1.1364479 0.93458176 0.75370115

gnn1_pool.bns.1.bias f4 [40]
000000 ae 58 b9 3b 0f 4d 77 be 09 48 b6 3d 8f 0b 93 be
       0.0056563234 -0.2415049 0.08900458 -0.28719756
000010 d0 41 02 bf aa 80 07 bc 68 a7 d5 bd f2 59 0b be
       -0.5088167 -0.008270422 -0.10432321 -0.1360853
000020 67 65 dc 3c a3 41 d1 bd 50 51 2a be 53 e8 0a bd
       0.026903821 -0.10217597 -0.16632581 -0.033912968
000030 14 45 6f bc e9 de e5 be 22 08 c9 bd 56 2a e1 3c
       -0.014603872 -0.4489663 -0.09816004 0.027486008
000040 73 c0 11 be 93 75 7d bd 6e 15 b5 bd 89 31 d1 bd
       -0.1423357 -0.061879706 -0.08841978 -0.10214526
000050 82 a0 0d 3e f6 37 d1 be ed 2f 4d bd a5 a5 7d bd
       0.1383076 -0.40863007 -0.050094534 -0.06192555
000060 aa 96 00 be 41 99 45 3d 06 a4 af bd fd 8a 85 be
       -0.12557474 0.048241857 -0.08576207 -0.26082602
000070 e0 1f 9d be 59 ea 73 be e2 eb ae be 76 f6 51 be
       -0.3068838 -0.23819865 -0.3416434 -0.20504174
000080 3d fa 64 be c6 86 01 be ee b7 71 be b5 fe b2 bd
       -0.22361083 -0.12649068 -0.2360532 -0.08739988
000090 18 68 2f be a2 e6 e2 be 2b e8 1b be 5c 50 86 3d
       -0.17129552 -0.44316584 -0.15225284 0.06558296

gnn1_pool.bns.1.running_mean f4 [40]
000000 59 f7 70 bf 34 b7 c0 be 8a 7d ba be 63 b6 f0 bf
       -0.9412742 -0.37639773 -0.36423904 -1.880566
000010 b9 40 50 3f 1b 8a a3 3f 6a 92 66 3f 1f 87 fe 3e
       0.8134876 1.2776521 0.9006716 0.49712464
000020 ee 11 d7 3e a7 c7 d9 bf 39 1e e2 bf d0 2f c0 bf
       0.42005867 -1.7014054 -1.7665473 -1.5014591
000030 ae 00 0e c0 78 a2 ac 3f c0 11 a1 3f d5 db ff bf
       -2.2187915 1.3487082 1.2583542 -1.9988962
000040 f5 4e 98 bd 97 4a a2 bf e8 30 c0 bf 91 c8 b4 bd
       -0.07436935 -1.2679013 -1.5014925 -0.088273175
000050 48 ae c0 bf 6c 9e ee 3e f2 0b ac bf 25 91 9a bf
       -1.5053186 0.4660524 -1.3441145 -1.2075545
000060 36 f8 28 3f 9c be 18 c0 12 7d 09 3f 76 1c 11 40
       0.6600374 -2.3866339 0.5370647 2.267362
000070 c8 36 69 bf 62 b5 84 bf c0 d3 7b bf 3e 67 57 bf
       -0.91099215 -1.0367854 -0.9836998 -0.8414191
000080 1b 33 c8 bf fc 92 2e c0 a5 0b 0a c0 ab 89 97 3f
       -1.5640596 -2.7277212 -2.1569607 1.1838888
000090 8a e0 e1 be 44 f4 12 c0 2d d1 05 be ef 54 a3 bf
       -0.44116622 -2.2961588 -0.13068075 -1.2760295

gnn1_pool.bns.1.running_var f4 [40]
000000 d6 09 21 3f 13 e3 17 3f 1a 5b 11 40 5d 35 e5 3e
       0.62905633 0.5933086 2.2711854 0.44767275
000010 5c ca 00 3f 45 d0 a8 3f c6 67 de 3f c9 07 fb 3f
       0.50308776 1.3188559 1.7375419 1.9611751
000020 24 93 e5 3f 0c 70 91 3f 0c 92 bf 3f 2a bc 84 3f
       1.7935529 1.1362319 1.4966445 1.0369923
000030 e6 b5 91 3f 25 85 f2 3e 0c 53 c6 3f b4 c9 ac 3e
       1.1383636 0.47367206 1.5494094 0.33747637
000040 df cd a0 3f 89 c6 00 40 03 2b ce 3f fd 7e e3 3f
       1.2562827 2.0121176 1.6106876 1.7773129
000050 e0 d1 f4 3f 7b cb 98 3f 07 1f 8c 3f 19 30 6e 3f
       1.9126549 1.1937097 1.0946969 0.9304214
000060 db cf 0f 40 4f 96 0f 3f 87 2e 0a 40 2b ac 81 3f
       2.2470615 0.5608873 2.1590898 1.0130666
000070 3e ab e1 3e 4e 3d c3 3f 2c 56 c1 3e ed ad 16 3f
       0.4407596 1.5253084 0.37761056 0.5885914
000080 fc dc 96 3f 46 59 00 40 2d d1 8a 3f aa 49 94 3f
       1.1786189 2.0054488 1.0845085 1.158498
000090 e0 38 38 3f db af 8f 3f 1e 62 a6 3f 08 7e 73 3f
       0.71961784 1.1225542 1.2998693 0.95114183

gnn1_pool.bns.2.weight f4 [12]
000000 66 55 ae 3f 12 57 c0 3f 3b 6d 3e 40 17 42 97 40
       1.3619812 1.5026572 2.975417 4.7268176
000010 9f d7 86 40 a7 a2 87 40 e4 9f 43 3f 0d 45 bc 40
       4.213821 4.238605 0.7641585 5.883429
000020 2b 25 8e 40 65 21 80 3f 6a d8 82 40 75 01 12 41
       4.442037 1.0010191 4.0889177 9.125356

gnn1_pool.bns.2.bias f4 [12]
000000 e1 e5 1a bf 1b 7e 1b bf 55 e9 43 bf 61 77 be 3f
       -0.6050702 -0.60739297 -0.7652791 1.4880182
000010 e3 bb 51 3f d7 e8 40 3f 25 11 1e bf c7 f6 09 40
       0.8192732 0.75355285 -0.6174491 2.155687
000020 d4 cd f4 3e 73 a0 51 bf bd b3 0c 3f fd ec d7 40
       0.47813284 -0.8188545 0.5496176 6.747679

gnn1_pool.bns.2.running_mean f4 [12]
000000 49 32 68 3f a1 f8 42 3f b6 76 55 bf 8b d8 e8 bd
       0.9070173 0.7616063 -0.83384264 -0.11369427
000010 5a 25 8c bf bb f4 2a be 4a 5f 04 3f 12 77 42 3f
       -1.0948899 -0.1669492 0.517079 0.75962937
000020 18 dd 09 3f 0e 4b 45 3f 9e ae de 3b 35 38 f5 3f
       0.5385299 0.7706765 0.0067957183 1.9157778

gnn1_pool.bns.2.running_var f4 [12]
000000 2c 91 37 3f a5 87 14 3f 3a 25 50 3f fc 45 f2 3e
       0.7170589 0.5801948 0.81306803 0.4731902
000010 79 af d0 3e ab 5d 98 3e 21 20 3d 3f a0 d9 c3 3e
       0.40758875 0.29758963 0.7387715 0.38251972
000020 a7 84 cb 3e 84 70 85 3f 43 0e a9 3e bd 4c 55 40
       0.39749643 1.0424962 0.33018693 3.3328087

gnn1_embed.convs.0.bias f4 [40]
000000 dd a9 44 bd 47 fd 94 3e 37 c3 36 3d 13 4c e7 bb
       -0.048013557 0.29099485 0.044619765 -0.0070586293
000010 2d c4 ff bd ea fe 3d bd d9 5b 93 bd 03 4c 86 bd
       -0.124885894 -0.046385683 -0.07195253 -0.06557467
000020 43 ab 69 bd 75 57 82 bd 6a 12 32 3e 36 a5 aa bd
       -0.057048094 -0.06364337 0.17389837 -0.08332293
000030 7a 0d 82 bd af bb f5 3c 1a 1b b2 3c 05 49 07 be
       -0.06350227 0.029996721 0.021741439 -0.13211448
000040 1a 1a 94 bd a3 4d 0e be 62 ba b8 bd 9c db 03 3d
       -0.07231541 -0.13896804 -0.09019925 0.032191858
000050 bc 26 e6 bd e1 7b 17 3e 2b 41 c1 bd 2e 06 86 bc
       -0.11237857 0.1479335 -0.09436258 -0.016360369
000060 f9 25 30 bd 99 cd b9 3e 16 f3 50 be 4a 00 0e be
       -0.043004964 0.3628967 -0.2040523 -0.13867298
000070 cd 09 d7 3d df d2 81 3e 22 04 05 3e 67 a6 90 bd
       0.10499916 0.25356194 0.12989858 -0.07062989
000080 91 48 8e 3d 04 bf 92 ba eb 81 40 3d 30 c5 c4 ba
       0.06947435 -0.0011195843 0.0469989 -0.001501238
000090 52 e0 6d be 8e 71 28 bd ca e9 d6 bc 70 9e e4 3d
       -0.23230103 -0.04112392 -0.026234526 0.11163032

gnn1_embed.convs.0.lin.weight f4 [40, 14]
000000 6c b7 c6 bd f9 d7 b5 be 8d 17 06 be ad f6 d9 3d
       -0.09702954 -0.35516337 -0.13094921 0.10642753
000010 a8 48 ce 3c c1 37 fd 3c ba 67 ef 3e d5 bc 05 3f
       0.02518113 0.030910375 0.46758825 0.5224126
000020 5e ec bc 3c da 70 0e bf da 70 c3 3e 28 bc bc 3e
       0.023061927 -0.5564095 0.38172036 0.36862302
000030 01 df d2 bc 74 85 0d 3e bf 55 ab 3d 37 1d 8c be
       -0.025741102 0.1382044 0.08365964 -0.2736604
000040 d5 20 a6 3d d2 d0 89 3e 66 06 db 3e 82 04 02 bf
       0.08111731 0.2691713 0.4277832 -0.5078813
000050 04 b6 54 be 39 d9 ec be 8b 5b 5b be 7c ca 07 bf
       -0.20772558 -0.46259478 -0.2142164 -0.5304334
000060 95 d8 05 3f c4 d4 91 bd 1c 1b a5 3d 46 48 29 3c
       0.522836 -0.0712066 0.08061811 0.010332173
000070 78 d9 8b 3e 53 26 36 bd 6c ce 26 3e 0f 40 a1 3e
       0.27314353 -0.044470143 0.16289681 0.31494185
000080 2e 17 57 be 7f 5c 04 3d 5c 99 b2 3e 6c 21 9f be
       -0.21004936 0.032314774 0.3488263 -0.31080186
000090 97 ae f4 be fd bf 25 be c1 81 67 3e 64 73 8e be
       -0.4778945 -0.16186519 0.22608091 -0.2782241
0000a0 51 f1 fd be 95 62 93 bd 55 f0 9f be 3e 16 86 3e
       -0.49598172 -0.071965374 -0.31238046 0.26188844
0000b0 d2 df a8 be 82 87 b0 bd 51 90 d7 3e a7 af 23 bb
       -0.3298326 -0.08619596 0.42102292 -0.0024976523
0000c0 7b 30 01 bb ef c8 c2 3d 22 c1 f8 bd b9 f1 da be
       -0.0019712735 0.09510981 -0.12146212 -0.42762545
0000d0 a7 7b 5d be 64 e0 6c be f4 7f b1 3e 32 5a ad be
       -0.21629201 -0.23132473 0.34667933 -0.33857876
0000e0 df ff 92 bd 67 7d c4 3d 1c fa 27 be b0 1f 53 be
       -0.0717771 0.09594231 -0.16404003 -0.20617557
0000f0 f9 a6 b2 be 27 a4 cf 3e bf 7d 88 bd 16 45 e8 3c
       -0.34893015 0.40554926 -0.06664609 0.028353255
000100 24 22 b6 3e 2c b9 da 3e 83 27 87 3e 25 53 02 3f
       0.35572922 0.427194 0.26397333 0.5090812
000110 0b 1d 5c be e6 71 f7 be 22 dc 02 be 33 54 8e be
       -0.21495454 -0.48329085 -0.12779287 -0.27798614
000120 15 32 bb 3e db 31 2a 3d 34 4c a8 be fc cf b5 bd
       0.36561647 0.041551452 -0.32870638 -0.088775605
000130 6c ba 22 3f de 50 2c bd ec 42 23 3e a5 5d e3 3e
       0.6356571 -0.04206931 0.15943497 0.44407383
000140 74 80 82 3e e7 12 87 be bd 7c 0f 3e ad a4 49 3e
       0.25488627 -0.2638161 0.14012428 0.19691725
000150 74 6f 11 be 16 ed e4 be b7 96 ba 3d d4 8f 72 3e
       -0.14202672 -0.44712132 0.09110778 0.23687679
000160 f2 b6 52 3e 2f 28 0e 3f d7 0e 98 3e ff aa 7b 3d
       0.205776 0.55530065 0.29698822 0.06144237
000170 80 21 6b be 59 5b 01 3e 4c 09 aa 3e 35 e8 ba be
       -0.22961998 0.12632503 0.33210218 -0.36505285
000180 bd 59 fe bb 87 bc 49 3c 6b 28 42 3e 23 b0 d9 3e
       -0.0077621625 0.012313015 0.1896073 0.42517194
000190 0f 6b 80 3e 3e fb c4 be 35 2d cb bd d7 9a 16 bc
       0.2508168 -0.38472933 -0.09920732 -0.00919219
0001a0 bb ab 9f 3e f4 72 24 3e 11 64 62 be 94 ba 09 3d
       0.31185707 0.16059476 -0.22108485 0.0336252
0001b0 15 32 b7 be 14 3f 1d 3c 72 ad 9e be 83 48 bc 3e
       -0.35780397 0.0095975585 -0.30991703 0.36774072
0001c0 5d e4 5d 3e b5 5c aa be a2 e5 0d be 3a 12 99 be
       0.21669145 -0.33273855 -0.13857129 -0.29896718
0001d0 4a a1 b5 bd 8e ac b6 3d 65 69 71 be ee ae 1b 3e
       -0.08868654 0.08919631 -0.23575361 0.15203449
0001e0 2e f3 b6 3d de dc b0 be 9b d7 a2 be e3 d8 42 be
       0.089331016 -0.34543508 -0.3180512 -0.19028048
0001f0 f3 94 5c 3e 5f a5 6e be 3f cf 83 bd bc d5 55 3e
       0.21541195 -0.23305272 -0.064360134 0.20882314
000200 76 34 99 3e 0e 88 07 3e 05 48 71 3e 1c c0 10 3e
       0.29922837 0.13235494 0.2356263 0.14135784
000210 d3 be 70 3e ea 86 f5 be 17 b7 9f be d8 e4 ab 3e
       0.23510294 -0.47954494 -0.31194374 0.3357303
000220 ad 6e 65 be e7 35 83 be 3b 19 4e bc e0 05 b2 bd
       -0.224055 -0.25627062 -0.012579258 -0.08692527
000230 c6 12 0c 3b 82 ff 86 be c1 d6 06 be ff fa 9b bd
       0.0021373495 -0.26366812 -0.1316786 -0.07616233
000240 87 0c e3 be 13 f8 64 3e 25 7f 4e be b7 c3 bf 3e
       -0.44345495 0.22360258 -0.2016569 0.37454006
000250 a2 82 a5 bc db 4f 90 be d9 1f 91 bd 4b 37 7a bc
       -0.020203892 -0.28185925 -0.070861526 -0.015271972
000260 a7 13 7d 3e 59 06 da bd 18 00 b4 3e 99 d0 84 3e
       0.24714528 -0.10645742 0.35156322 0.25940397
000270 1d 9f 30 3e 70 06 b4 bc b7 e1 33 be f3 da b8 bd
       0.17248197 -0.021975726 -0.17566572 -0.09026136
000280 0b 2b e0 ba 71 b6 04 bf c4 63 dd 3d aa 0c f3 be
       -0.0017102672 -0.51840883 0.108100444 -0.474706
000290 2b 8f 51 3d 74 4c 1b be 05 64 a2 3d 5b 8d 1e be
       0.051161926 -0.15165883 0.079292335 -0.1548361
0002a0 81 17 a2 3e 8e 0b 72 be 1c 3a a0 3e 50 ec 35 bc
       0.31658557 -0.2363722 0.31294334 -0.011103705
0002b0 da 3c 6b be fe eb 04 bf e8 e5 a6 3c ec 02 4a be
       -0.22972432 -0.51922596 0.0203733 -0.19727677
0002c0 78 a5 bf 3e 33 7f 86 3e 75 1f e9 3e 0b 67 1f 3e
       0.3743093 0.2626892 0.45531812 0.15566652
0002d0 d8 eb 77 3b f6 c8 a9 be 22 0c 9a bd 63 fe 58 be
       0.0037829783 -0.33161134 -0.075218454 -0.21190791
0002e0 68 5c b2 3d d0 b4 f2 bd b5 53 63 3e 1e 48 d4 be
       0.08709031 -0.118508935 0.221999 -0.4146127
0002f0 eb 1c c4 be 66 87 a6 be 95 29 3d bf 99 7c 91 3e
       -0.38303313 -0.32525176 -0.73891574 0.28415373
000300 75 07 38 bd 9f a1 be 3e 54 0e 9d bd 24 12 ba 3d
       -0.044928987 0.37232682 -0.076687485 0.09085491
000310 77 f7 42 bd cf 99 83 be c3 92 cc bd a4 1c d4 3e
       -0.047599282 -0.25703284 -0.0998893 0.414281
000320 2d c8 bf 3d 37 3a 72 3e b0 c3 a8 bd 25 a2 3e 3d
       0.093643524 0.2365502 -0.082404494 0.04654135
000330 41 52 a9 be b2 38 a0 3e 32 c3 bc 3e 30 4e 91 be
       -0.33070567 0.31293255 0.36867672 -0.28379965
000340 06 3b cf be 15 dc c0 3d 1e d4 d4 3d 81 46 23 3e
       -0.4047472 0.09416977 0.10392021 0.15944864
000350 95 06 af 3d c1 fc 0c be 69 3b 0b bf 76 02 05 bf
       0.08546177 -0.13768293 -0.5438753 -0.5195688
000360 9e 89 1b 3e 0a 36 ec 3e 60 cb 0b bd 39 c0 93 3e
       0.15189216 0.4613498 -0.0341295 0.28857592
000370 35 0d b2 3c 6f c0 ba bd 4e c9 ad 3e 1b 4d 0f 3e
       0.021734813 -0.09118735 0.33942646 0.13994257
000380 8e 43 94 bc 05 85 57 3e e7 f8 85 3e 50 af 12 be
       -0.018098619 0.21046837 0.2616646 -0.14324689
000390 44 ba a5 3e bb d0 03 3e 9e 94 9a 3e 1d 52 d5 3e
       0.32368672 0.12872593 0.3019151 0.4166421
0003a0 97 92 0d be 13 82 c4 be 7a 94 93 3e 95 ee 19 bf
       -0.13825451 -0.3838049 0.28824216 -0.6012967
0003b0 0e 2c fd 3d 0a b1 25 be 34 b9 bb 3e cc 16 47 3e
       0.123619184 -0.16180816 0.36664736 0.1944229
0003c0 b0 4a 84 be 72 04 4c 3d 5b cc 73 be c9 59 95 be
       -0.25838232 0.049808927 -0.23808424 -0.29170063
0003d0 f4 7d d3 be 0e 44 1e be cc 37 80 bd b2 c3 01 bf
       -0.41307032 -0.15455648 -0.062606424 -0.5068923
0003e0 1d 2d 66 3d 0c 78 55 bd 2e a8 33 3e be a7 bf bd
       0.056195367 -0.05211644 0.17544624 -0.09358166
0003f0 19 da ee 3d ac 7e f6 3d 04 25 70 be 05 27 25 be
       0.116626926 0.120358795 -0.2345162 -0.16128166

gnn1_embed.convs.1.bias f4 [40]
000000 80 de 8f 3d e8 ab 01 bd e4 ed 8b bd 4f 2f 4c 3d
       0.070248604 -0.031658083 -0.068324834 0.049849804
000010 ca ae 10 bd 8b 93 a1 3d 7e 3f 1d 3c 2a 1c cf bd
       -0.03532294 0.0788947 0.009597657 -0.10112794
000020 7e e9 fa 3d 09 b8 69 bd e5 86 77 3d af 6a 99 3d
       0.12251566 -0.057060275 0.06043138 0.074910514
000030 e2 82 dc 3d 7c 6a 7c bd 38 a0 09 3e 69 16 f2 3d
       0.107671514 -0.06162499 0.13440025 0.11820681
000040 f2 1a 64 bd 5b 4e c2 bb 4a c3 5f 3c ea d6 0f 3d
       -0.05568976 -0.005929751 0.0136574 0.035117067
000050 af 54 07 be de 9a 5b 3d 1b 39 1b bc 04 43 27 be
       -0.13215898 0.05361449 -0.009474064 -0.16334158
000060 65 91 56 bd 30 3a c1 3d 3f 4a ff 3c 31 2a fc bb
       -0.052384753 0.094349265 0.031163333 -0.0076954593
000070 55 d8 77 3d a4 e5 6a 3d 8c 86 5a 3d 55 5a b9 3c
       0.060509045 0.05734791 0.05335097 0.022626081
000080 ba 75 85 bc f4 21 86 bc 79 6d 77 bd ba a1 bf bc
       -0.016291488 -0.016373612 -0.060407136 -0.023392547
000090 ed e6 fc bb 5f be bd 3d dc 53 27 3d e6 b5 85 3d
       -0.007717958 0.09264826 0.04085146 0.06528835

gnn1_embed.convs.1.lin.weight f4 [40, 40]
000000 98 81 4b 3e 8b 45 d2 be 8a df 35 be 35 7e 82 3d
       0.19873655 -0.41068682 -0.17761055 0.06371728
000010 2f bb 88 be 3c 23 38 be 4b f3 96 3d 54 a5 28 bd
       -0.2670531 -0.17982191 0.07370623 -0.041173294
000020 3f f2 b5 bc 6d 12 8b 3e 91 b7 1e be 67 35 86 3e
       -0.022210239 0.27162495 -0.15499713 0.26212618
000030 d5 7b 53 be 2d f5 7b be 25 eb f7 3d 5f 66 6a 3e
       -0.20652707 -0.24605246 0.12105397 0.22890614
000040 cd 12 4b 3d 3a ba 5e 3a df d8 8a bd bb 7b d4 bd
       0.049578477 0.0008496378 -0.06779646 -0.10375162
000050 44 63 8c 3d a4 a1 66 be 0a ff 86 be dd 16 a4 be
       0.06854871 -0.22522599 -0.26366454 -0.32048693
000060 bf 51 18 3e a5 46 77 bd 9a bc eb bd 51 1e 0f 3d
       0.14874934 -0.060370106 -0.11510582 0.03494102
000070 22 93 a7 be 16 7b bc be 8f 08 a2 be 99 03 ab bd
       -0.3272944 -0.36812657 -0.31647155 -0.083502956
000080 e9 ad 26 3c 63 bf 6a 3d cf 26 a4 be 32 51 c8 3e
       0.010173299 0.057311427 -0.3206086 0.39124447
000090 c7 33 ad be 3e 3e 36 3e 12 69 55 be 4e 3a c0 3e
       -0.33828565 0.17797181 -0.20840862 0.37544483
0000a0 8c 18 f6 be b3 c2 e7 3d 67 5f 8a be c5 f0 42 3d
       -0.48065603 0.11316433 -0.2702591 0.047592897
0000b0 f8 10 aa be 44 93 24 bf 7a 67 f9 ba f3 11 39 be
       -0.3321607 -0.6428721 -0.0019028031 -0.18073253
0000c0 56 e4 35 3c d2 01 48 3e db 79 ee 3d 8f cf f1 bd
       0.011101803 0.19531944 0.11644336 -0.11807167
0000d0 61 6f 20 bc cf 89 5a 3d b1 de 40 be f8 89 93 3b
       -0.00979218 0.05335408 -0.1883495 0.004502531
0000e0 a8 fb 41 be 1a 5f ad 3d 26 7b 18 3e ea f1 eb bd
       -0.18943655 0.08465405 0.14890727 -0.11520751
0000f0 a3 ec ee bd 35 28 49 be 7f 02 3c 3e 57 48 59 3e
       -0.116662286 -0.19644244 0.18360327 0.21219002
000100 1b 46 f2 bd 38 ab 3c be c8 3e 82 3e 00 d1 bc bd
       -0.11829778 -0.1842469 0.25438523 -0.09219551
000110 46 08 8d 3e 7c 7c b3 3e b5 88 c1 bd 2d 68 31 3e
       0.27545375 0.35055912 -0.09449903 0.17324896
000120 32 c4 ae bd f8 6d cc be 3d cc 34 3d 97 c7 e5 3e
       -0.08533515 -0.3992765 0.04414009 0.44878837
000130 23 e4 9b 3e 0a 84 de bd ae 23 b3 3b c3 01 69 3e
       0.30447492 -0.10865028 0.0054669 0.22754578
000140 3f 63 10 3e 11 cc 0a be 44 3d e4 3c 6d 62 d3 be
       0.1410036 -0.13554408 0.027861245 -0.4128603
000150 1f 9a 64 3e 65 3f 96 be 80 63 5d 3d 07 15 83 3d
       0.22324418 -0.2934524 0.05404997 0.06400495
000160 93 8e 3f be 85 dd 54 bd b7 46 7f 3e 35 2d 58 3e
       -0.18706731 -0.05196907 0.2492932 0.21110995
000170 3a fd 89 3e 0d cb e9 be 0d 93 0a 3d 1d fb 22 3e
       0.2695101 -0.45662728 0.033831645 0.15916105
000180 af 7b 19 3e 93 02 53 3e 81 8a 57 3e d1 a6 84 3e
       0.14988588 0.2060645 0.21048929 0.2590852
000190 93 a0 69 be 10 df 18 3e cc 71 0f be 21 32 71 3e
       -0.2281516 0.14928842 -0.14008254 0.23554279
0001a0 20 36 22 be 6c 19 78 be 21 56 aa 3d 3a 82 d9 bd
       -0.1584096 -0.24228448 0.08317209 -0.10620542
0001b0 78 bb b5 bd 09 79 d1 be 05 83 3b 3e 04 e7 7d 3d
       -0.088736475 -0.40912655 0.18311699 0.06198789
0001c0 24 b4 d4 bc b0 79 b9 3d 13 94 2a be d7 bb 87 be
       -0.025964804 0.09056413 -0.16658048 -0.26510498
0001d0 c8 43 1e be 6f 69 e1 be 65 2b 5a 3e 2c 45 98 3e
       -0.15455544 -0.44025752 0.21305616 0.29740274
0001e0 c8 11 75 bc 95 71 b7 bc 52 53 60 be 47 cb 43 be
       -0.014957853 -0.022393027 -0.21906784 -0.19120513
0001f0 f0 ec 98 3e dc 4f 9d 3e 92 a6 28 bd 8f 97 79 be
       0.2986827 0.3072499 -0.04117448 -0.24374221
000200 7a 76 4f bc 86 22 8f 3e 48 ba 50 3e 36 9b 81 bd
       -0.012662524 0.27956027 0.2038356 -0.06328432
000210 80 03 16 be c3 2b ad 3e 45 70 39 3e 21 ee 59 bd
       -0.14649773 0.3382245 0.18109234 -0.053205613
000220 ed f1 97 bd 9b f0 4e be db f1 a7 3e 1b 11 bf be
       -0.074191906 -0.20208971 0.3280171 -0.37317738
000230 8c 7a 46 3e ce b0 e0 bc 88 ad eb 3d 40 d9 0f 3e
       0.19382685 -0.027428057 0.11507708 0.14047718
000240 1e 57 1c 3e 70 53 70 be 94 06 c2 bd b5 d4 cf be
       0.15267608 -0.23469329 -0.09473911 -0.4059197
000250 2a b7 03 3f 96 48 98 3c 98 eb 26 3e 14 1a b1 3e
       0.5145136 0.0185893 0.1630081 0.3459021
000260 a4 6f ce 3d 93 59 94 be 82 61 61 3c 1d 6b 74 be
       0.100798875 -0.2897459 0.013756158 -0.23868985
000270 af 6b c8 3e da c6 1b 3e f8 b9 f2 bd e9 1d 72 3e
       0.39144656 0.15212575 -0.11851877 0.23644222
000280 85 f5 9e 3d 70 f8 09 3c f7 72 28 bc ab ec c6 3e
       0.07761673 0.0084210485 -0.010281316 0.38852438
000290 e4 4f 86 be 9d cb e2 3e e5 8a 42 be 0d bc 90 be
       -0.26232827 0.4429597 -0.18998297 -0.2826847
0002a0 76 7a 96 3e f0 b3 8d 3e d5 8b 64 3e f1 c5 3f 3e
       0.29390305 0.27676344 0.22318967 0.18727852
0002b0 fe 1f 4b 3e c7 80 ad 3e 9d 32 9b 3d 4a 9b 7c be
       0.19836423 0.33887312 0.07578013 -0.24668613
0002c0 3c 3e 4d 3e 22 06 0d be e5 4b aa bd e2 8d 5f 3e
       0.20043272 -0.1377187 -0.08315257 0.21831468
0002d0 ca df 4f 3e 77 8d 09 3d f4 81 a1 bd 7e 44 ad be
       0.20300213 0.033582177 -0.07886115 -0.33841318
0002e0 0a 69 e3 bd 13 30 1e be fe eb d5 3e 25 1e 0c be
       -0.11104019 -0.15448026 0.4178161 -0.13683374
0002f0 0a 9e b6 3e 6c 03 15 be 43 e4 4e 3d 54 a3 3b 3e
       0.3566745 -0.14552087 0.050510656 0.18324023
000300 70 a7 4b 3e 99 e2 84 3d 88 bc 86 3e a4 3c 5d be
       0.19888091 0.064885326 0.26315713 -0.21605164
000310 53 b7 1a bd 86 4c 3a bd 1e 9a 1b 3d ba 0e 1f be
       -0.037772488 -0.045483135 0.037988774 -0.15532961
000320 cf db 4d be 62 86 1d bd 70 4e 88 be 5e 80 7e 3e
       -0.20103382 -0.038458236 -0.26622343 0.24853656
000330 a2 5c 07 3f 2f 9c 11 3e 7b 3a 6d 3d d9 71 f3 bd
       0.5287572 0.14219736 0.0579171 -0.11886949
000340 6d 6e 61 be 3b 83 08 be b1 39 d5 3d d9 46 76 be
       -0.2201478 -0.1333131 0.104113944 -0.24050464
000350 a7 50 66 3e 48 8b f1 3d 8d ab b3 bd e4 ec b3 3e
       0.22491704 0.11794144 -0.08772955 0.3514167
000360 7c 34 2c 3e 78 3f 23 bd ce 11 80 3e 61 f4 a0 be
       0.16816896 -0.03985545 0.25013584 -0.31436446
000370 ee a6 77 3e c6 23 81 bd 9f 60 c6 3e 31 b0 90 bd
       0.24184772 -0.06305651 0.3874559 -0.07064856
000380 78 c5 5b 3e cc aa 6e be ec 3d 83 bd da 28 54 bd
       0.21462047 -0.23307341 -0.06408295 -0.05179677
000390 3b 2f 2a 3e b5 ff 0e 3e 27 a3 b1 3e be 10 18 be
       0.1661958 0.13964732 0.34694788 -0.14850137
0003a0 0b 54 87 be 29 bc f6 bc a7 15 94 3e 41 02 78 be
       -0.26431307 -0.030119019 0.2892277 -0.2421961
0003b0 4d f7 38 3e f8 04 3c be eb 13 42 be b3 bb db 3d
       0.18063088 -0.1836127 -0.1895291 0.1072916
0003c0 de 33 89 be 27 54 d9 bc ca d6 a5 bd 1c 11 40 be
       -0.26797384 -0.026529385 -0.080976084 -0.18756527
0003d0 c0 1d af 3d 2e 9a e2 3d 02 aa bb be f4 2f 06 bf
       0.08550596 0.11064564 -0.36653143 -0.5241692
0003e0 b7 98 99 be f1 90 e1 be d8 bd 9c 3d 0f 94 4d be
       -0.29999325 -0.44055894 0.07653397 -0.20076011
0003f0 7b de 5a 3e d4 e2 51 bd 14 c3 5d be 52 f4 92 bd
       0.21373932 -0.05124171 -0.21656448 -0.07175507
