checkpoints/model_hidden_unit_40_diffpool_clusters_8_4_seed_8.pth (torch, 135773 bytes, 94 tensors)

gnn1_pool.convs.0.bias f4 [40]
00000000: 65b7 723e c5f3 993d 020f 373e 25d6 e3bd
00000010: 556a b8bc e8a2 dbbc 0c63 893b 5ddb 35be
00000020: 2ea3 8c3d 0977 d63d f32e aa3d c10a 953d
00000030: a081 6c3e 84b4 d03b 8cdf 043d 4e8a d93d
00000040: 3ace 203d 0172 ae3d f770 46be d92e b43c
00000050: c09e 07be 50dd 89bd 64cf 34be b0a8 aebd
00000060: fa60 8bbe f7c5 043d fa59 7f3d 985d 0bbe
00000070: f9cb 0d3e 94bc 903d 0c30 183b 636a 89bd
00000080: a428 aa3c 377d c3bd f6f2 44be 1e67 9cbc
00000090: 047a bfbc 201f babd 9697 c83d 45f1 8bbc
0.23702772 0.075171985 0.17876819 -0.11124829 -0.02251164 -0.026811078 0.0041927155 -0.17759462
0.068670616 0.10471923 0.08309736 0.07277442 0.23096323 0.0063691754 0.032439753 0.10622083
0.039259173 0.08517838 -0.1937903 0.021994995 -0.13244152 -0.06731665 -0.17657238 -0.08528268
-0.27222425 0.032415356 0.062341668 -0.13609922 0.1384734 0.070672184 0.0023221998 -0.06709745
0.020771332 -0.09545367 -0.19233307 -0.019092139 -0.023373611 -0.09087968 0.09794538 -0.01708282

gnn1_pool.convs.0.lin.weight f4 [40, 14]
00000000: b87e f33c 3db3 0bbe 43e5 513e bca4 b1be
00000010: ff26 8dbd f11c b73e d0ee 2d3e 8ad4 58be
00000020: 4854 303c f704 08be dc68 d6bd f4ad a3bd
00000030: b037 74bd 45cc ef3d b854 36be c3cb 0fbf
00000040: 887e 833e 7ad4 f5bb 9b2b 983e 0618 efbd
00000050: f8f0 6ebe de19 0e3e 9e19 923d 134d 8fbe
00000060: 3d63 b53e cc3d f3bd 1b21 073e e44b ac3e
00000070: 7ba3 e1be e093 5dbd 6c8d 7fbe 8c87 27bd
00000080: 93e5 08bb 1055 17be 3bd2 633e dad1 c63e
00000090: f2b3 e0bd 70d0 afbc f78f 3fbe 74ee eb3d
000000a0: 0b6d a6be 2936 4c3e f1f3 8abe f331 823e
000000b0: 7ca5 b23e f967 88be 00d5 dd3e 971c 83bb
000000c0: cf4c f5bd a716 ef3d a078 cabc cef4 aebe
000000d0: 0cf2 0fbe 9abf e0bd 944f 983e 2f9e 18be
000000e0: cc0b 60be 22b8 d03d 93c6 553d e8d9 81bd
000000f0: 0aab 18bf 10f0 d03d 0846 93bd a2da 8dbe
00000100: 04a4 6bbe a917 82be 0c59 a03e 3a10 d3be
00000110: 998f aabc 28cb 3cbe c7a5 92be 32e7 c5be
00000120: cf63 3f3e a3e4 023e ad91 3fbe a0bd a0be
00000130: de4f d0bd 0dc7 8ebe 56c2 11bd 3e1b cb3e
00000140: cd6d 69be 137d 9fbe 0730 ce3e 1d8a 543e
00000150: 95e2 d4be 18f8 073e 4dba 08be 977e edbd
00000160: e173 a0bd 20e5 893e 53fa 6c3e 5850 c6be
00000170: 4577 e53c 7fd1 9dbe 069f 22be 4203 e3be
00000180: f962 1ebd 7593 34be c7ad 7f3e af5a 523e
00000190: 47df e2ba d092 3c3e c2d9 2fbf 354f 193e
000001a0: 22a9 34bf 21fa 2c3c ecc9 163e ceb6 9fbc
000001b0: 52d2 81be ffc3 10bf fa71 febe 1b45 8d3e
000001c0: 340c 433e aa50 9b3e fec1 a1bd 4a50 6a3e
000001d0: 5f65 da3e dca6 a1bd fbe9 7a3e b0b8 d43e
000001e0: 4b5d d73e 0c09 043e 2d3c 093d 89b7 953d
000001f0: cac0 05be 8ca3 183e ace9 063e a204 fdbd
00000200: ab23 1cbf 497f d9be bcab 17be af97 a4be
00000210: 8ee5 08bf d4ea ae3c 05bd ad3d bd08 13bd
00000220: 4831 eabd bd32 a03d 1392 45bd 52a0 753e
00000230: 9620 f3bd 71f4 db3e 55a6 10be f3f5 83be
00000240: 7f41 243e bf9e 5e3e e54e 3c3e 545d 00bd
00000250: fb94 90be a841 94bd 373c 18be e58b 973d
00000260: 9748 aa3d 9c59 09be c2f6 b4be 6017 9dbe
00000270: dcbc dcbe 1166 ffbd 9a75 803e db2e 82be
00000280: de93 0bbe a068 56be c50c ce3b 73b2 25be
00000290: 9676 80be f0a5 5ebd 0c45 393e 67f6 f6bd
000002a0: 0ff6 6ebe d2fc 89bd 2533 893c 6761 223e
000002b0: 4cd2 903e 9e71 bebc 849b 243e 49d8 383e
000002c0: 4e44 803d a1c4 13be 372a 66bc fc90 75be
000002d0: 29d8 743e 97a0 863e 3bbc 503e ef0e 103e
000002e0: 202d e1be 5787 3bbe a00c c6be d9d1 91be
000002f0: f897 fbbe 562e 293e 5ded e83d 7bc7 2c3e
00000300: 6add dc3c 4e26 00be 9f9b 19be 3df7 003e
00000310: c0ff bb3d 41a2 a7be 6baa 8f3d de17 b43e
00000320: 1dc5 cbbe 69e0 983c e84f 253e 4862 903e
00000330: 86d2 e63d 8337 90be e89e fdbe 2b20 e53d
00000340: 720b 7b3e 7f48 13bf 7bb5 9a3e 4fee 1bbc
00000350: 0a89 553e 9b9e 2c3e 9bca 773e f873 50be
00000360: 200e 29be faf4 9c3e cb30 8d3e 0b99 803c
00000370: ac8f 8fbd ead1 48be c848 52be 72fe c13a
00000380: 594d 823e b66e 5fbd afe4 81be 5c11 6abe
00000390: 90ee 91be cc01 ce3d bed9 823e bd1d 4a3d
000003a0: ce8a d93d cafc 9fbd cad8 51bd 5dcb 2cbe
000003b0: 2b2f 08bd 0e58 4cbd d177 2bbe 33b2 243e
000003c0: c97f 853d 852c b4bd f746 963e 7e1c 35be
000003d0: 2bc2 89bd f028 96be ecef 6ebe 3877 b0be
000003e0: 0407 2f3e d7b5 73bd 90ed 3d3e 803d 66be
000003f0: 53ff 21be 139a 51be 1c03 713d 5776 d1be
0.02972351 -0.13642593 0.20497613 -0.34695995 -0.068922035 0.35764268 0.16985631 -0.21174827
0.010762282 -0.13283144 -0.10469219 -0.07992163 -0.05962342 0.11708883 -0.17805755 -0.5617029
0.25682473 -0.007502136 0.29720768 -0.11674504 -0.2333411 0.13877055 0.07133792 -0.2798849
0.35427275 -0.11877021 0.13196222 0.3365165 -0.44070038 -0.054096103 -0.24956292 -0.040900752
-0.002088879 -0.14778543 0.22248165 0.3883198 -0.10971822 -0.021461695 -0.18707262 0.11520091
-0.32505068 0.19942535 -0.27139238 0.25428733 0.3489188 -0.26641825 0.4332657 -0.004001211
-0.11977541 0.116742425 -0.024715722 -0.34171146 -0.14057177 -0.10974045 0.29748213 -0.14904092
-0.218795 0.101913705 0.05219133 -0.063403904 -0.59635985 0.10202038 -0.07191092 -0.27705866
-0.23011786 -0.25408676 0.31317937 -0.41223317 -0.020820426 -0.18436873 -0.28642103 -0.3865295
0.18690418 0.1278253 -0.18707915 -0.31394672 -0.101714835 -0.2788624 -0.035585724 0.39669222
-0.22795792 -0.31150112 0.40271017 0.20755811 -0.41579118 0.13278234 -0.13352318 -0.11596411
-0.07834602 0.2693262 0.23142366 -0.38733172 0.028010974 -0.30823895 -0.15880975 -0.44338423
-0.038668606 -0.17634375 0.24968635 0.20542406 -0.0017308973 0.1841538 -0.6869165 0.14971621
-0.70570576 0.010557682 0.14725465 -0.019496348 -0.25355774 -0.56549066 -0.49696332 0.27591786
0.19047624 0.3033498 -0.07898329 0.2288219 0.42655465 -0.07893154 0.24503319 0.41547155
0.42063364 0.12894076 0.033504654 0.07310397 -0.13061824 0.14906138 0.13175076 -0.12354399
-0.60991925 -0.42479923 -0.14811605 -0.32146975 -0.5347527 0.02135221 0.08483318 -0.035897005
-0.11435181 0.078221776 -0.04823501 0.23986939 -0.1187145 0.42959931 -0.1412595 -0.25773582
0.1604061 0.21740244 0.18389471 -0.031339005 -0.28238663 -0.072390854 -0.1486672 0.0739973
0.08314627 -0.1341309 -0.3534451 -0.30681896 -0.43112838 -0.124706395 0.25089723 -0.25426373
-0.13630626 -0.20938349 0.0062881433 -0.16181354 -0.25090474 -0.05435747 0.18092746 -0.12058716
-0.23336051 -0.06737675 0.01674802 0.15857469 0.28285444 -0.023247536 0.1607495 0.18051256
0.06263028 -0.14430477 -0.014048151 -0.23981088 0.23910584 0.26294395 0.20384304 0.14068197
-0.4397974 -0.18313347 -0.38681507 -0.28480414 -0.4913938 0.16521582 0.113733985 0.16872971
0.026961047 -0.12514612 -0.15000771 0.12594314 0.0917964 -0.32740977 0.070149265 0.3517446
-0.39798823 0.018661695 0.16143763 0.28199983 0.11270623 -0.28167352 -0.49535298 0.11187776
0.24516085 -0.57532495 0.30216584 -0.009517266 0.20853058 0.16857378 0.24198382 -0.20356739
-0.16509295 0.30655652 0.2757629 0.015697977 -0.07009825 -0.19611326 -0.20535576 0.0014800562
0.25449637 -0.05454894 -0.25369784 -0.22858185 -0.2850232 0.100589365 0.2555675 0.049344767
0.10622178 -0.078118876 -0.051232137 -0.16874452 -0.033248108 -0.049888663 -0.16744925 0.16083603
0.06518514 -0.08797554 0.29351017 -0.1768665 -0.06726488 -0.29328108 -0.2333371 -0.34465957
0.1709252 -0.059499588 0.18547654 -0.22484398 -0.15820055 -0.20468931 0.058840856 -0.409106

gnn1_pool.convs.1.bias f4 [40]
00000000: e56e 5dbd 3093 2bbd 3cf5 5bbd b6ed 873b
00000010: 5333 50bd 1e30 c63c 530e e5bc f03e 65bc
00000020: 95d6 9cbc 6e90 90bd bc93 af3d a7ef 69bd
00000030: d1e7 28bb e2df 033d 5251 713c 683a 97bb
00000040: 7d28 b73b b30a 58bd defc ee3d 6202 633d
00000050: 4c83 1cbd d513 a43d 7610 8bbc 5a6e 5a3d
00000060: 7ca0 a9bc aaa3 f83c ff89 7bbc 504c 80bc
00000070: 8133 6c3d a6ac 723d b040 dcbd c27b 0a3c
00000080: 0395 65bb a7c9 5f3d 731e 883d 1c9b 233d
00000090: 9324 e5bd 30fa 113d ac7a 8c3c 4fc6 abbd
-0.054060835 -0.041888416 -0.05370067 0.0041482104 -0.050830197 0.024192866 -0.027960932 -0.013992056
-0.01914529 -0.07058798 0.085731 -0.057113316 -0.002577294 0.032195933 0.014728861 -0.004615117
0.0055895434 -0.05274458 0.11669324 0.055422194 -0.038211152 0.08011595 -0.016975623 0.053327896
-0.020706408 0.030351479 -0.015352725 -0.015661389 0.057666305 0.05924668 -0.10754526 0.008452358
-0.0035031445 0.05463567 0.06646433 0.039942846 -0.111886166 0.035638988 0.017148338 -0.08387434

gnn1_pool.convs.1.lin.weight f4 [40, 40]
00000000: 48b2 7e3e bc29 febd d796 a13e c9eb f23d
00000010: 2a91 dd3e a195 953d 3bf3 14be cb81 de3c
00000020: a475 893c f860 423e 1e13 203e 1c53 51bc
00000030: baaa afba 38b7 31be c60a 003f b809 bd3e
00000040: 6eb8 3abe 1a82 053d 5980 7f3e 9e92 053e
00000050: 8a85 173d 5e6e 15be c3d6 e93c 8e8f 0fbe
00000060: 67b9 293e 3069 f2bd 8cf9 573e 5478 093f
00000070: 0f1a 183e ef56 cf3d e687 813e 3349 e83e
00000080: 92ba 10bd 6508 143e 9340 08bd dde1 c9bd
00000090: b937 10bd d51f 8f3e d1f3 4a3e c65a b33e
000000a0: ad7f 64be d5c0 c6bd d029 843c 15dd d9be
000000b0: a84d e1be dd1e bbbe 4ce1 b3be d296 2fbd
000000c0: f62b bebc 370a 9f3e 8fde 803c 98a8 e7bd
000000d0: bd57 043e b01b 3a3e 30b9 403e ae2a 53be
000000e0: ff80 873d 5210 06bf ccc2 64be b798 103e
000000f0: 453a f73c 597d 81be bb35 84be 8e57 c4bd
00000100: 473d 72be 38f9 adbe 3bcb 8ebe 43d0 4ebe
00000110: 227b 93be 49b5 dd3c 18bc 623e 7442 debd
00000120: 7cc2 68be 85ff 04be 8495 8c3a 3f47 18bd
00000130: 002e 1abd 10e6 1cbe 793d 713e daad 6d3d
00000140: 22a3 cabe 38c9 013d 7939 83be 2794 bc3e
00000150: 6c1e d7be a14b 8abe f076 b9bd 598a 1dbe
00000160: 210a 013f 16d6 2dbe 5091 88bd ed19 dabe
00000170: 7f2b 883d 2118 6d3e 12fa bdbd cec6 cf3d
00000180: 77f2 97bd 9943 b93e 250f 003e 03b2 d93a
00000190: 7328 7fbe 094a edbd 1705 5fbe 3698 36bd
000001a0: ecdf c63d 9704 45bd c8d5 16bd ede9 a23c
000001b0: 1aa3 75be a8a5 f4bc 56c8 743e ee6d 14be
000001c0: 3b1f 9c3c de92 3fbe 7826 cabe 81d4 4dbe
000001d0: a0c0 c53e a963 13be 8e3a 733e bc5a 083e
000001e0: 379f a33e 2065 4cbc ac98 82be e08b 043e
000001f0: 8245 08be 4a48 a7be f9b0 b3be ce97 9d3e
00000200: dc2c 523e a319 8a3e c369 bfbd f57e 53be
00000210: 7433 1f3d b40e aa3e 9e85 bfbd 75bb fe3e
00000220: 05ae a73d 6ac9 283d 6d60 c63e 0422 16be
00000230: 8e72 9b3e 512c 853c 88de 26be 3c04 ffbc
00000240: 90fd 3abe a560 313e 7678 05be a911 92bc
00000250: fb19 81be 7a01 4d3e e001 b03d 84b2 bd3e
00000260: d197 823c a62c a13d 9672 11be d82e e7bd
00000270: 2257 4fbd 848e a73e 9334 893e 7ced 933d
00000280: 4524 9abc e5f2 93bd e326 e83d 9b51 cf3d
00000290: 133e 73bd 0cc1 1f3e feaf 113e 9968 f13d
000002a0: a512 e73d 28b4 823e a799 13be 6d1d 843e
000002b0: 68eb 0abe 7533 023f cfe7 5ebe 9248 3a3e
000002c0: cd27 5e3e c751 5a3d 769f 513c a10b 853e
000002d0: 0c0b 16bc dfad abbe 1853 00be e40b 993e
000002e0: 1ffa 77bd 53ea 8dbe 96fe 843d ab0f 23be
000002f0: 80b1 a23c 9ffd 783d 65f9 cd3e 7fe7 8fbc
00000300: 7048 ae3e eeb8 71be aed9 9b3e ab2f 603a
00000310: 1ce0 1dbd b538 06be 131a 05bd 7409 f83d
00000320: a195 263f f42f 1c3e 1fc7 01be 9bf4 97bc
00000330: 55dd fb3d 2ef7 8dbd df9b 633e e62f 4fbe
00000340: 4e8a 9dbe 0684 1d3e 2715 d8bc c856 67be
00000350: 6bb2 b2be f88a 973e 0c30 7bbd a727 163e
00000360: 4ae9 b8bc 6466 9abe 0f43 b43d d40f 3ebd
00000370: 1249 99be 0507 8e3d f047 203e a116 47be
00000380: 155f 1fbe f937 03be cb9b c43e 1082 26be
00000390: 8f95 d23c 1576 4d3e 5705 773c f900 eabe
000003a0: 0eea 863e fecb 153e 803b 87be fbc1 98bd
000003b0: 6f96 45be 7e7f 64be fd93 dcbd dc50 f0bc
000003c0: a150 94be 36cb fbbd c43c bdbd bae5 84be
000003d0: 00d6 003e fb87 7c3d 137b 13be 0c22 5c3e
000003e0: 17c2 dcbc 3474 0bbf 4c11 693b 4f61 163e
000003f0: 3450 6fbe 025d 9fbe 2056 b83d c49b 8abe
0.24872696 -0.12410304 0.31560394 0.11861379 0.43274814 0.0730393 -0.1454591 0.0271615
0.016779728 0.18982303 0.15632293 -0.0127761625 -0.0013402321 -0.17355049 0.5001644 0.36921477
-0.18234417 0.032594778 0.24951304 0.13044211 0.036992587 -0.14592883 0.02854479 -0.14019606
0.16574632 -0.11836469 0.21091288 0.5369923 0.1485369 0.10124003 0.25298995 0.45368347
-0.035334177 0.14456327 -0.033264708 -0.09857533 -0.03520939 0.27953973 0.19819571 0.35030192
-0.2231433 -0.097047485 0.016133219 -0.42551485 -0.4400456 -0.36546984 -0.35132825 -0.042868443
-0.023214322 0.3106248 0.015731124 -0.113114536 0.12924094 0.18174624 0.18820643 -0.2062175
0.06616401 -0.5236865 -0.22339934 0.14120756 0.030179152 -0.25290945 -0.25822243 -0.09587012
-0.23656188 -0.339792 -0.27889428 -0.20196633 -0.2880488 0.027063983 0.22142065 -0.10852519
-0.2273044 -0.12988098 0.0010725711 -0.03717732 -0.037641525 -0.15322137 0.23558606 0.058027126
-0.39577585 0.031686038 -0.25629786 0.3683178 -0.42015398 -0.27010825 -0.09055889 -0.15384807
0.5040608 -0.16976199 -0.06668341 -0.42597905 0.06648921 0.23153736 -0.09276213 0.10145341
-0.074192934 0.36184385 0.12505777 0.0016608838 -0.24917774 -0.11586387 -0.21779285 -0.044578753
0.097106785 -0.04810008 -0.03682497 0.019886935 -0.23988 -0.029864147 0.23904547 -0.1449506
0.01905786 -0.18708369 -0.39482474 -0.20100595 0.38623524 -0.14393486 0.23752806 0.13315862
0.3195741 -0.012475282 -0.25507104 0.12943983 -0.13307765 -0.3267234 -0.35095957 0.3077988
0.20524925 0.26972684 -0.09346344 -0.20653899 0.03886743 0.33214343 -0.09351657 0.49752393
0.081874885 0.04120771 0.38745442 -0.14661413 0.30360836 0.016256483 -0.16295826 -0.031129949
-0.18260789 0.17322023 -0.13034233 -0.017830687 -0.25215134 0.20020095 0.08594108 0.3705026
0.015941532 0.07869844 -0.14203867 -0.112882316 -0.050620206 0.32725918 0.26797923 0.07223031
-0.018816123 -0.07224063 0.11335542 0.10122987 -0.05938537 0.15600985 0.14227292 0.117875285
0.11282853 0.25528073 -0.14414082 0.258037 -0.13566363 0.5085977 -0.21768115 0.18191746
0.2169487 0.053300645 0.012794366 0.25985435 -0.009157907 -0.3353109 -0.12531698 0.29891884
-0.06054127 -0.27717838 0.06493871 -0.15923946 0.01986003 0.060788747 0.40229335 -0.01756644
0.3403964 -0.23605701 0.30439514 0.0008552025 -0.038543805 -0.1310757 -0.03249557 0.12111178
0.65072066 0.15252668 -0.12673615 -0.018549254 0.12298075 -0.069319114 0.22227429 -0.20233116
-0.3076958 0.15382394 -0.026377274 -0.22591698 -0.34901747 0.29598212 -0.061325118 0.14663564
-0.022572178 -0.30156243 0.08801853 -0.046401814 -0.2993856 0.069349326 0.15652442 -0.19442226
-0.15563615 -0.1281432 0.3840011 -0.16260552 0.02570608 0.20064576 0.015076957 -0.45703867
0.26350445 0.14628598 -0.26412582 -0.07458874 -0.19295667 -0.2231426 -0.10770414 -0.029335432
-0.28967765 -0.12294619 -0.09240106 -0.25956517 0.12581635 0.06165312 -0.14402418 0.21497363
-0.026948018 -0.54474187 0.0035563288 0.14685558 -0.23370439 -0.31125647 0.09000802 -0.27071965

gnn1_pool.convs.2.bias f4 [8]
00000000: 9a4f 4fbd 2d44 1abd 5dd4 0e3d e918 493e
00000010: b763 9b3d b59c c6bd 7889 193c f7f3 043e
-0.050613023 -0.037662674 0.034870494 0.19638409 0.075873785 -0.09697858 0.009371154 0.1298369

gnn1_pool.convs.2.lin.weight f4 [8, 40]
00000000: 774c adbe 2e9b 203d 8d1d 893e 9d40 95be
00000010: c104 613e 770f 35bd 34a6 923e a8d3 863e
00000020: 2209 7d3e 5842 e13e 5df0 b4be 2bf0 c8bd
00000030: c140 a3bb dd76 e13d 1876 503d 5d7f 373e
00000040: 8015 30bd d36f c23e ae72 85be 3dfb 813d
00000050: 005e dabd dcac f2be 82b2 99be 2347 55bc
00000060: 09c0 85bd 3a1b 183e 80dc 373e f7b8 503e
00000070: 1e98 873e beb4 a83a 18fa 623e f139 01be
00000080: 316f 07bd 226d 1f3e 4e7e 823e eac0 8cbe
00000090: 14df 3dbf 837d 1cbd 4dfe 083d a3c0 66be
000000a0: 6820 843e 4c46 91be 62d2 cc3d c53e ae3d
000000b0: 6274 3bbe 8f2f 93bd 8169 943e 0785 cb3e
000000c0: 4db2 02bd b9ec debd f0be 533d 3ddb 213e
000000d0: 5eb7 34be 2a30 77be 7a91 a1be 19e2 e4bc
000000e0: 4402 e33d cf15 b1be 1458 d43e 09ec 873e
000000f0: 09ae 833c 5346 9f3d 7756 50be f529 833e
00000100: 5ca2 a03e 4819 0e3e 0160 85be 807b 9cbe
00000110: 9803 1d3d e0fc 1cbe e4ba 99be 4408 2c3e
00000120: b44f 68bc 7ef5 5fbe 7fde a2be 19a0 853d
00000130: 9f5b 97be 249a dcbd f9cd bd3e 50da 7fbe
00000140: 559e 783e b1c9 253d d82d 513e 3f66 1c3e
00000150: 4fe0 fb3c ed7c 04be 49e8 8cbe 2cfc afbe
00000160: 834f 8bbe 1e49 d5be c0f6 56bd d138 9fbe
00000170: c69a a7be 94c1 b8bc 4ba4 ccbe 8a3f 94bc
00000180: ccb6 1c3e 3211 cd3d 1359 abbe 39e4 2ebe
00000190: e605 453e a05e 133e c5fa 8d3a e95a ebbe
000001a0: 2b0a e3be 6694 c1bd 36a5 4f3a 3f4e a33e
000001b0: 2831 523d 9eba 213e df85 283e 3f86 243e
000001c0: ba4e 813d a966 483e 7242 65bf 78cf 693e
000001d0: 9f36 8ebe 1444 a6bc 4b51 d13d 4400 4b3d
000001e0: 65b5 f03c 89b3 bb3e c7ca 343e eeb8 62bd
000001f0: 04f1 8bbe fca8 e63d b9e8 573e e0c2 c1bd
00000200: cb68 983e 34e6 f83d 767a e83e 77f0 4bbe
00000210: 9449 f4bd c39b b2be 808e 8f3e 37c8 4a3e
00000220: 4781 8f3e 3ea7 e2be 3f89 3cbd f2de babd
00000230: 1829 953e fff9 143e f607 a43e 377b 823e
00000240: 8638 fbbd cf11 073e 7fe4 fcbd 2929 b73d
00000250: 701d 21bf 1d8e 81be b52b 773e 13b4 69be
00000260: 8692 55bc ae75 fd3d c160 cf3e 1b6e 83be
00000270: c470 8a3e 3b85 a6be 2338 153e 244e c73d
00000280: 9729 983e f126 0b3e 7a6f c6bd 7634 f83e
00000290: 9519 e33e 87ee b33e e5aa a93d 857d 243e
000002a0: d31e 493c 7a7c b33e 10ca a43e 2420 673e
000002b0: 1b83 2a3e 070b 053e 1eb6 25be 9791 babe
000002c0: 9a02 073e 9c93 823e 5006 e63e 4973 b93e
000002d0: 5631 29be 9ea1 38be 4e85 813e 5d6b 163e
000002e0: 9165 3b3f 10a4 943c 60fe 973e d8f7 14bd
000002f0: 95c9 2c3e e348 3b3d c288 1bbe f52b aabe
00000300: 719e 323f 3421 31be 4fda 15be 1b05 493d
00000310: 6ff2 0bbe ea4d cd3c a0d3 dd3d 0499 40be
00000320: d9bb acbc 51a2 11be f1e8 50bd 5ea6 83be
00000330: 5f49 01be 08a4 c83d 4ff1 fbbd ae8c 813f
00000340: af0a 43be 00fb 9c3d 39f1 993f a483 3d3d
00000350: 778e 753e 42fb 80bd 0673 14bd e9d3 ff3e
00000360: 3ec3 213e ff89 a9bd d556 c83f bc79 b7be
00000370: 6da5 293e f0d5 5dbc bde9 3a3c a775 073e
00000380: d220 dc3d 8445 f93d 4fc4 543d 0a56 9c3c
00000390: 1702 a4bd 7a97 a5bd fce3 65bc 61b0 06be
000003a0: 8021 55be 5d22 9cbd 5a70 9e3a 3812 a43c
000003b0: 0cb7 9abd 76b8 f33d c81e 253c 2f2e 00be
000003c0: 3913 1a3d 457f 4abe 7422 a7be 1c88 70be
000003d0: 1f33 b9be 4671 673e 6af6 72bd 3ed6 1abc
000003e0: a875 163e 2649 39be b2f7 eabd 368e 87bd
000003f0: 2079 6cbe e628 993e ad3b dc3e 51b9 d63e
-0.338474 0.03921049 0.26780358 -0.2915086 0.2197447 -0.0442042 0.28642428 0.26333356
0.24710515 0.4399593 -0.35339633 -0.098114334 -0.0049820845 0.110089995 0.050893873 0.17919679
-0.042989254 0.3797594 -0.26064056 0.06346748 -0.1066246 -0.47397506 -0.30019003 -0.013017449
-0.065307684 0.14854136 0.17955208 0.20383058 0.26483244 0.0012871248 0.22165716 -0.12619759
-0.033065025 0.15568975 0.25486988 -0.27490932 -0.74168515 -0.038205635 0.033445645 -0.22534423
0.25805974 -0.28373945 0.10001065 0.08508066 -0.18306115 -0.071868055 0.28986743 0.3974993
-0.031908322 -0.10884995 0.051695764 0.15806289 -0.17648074 -0.24139467 -0.31556302 -0.027939843
0.110844165 -0.3458695 0.41473448 0.26547268 0.016074197 0.07777085 -0.20345484 0.25617948
0.3137387 0.13876832 -0.26049808 -0.30562973 0.038333505 -0.15330839 -0.300254 0.16800028
-0.014179159 -0.21870992 -0.31810376 0.06524677 -0.2956209 -0.107715875 0.37071207 -0.24985623
0.24279149 0.04047555 0.20427644 0.15273379 0.030746607 -0.1293828 -0.2752097 -0.3437208
-0.272091 -0.41657346 -0.052481413 -0.31098035 -0.3273527 -0.022553243 -0.39969096 -0.018096704
0.15304106 0.10013045 -0.33466396 -0.17079248 0.19240531 0.14391565 0.0010832181 -0.45967796
-0.44343695 -0.09452133 0.00079210417 0.31895635 0.05131641 0.15793845 0.16457318 0.16066836
0.06313844 0.19570412 -0.8955451 0.2283305 -0.27776048 -0.020296134 0.102205835 0.0495608
0.02938337 0.36660412 0.17655478 -0.055352144 -0.27332318 0.112627 0.2108487 -0.094609976
0.2976745 0.12153283 0.4540593 -0.19915949 -0.119280964 -0.34884462 0.28038406 0.19802938
0.28028318 -0.4426822 -0.046029326 -0.09124555 0.29132915 0.14548491 0.32037324 0.2548463
-0.1226664 0.13190387 -0.1234827 0.089433976 -0.62935543 -0.25303736 0.24137767 -0.22822599
-0.013035422 0.12375961 0.40503505 -0.2566994 0.27039158 -0.32523522 0.14572196 0.09731701
0.2971923 0.13589074 -0.09689231 0.48477525 0.44355455 0.3514292 0.08284549 0.16063507
0.0122754155 0.35055906 0.3218541 0.22570854 0.16651575 0.12992488 -0.16182753 -0.364392
0.13184586 0.25503242 0.4492669 0.36220768 -0.16522726 -0.18030402 0.25297016 0.14689393
0.73201853 0.018144637 0.2968626 -0.036369175 0.16873772 0.045723807 -0.15188888 -0.33236662
0.6977301 -0.17297822 -0.1463406 0.049077135 -0.136667 0.025061566 0.1083138 -0.18808371
-0.021085666 -0.14222075 -0.0510034 -0.25712866 -0.12625645 0.097969115 -0.12301885 1.0121057
-0.19047044 0.07665062 1.202674 0.04626812 0.23980127 -0.062979236 -0.036242507 0.49966362
0.15797135 -0.08278274 1.5651499 -0.35835063 0.16567011 -0.013539776 0.011408267 0.13228475
0.107484475 0.12171462 0.051945027 0.019083995 -0.08008211 -0.080855325 -0.0140314065 -0.1315322
-0.2081356 -0.07623742 0.0012087927 0.020028219 -0.07554445 0.119004175 0.01007814 -0.12517618
0.03761599 -0.19775112 -0.32643473 -0.23489422 -0.36171815 0.22601804 -0.05931703 -0.009450493
0.1469332 -0.1809431 -0.114730254 -0.066189215 -0.2309308 0.29914016 0.4301428 0.4193826

gnn1_pool.bns.0.weight f4 [40]
00000000: 8d57 a83f aded 473f 11da 5f3f 5402 813f
00000010: 86de 933f 2806 6d3f 2996 843f 8c47 773f
00000020: c7b4 893f 6a51 b93f bf40 533f b844 703f
00000030: d8ee 633f 4565 c33f b4aa 693f dfd1 693f
00000040: b378 843f a53d 883f b388 7f3f 4bf7 753f
00000050: 241a 5a3f 3b98 653f 8955 6d3f c657 723f
00000060: 3180 5a3f 1a8e 6c3f 60c2 953f 052a 5c3f
00000070: e741 643f ebd8 3c3f b54a 8c3f 01b1 8d3f
00000080: afc7 913f 8105 693f d62a 713f 9261 5a3f
00000090: f964 5e3f 3bff 823f 1f6e 403f d2ef 5a3f
1.3151718 0.7809704 0.8744212 1.0078835 1.1552284 0.9258752 1.0358325 0.96593547
1.0758294 1.4477971 0.8252067 0.93854856 0.8903632 1.526528 0.912761 0.9133586
1.0349334 1.0643812 0.9981796 0.96080464 0.8519614 0.8968541 0.9270864 0.9466518
0.85351855 0.9240433 1.1699944 0.86001617 0.8916306 0.7376849 1.0960299 1.1069642
1.1389064 0.91024023 0.9420599 0.8530513 0.8687282 1.023414 0.7516803 0.85522187

gnn1_pool.bns.0.bias f4 [40]
00000000: a25d af3e ca96 803d bd65 043d 606f 52be
00000010: 592a 8a3e 3ba8 f33d 77c9 ff3c 6dda 9abe
00000020: e222 a33e 2609 bf3e df91 f33e 1c14 06be
00000030: 20cd a3be 9b33 103f 49d6 0cbe 8921 2b3e
00000040: aa59 5c3d 8288 013e 1ba9 21be 5260 9ebe
00000050: 69f7 2dbe 1f84 f0be f8f3 51be de58 bf3c
00000060: 5b70 bebd 5c69 0b3e ec04 183f 4e3f d8bd
00000070: 4f57 d8bd 4225 a4be 2d5e 473e 2118 873e
00000080: ed64 d93e 5870 4e3e 75c1 523e 6036 f1b9
00000090: 13ea 523d 3552 bf3e c15b 27be 9866 d5bd
0.34251124 0.06278761 0.032323588 -0.20550299 0.26985434 0.11897322 0.031223996 -0.3024477
0.3186255 0.37311667 0.47572228 -0.13093609 -0.31992435 0.56328744 -0.13753618 0.16712011
0.053796448 0.1264973 -0.15787165 -0.30932862 -0.1698891 -0.469758 -0.20503223 0.023357805
-0.09298774 0.1361441 0.5938251 -0.105589494 -0.10563528 -0.32059675 0.19469519 0.26385596
0.42459813 0.20160043 0.2058161 -0.00046007615 0.05149276 0.37367406 -0.16343595 -0.10419959

gnn1_pool.bns.0.running_mean f4 [40]
00000000: e429 313e 1318 ab3c 37e1 873d b4c5 4ebe
00000010: 23d2 bfbd ee5a aabd 4622 d8bd f002 bebd
00000020: 801d 363e a827 383d 469b e93c b2ae 2dbd
00000030: 80e6 563e 1b08 3a3c ea07 c63d e44a 5b3e
00000040: 4bb4 2f3d 828c 123d 3b7d 9dbe 8c39 9b3d
00000050: 46cf 88bd 3451 9abd 9279 8fbe a566 62be
00000060: 1407 3ebe 6b7d b9bc 4aa5 ff3c b3af 65bd
00000070: 444c 4f3e c884 2b3e 46d2 24bc 7f93 c3bb
00000080: fa6c 18bc 1692 57be f32f 88be 9308 bfbd
00000090: a035 713d 82d6 d6bd ec3c 1d3e f220 923d
0.17301136 0.020885503 0.06634753 -0.20192605 -0.09366252 -0.08318125 -0.10553412 -0.09277904
0.17784691 0.044959694 0.028516423 -0.04240293 0.20986366 0.011354472 0.09669478 0.21415287
0.04289655 0.03577853 -0.30759606 0.075793356 -0.06680159 -0.075350195 -0.28022438 -0.22109468
-0.18557388 -0.022642812 0.031206746 -0.056075763 0.20243937 0.16749871 -0.010059899 -0.0059685106
-0.009303326 -0.21051821 -0.26599082 -0.09327807 0.05888903 -0.10490133 0.15355271 0.0713519

gnn1_pool.bns.0.running_var f4 [40]
00000000: 61f5 ef3b 3441 013c e8f4 943c 6c4c 8b3c
00000010: f169 043c c764 1b3c fb89 933c d057 553c
00000020: 5bb7 4f3c 81c4 293c 523e 283c 1d11 853c
00000030: c0c2 963b ec7e a93b cfee 5b3c 7322 573c
00000040: bce7 c83b 3883 983b 4313 883c 8365 f33b
00000050: 75a3 e63b 381b 373b dcce 583c b0d8 d63c
00000060: 35ee 613c 1ccc d13b cffb fe3b 1162 493c
00000070: 465c dc3b 4551 4b3c 1cb0 303b 5ca9 4a3c
00000080: 0fce d93b d60b 9f3c e5c1 423c b783 f53b
00000090: bfda fb3b ef61 f73b fefe 0d3c 818d 333c
0.0073229526 0.007889081 0.018183187 0.017004214 0.008081899 0.009484476 0.01801013 0.013021424
0.012677993 0.010361792 0.010268765 0.016243512 0.0046008527 0.005172601 0.013423636 0.013130772
0.0061311405 0.0046543144 0.016610747 0.0074278726 0.0070385286 0.0027939808 0.013232913 0.026226372
0.013789703 0.0064025056 0.007781483 0.012291447 0.006724867 0.012409513 0.0026960438 0.01236948
0.0066468786 0.019414824 0.011887048 0.0074925083 0.0076859887 0.0075495164 0.008666752 0.01095903

gnn1_pool.bns.1.weight f4 [40]
00000000: 573f 7c3f 043d 663f 327d 833f f08a 533f
00000010: 4963 8f3f 973a 723f 9f35 843f ce45 7a3f
00000020: a5a6 753f bd06 a23f 7b2d 823f a562 613f
00000030: f120 463f bec7 5e3f f1b6 913f e48d 663f
00000040: 3aff 5c3f d99a 8a3f 123a 903f 89ed 7b3f
00000050: 1b6e 623f 8ff8 643f f4f8 5b3f 4795 6e3f
00000060: c82d 983f dae7 6e3f 2bb9 1b3f ea92 583f
00000070: a7d1 9b3f dc49 2f3f 1bfb 723f a8fb 833f
00000080: 3d81 423f 324d 733f 7147 b83f cb6e 883f
00000090: 42a9 c83f d012 5e3f 6ac9 603f 665f 603f
0.9853415 0.8993685 1.0272582 0.82633877 1.1202174 0.9462065 1.0328864 0.97762764
0.95957404 1.2658306 1.017013 0.88041145 0.77394015 0.8702353 1.1383954 0.9006026
0.86326945 1.0828506 1.1267722 0.98409325 0.8844926 0.8944177 0.8592675 0.9319653
1.1888971 0.9332253 0.6082942 0.84599173 1.2173356 0.68472075 0.94914407 1.0311174
0.7597845 0.95039666 1.4396802 1.0658811 1.5676653 0.86747456 0.87807333 0.87645566

gnn1_pool.bns.1.bias f4 [40]
00000000: ad11 26be 3089 d83e 61ff 1a3e 8e0a 69bd
00000010: 2fd8 86be 6700 9d3d 13c9 debc ea0a b93d
00000020: ec55 0bbb 28a6 213b 75e9 293e 89f0 c4bd
00000030: 9901 92bd 46d6 d7be 9141 b0be 9438 1ebd
00000040: 2d07 1fbd 9d09 c3be 0c2b 273e 7946 0cbf
00000050: 8b47 3b3c 0f4c 12bd 1d4a 673d 7dae 4abe
00000060: 98d1 02be 8fb3 813e 3c08 92be 202c 87bc
00000070: 37e9 c4be 8a78 70be cf8e 073d 6460 adbc
00000080: 1508 14bf 1590 96bb 4361 bfbd 95f7 d4be
00000090: 1e0e adbe ee54 a0be ecf4 35be f255 0c3d
-0.1621768 0.42292166 0.15136482 -0.05689483 -0.2633681 0.07666092 -0.027195489 0.09035285
-0.002126093 0.0024665687 0.16592963 -0.09616191 -0.07129211 -0.42155665 -0.34425023 -0.038628176
-0.038825203 -0.38093272 0.16325015 -0.5479503 0.011430631 -0.035717066 0.056467164 -0.19793124
-0.12775266 0.25332305 -0.28521907 -0.016500533 -0.3845918 -0.23483482 0.033095177 -0.021164127
-0.5782483 -0.0045948126 -0.09344723 -0.4159514 -0.33799833 -0.31314796 -0.17769212 0.03426165

gnn1_pool.bns.1.running_mean f4 [40]
00000000: 9d9e 0940 dd5e fbbf 7b6d 4ebf 70c8 893f
00000010: cb2a aa3f 7a35 803e d70d 1cc0 f0e3 31be
00000020: ac52 1f3f 2c3c 30c0 7aa7 cbbf ddc8 f6bf
00000030: e03f aabf b2ad 50bf ba32 3bc0 c174 2dbf
00000040: 57ad b73f ac37 ccbf 31ca 363f c00c f8be
00000050: 11ad e83f 34a2 6cbf a508 4abf 410d 87bf
00000060: 5998 9e3f d3f4 debf 3697 a1bd ca5d 83bf
00000070: b233 e9bf 07c0 4c3c 1213 15c0 7129 9c3e
00000080: 3b1b 5dbd d7bf 79bf 42e5 11c0 93c3 593e
00000090: 1403 b0bf 5002 5dbf fc04 8fbf 25ba babf
2.150306 -1.9638325 -0.80635804 1.0764294 1.3294309 0.250408 -2.4383447 -0.17372108
0.6223552 -2.7536726 -1.5910485 -1.9280049 -1.3300743 -0.8151504 -2.924971 -0.6775628
1.4349774 -1.595449 0.7140227 -0.48447227 1.8177816 -0.92435 -0.7891944 -1.055092
1.2390243 -1.7418464 -0.07890169 -1.0262997 -1.8218901 0.012496955 -2.329289 0.30500367
-0.053981047 -0.9755835 -2.2796178 0.21266012 -1.3750939 -0.86331654 -1.1173396 -1.4588057

gnn1_pool.bns.1.running_var f4 [40]
00000000: 6945 273f 9d0b bb3f 7699 0840 e858 b03f
00000010: 55b7 353f 3700 0340 a38d 6a3f 9614 4240
00000020: 4d7d 3940 89a9 1340 9a7e 4e3f 969f 0240
00000030: dc8f ca3f 349a e33e 3f7e a63f e107 f03f
00000040: a177 2b40 a8a4 bd3f 2fc0 0040 487b 583f
00000050: c14c 4a40 8d1f 003f 5182 1740 caff b93f
00000060: 633e 0240 0604 7f3e fc76 5a3f 38cf 3c40
00000070: 27de 1040 c50a fe3e d28c 9040 a72f 593e
00000080: e9f4 9f3f 0d3e c33f f6db 323f 0cbb aa3e
00000090: b8ae ec3e a2a6 3f3f 5b41 4b3f e661 223f
0.65340286 1.4612919 2.1343665 1.3777132 0.7098287 2.046888 0.9162237 3.0325065
2.8982728 2.3072226 0.8066193 2.0409904 1.5825152 0.44453585 1.3007277 1.8752404
2.6791766 1.4815874 2.01173 0.8456311 3.1609347 0.5004814 2.367329 1.4531186
2.0350578 0.24903879 0.85337806 2.9501476 2.263559 0.49617592 4.51719 0.21209584
1.2496616 1.5253311 0.69866884 0.3334583 0.4622705 0.74863636 0.793966 0.6343063

gnn1_pool.bns.2.weight f4 [8]
00000000: c72c 8340 2925 2d40 606d 8040 a2d3 af40
00000010: 5a60 3c40 1651 0741 dbf2 1640 7c6d 9340
4.099216 2.705393 4.0133514 5.494584 2.9433808 8.457296 2.3585727 4.607115

gnn1_pool.bns.2.bias f4 [8]
00000000: 93cf 153f 15b7 4abf 9d31 2d3f 462f e33f
00000010: 6481 423e da9a bf40 adf3 24bf 7f73 c23f
0.5851986 -0.7918561 0.6765383 1.7748802 0.18994671 5.987653 -0.6443432 1.5191497

gnn1_pool.bns.2.running_mean f4 [8]
00000000: 56a8 253d 34cd 58bd 3322 8bbf 7fd2 c23f
00000010: 10be be3f 3082 fa3f 98da 8c3c f353 eebe
0.04044374 -0.052930072 -1.0869812 1.5220488 1.4901752 1.957098 0.017194077 -0.46548423

gnn1_pool.bns.2.running_var f4 [8]
00000000: dd3c d13e a768 0e40 4479 be3e 5441 283f
00000010: 2826 993f 1f80 9940 7aa8 803e 4bfa 063f
0.40866747 2.2251375 0.37201893 0.6572468 1.1964769 4.79689 0.25128537 0.52725667

gnn1_embed.convs.0.bias f4 [40]
00000000: 338b 433d fd22 db3d 6495 d83c 40fc 093d
00000010: 1e1f 3d3e 9830 ae3d ba73 bcbc dcd8 0d3e
00000020: 9eb7 8e3d b308 5abe 9859 f0bc af48 553e
00000030: 780e 11bd 7e34 ae3d cc63 823c 0d42 f93d
00000040: 3cb4 613d f8bb 893e 0b10 c23d eabc 553d
00000050: 689c d13d c226 a53d 1e02 373e b80c 6f3e
00000060: c87d 993d 5178 e73d d9c6 75bc c053 ca3d
00000070: c93d aabd 272b 773c 9718 2d3d 1031 97bd
00000080: c687 1d3e 665b 0fbe f2be 95bc 462c 363c
00000090: e2a0 d6bd be8b 50bd a64d 08bd 4aad 67bd
0.047740173 0.10700033 0.026438423 0.03368783 0.18468902 0.08505362 -0.023004401 0.13852257
0.06968616 -0.21292381 -0.029339597 0.20828508 -0.03541419 0.08506106 0.015916727 0.12170801
0.055103526 0.2690122 0.09475716 0.052182116 0.1023491 0.08064033 0.17871901 0.23344696
0.07494694 0.113022454 -0.015001022 0.09879255 -0.08312566 0.015085972 0.04225978 -0.07382405
0.15383825 -0.1399971 -0.018279526 0.011118954 -0.10479905 -0.05091452 -0.033277176 -0.056561746

gnn1_embed.convs.0.lin.weight f4 [40, 14]
00000000: 91ca 8abe c170 20be 7dbb 373e 4115 863e
00000010: 2529 6a3c 6b5f 9fbe 065a 41ba 2b62 c2be
00000020: 4200 09bf 85e3 833e 8fa4 b6be 3997 a5be
00000030: 4259 eb3e aebf 653e ef1c dfbe a67f bbbd
00000040: 8297 86be abe0 123e 5763 963e abec 27be
00000050: 15e3 113e af11 a83d c910 0dbe 062c edbd
00000060: de02 373e 5ad8 bbbd e6ad 973e 0b04 7f3d
00000070: fb87 823e b75e 06be 486d 4dbe 4a09 a23e
00000080: 2a37 a53e f5f5 09be eab6 343e a5be d7be
00000090: bd36 533e 0eb6 783e 97d8 d1be 88bf 1ebe
000000a0: 8552 18bd 9ef3 123e d434 1e3d e2b6 893e
000000b0: 2774 c4be 442c 1fbe a5cd 8c3e 4112 12bd
000000c0: 0c44 65be e7fa cbbe 8b41 b8be 5654 893d
000000d0: f69a ffbc 3380 bf3e 6008 a7be 14ce 8fbe
000000e0: 19e4 eb3d 39ec bf3e 1817 633e 7279 a3bd
000000f0: 24c4 6c3e 7f6a b63e 143d 6b3e 7c2c 3ebe
00000100: 5ee4 7dbe db5e 0dbf 2182 94be 4074 a53e
00000110: 298c ab3e a95a b8be 37a8 0fbe da50 593e
00000120: 8a2e 423e 7bed 1abe b28f 5b3e a11d 203e
00000130: 1442 11bd f81d 54be f7f9 40be 460d 903e
00000140: 5249 9dbc 90f6 17be cbe3 48bd d49d 853e
00000150: 1a49 d23e ab4a 8dbe 859d ddbd d5b5 5dbe
00000160: cbcd b6bd 8027 8ebb 490f 533e 8614 36be
00000170: 634d 9bbe 0bfc 31bf 0d0a c8bb e32b 083c
00000180: 43e8 fc3d 1201 5bbe a96a 5dbe afc8 143e
00000190: 226c bb3e 2cdc e83d e552 98be 83c5 04bf
000001a0: d784 0dbe 4caa 1a3f a282 fdbd 6734 da3e
000001b0: 4202 64be 2a1e b03d e5d8 a0bc 061d f5bd
000001c0: b052 8b3e a098 f6be 8883 493e 75c3 8abd
000001d0: b9c7 e03d dff1 103e 1781 9d3d 7846 923e
000001e0: 669d 7d3e 9170 5c3e ae45 e73d e4e9 913e
000001f0: 7548 663e 090e 6d3e 32d3 3bbe 88f9 b83e
00000200: 7010 b0be 172d 22be 955c e3be 86ff 883e
00000210: 339f cbbd 273e febe 4305 123e 6043 4b3d
00000220: 8639 dd3d 47f1 8abe 6ca6 ad3d d967 0f3e
00000230: 2969 273e ef5f ad3e 9412 ddbe 5274 cebd
00000240: fe1c f6bd 2f8e bdbd 8ab5 eabe f842 8c3e
00000250: 51df 2d3e 8b91 02be 3235 d3bc 9d0a 4cbe
00000260: b9ae 4d3d 0ab6 863d ab3d 413e 485b 20bd
00000270: 8bea 5fbe ed00 b0be bd2d 85bd e0ee c73e
00000280: b4a8 7cbe 8e93 d9be 9adb 173d 83b2 7e3e
00000290: 5654 303e a9ea bb3d cf61 8f3e fe3b cebd
000002a0: 1b9a 1d3e 4d2f 683e 897c df3d b0e5 7d3e
000002b0: 1dfb 8dbe 858f 8dbe 2a18 07bf b2ff c9be
000002c0: fb46 be3e 32ed 53be e1bb 5a3e 08da 2c3d
000002d0: a311 d93d 50c0 183e dac7 cc3d a98c 933e
000002e0: 411c 6b3e 444a 78be ab52 c7be 5dad db3d
000002f0: aab5 6e3e af0d 763e c225 173d 02a9 cc3e
00000300: c62b 22be 915b 5abe 1f0d 2e3e 9330 12be
00000310: 4e0a debd e036 3c3e 5b83 3f3e b1fe c23b
00000320: eace 86be 70cd 1a3e cf3a f33e 685c a23e
00000330: 2e4a dabc ab0a 0e3f 6d12 c63d 262c 703d
00000340: a567 143d cfc2 a8bc 1055 c13d 6048 a7be
00000350: b1ff ab3e 051b 53be 0b6f cd3d 0995 f1bd
00000360: 0ef6 0bbe 5b31 28be b18c 7e3d 2be5 ee3d
00000370: 70ac 903e 00e2 cbbe 33ed 763e 1fbd b2be
00000380: ddd3 0ebe de50 d03e 5767 cbbe 4513 623e
00000390: 801a 97bd 6a37 9ebe f376 31be 0773 08ba
000003a0: e415 b4bb 05ac 54be da94 9bbc 734e 263e
000003b0: 73e8 81be 3f61 a53d 66c2 e63d 8ac8 2a3e
000003c0: eeaf 0ebc 9ed3 2abe 257c 99be 72ae afbe
000003d0: 826b df3d 5633 993e ef71 a03e f942 0cbe
000003e0: a3fc b93e 200d 5abe 793e 81be d5b8 6abe
000003f0: 0808 84be acd5 9cbe c32f 233d 2520 0a3e
-0.2710767 -0.15668012 0.17942615 0.2618809 0.014292036 -0.31127486 -0.000737578 -0.3796552
-0.5351602 0.2575952 -0.35672423 -0.32341936 0.45966536 0.22436401 -0.43576762 -0.091552064
-0.26287466 0.14343517 0.29372665 -0.16398875 0.14246781 0.08206498 -0.13775934 -0.115806624
0.17872187 -0.09172125 0.2962486 0.062259715 0.2549437 -0.13122068 -0.20061219 0.31647712
0.3226865 -0.13472731 0.17647901 -0.42137638 0.2062635 0.24288198 -0.40985557 -0.15502751
-0.03718807 0.14350745 0.0386246 0.2689734 -0.38369867 -0.1554423 0.27500644 -0.03566194
-0.22389239 -0.3983986 -0.35987505 0.06705539 -0.03120182 0.37402496 -0.32623577 -0.28086913
0.115181156 0.3748491 0.22176778 -0.07982148 0.23121697 0.35628125 0.22972518 -0.18571657
-0.24794146 -0.5522286 -0.2900553 0.32315254 0.3350537 -0.36006668 -0.14029013 0.21222249
0.18963066 -0.15129654 0.21441534 0.15636303 -0.035463408 -0.20714557 -0.18845354 0.28135127
-0.0192 -0.1484015 -0.049045365 0.26096976 0.41071397 -0.2759603 -0.1082106 -0.21651395
-0.08925971 -0.004338205 0.206113 -0.17781267 -0.3033248 -0.6952521 -0.006104714 0.008311245
0.12348988 -0.21387127 -0.21622719 0.1452968 0.36605936 0.113701195 -0.29750744 -0.5186388
-0.13820206 0.604161 -0.12378432 0.42618105 -0.22266486 0.08599503 -0.019634673 -0.119684264
0.27211523 -0.4816332 0.19679081 -0.06775562 0.10975594 0.14154766 0.076906376 0.28569388
0.24767074 0.21527316 0.11292587 0.28498757 0.22488578 0.23149885 -0.18342283 0.36127877
-0.3438754 -0.15837513 -0.44406572 0.2675745 -0.09942474 -0.49656793 0.1425982 0.0496248
0.10801987 -0.27137205 0.08479008 0.14004458 0.16348709 0.33862254 -0.43178236 -0.1008078
-0.120172486 -0.09255635 -0.45841628 0.27394843 0.1697972 -0.12750833 -0.025782201 -0.19925924
0.050215457 0.0657769 0.1887118 -0.039149553 -0.21866815 -0.34375706 -0.065028645 0.39049435
-0.2467373 -0.42495388 0.037074663 0.24872784 0.17219672 0.09175617 0.2800431 -0.10070036
0.15390818 0.22674294 0.10912425 0.2479465 -0.27730647 -0.2764856 -0.52771246 -0.39452893
0.3716353 -0.20695952 0.21360733 0.04220012 0.10599067 0.14917111 0.09999056 0.28818253
0.22959997 -0.2424708 -0.38930258 0.10726426 0.23311487 0.24028657 0.036901243 0.39972693
-0.1583701 -0.21323992 0.16997193 -0.14276342 -0.10841809 0.18380308 0.18702452 0.0059507717
-0.26329738 0.1511743 0.47505805 0.31711125 -0.0266467 0.5548503 0.09671483 0.058635853
0.036231656 -0.020600704 0.094400525 -0.32672405 0.33593515 -0.20615776 0.100309454 -0.11796004
-0.13668081 -0.16425078 0.062145893 0.11664804 0.2825656 -0.39820862 0.24113922 -0.34909913
-0.13948007 0.40686697 -0.3972728 0.22077663 -0.07378101 -0.30901653 -0.17330532 -0.00052051287
-0.0054957736 -0.20768745 -0.018991876 0.16240864 -0.25372657 0.08075189 0.11267547 0.16678062
-0.008708937 -0.16682288 -0.29977527 -0.3431278 0.10909177 0.2992198 0.31336924 -0.13697423
0.3632556 -0.2129407 -0.25242975 -0.2292207 -0.25787377 -0.3063177 0.03984047 0.13488825

gnn1_embed.convs.1.bias f4 [40]
00000000: c41f 893c a502 513c 3d56 633c 6555 263d
00000010: ce96 10be be2e 8ebd 935c ac3a 6584 86bd
00000020: b206 923d 4930 60bd 086b a7bc a382 3abd
00000030: f3d6 32bd 9acc bd3c 9084 df3a 436f 81bc
00000040: 7e8e dfbd d879 f3bd 0bf7 e03b ae08 86bc
00000050: bab4 803c 0682 94bd 0a22 3cbb debc 313d
00000060: 2ff7 353c 9775 063b 8a4b 3bbc 9c16 a2bd
00000070: af32 9cbc dad9 7b3d d493 7dbd ebe5 89bb
00000080: 79cb ca3c b9be 663b 44ca 0fbe 6be2 053d
00000090: cc1f 9d3d 77e3 dabc df62 c13d 0c50 743d
0.01673878 0.012756978 0.013875541 0.040608782 -0.14120027 -0.06942509 0.0013150148 -0.06568221
0.07130183 -0.05473355 -0.020436779 -0.04553474 -0.043662023 0.02316885 0.0017053057 -0.015800124
-0.1091585 -0.11888474 0.0068653873 -0.01636156 0.015711177 -0.072513625 -0.0028706812 0.04339301
0.011106296 0.0020516866 -0.011431584 -0.07914469 -0.019067137 0.061487056 -0.061908558 -0.0042083166
0.024755226 0.0035208894 -0.14042002 0.032686632 0.076720804 -0.026719792 0.09442686 0.05964665

gnn1_embed.convs.1.lin.weight f4 [40, 40]
00000000: 2eb4 78be 93e1 5abe dae7 3dbe 073a ee3d
00000010: 4dbd 043e d234 a4bd dcde fbbd e2cc 53be
00000020: 0373 753e 8606 003f 7073 7fba fe83 473e
00000030: 1e1b ffbd c99e debd b1ea 45bc df4b 8cbe
00000040: db85 3a3d bdab 433e c9ef 793e 4080 dd3d
00000050: 8031 cabd 48a6 cdbd f2c0 843e e570 ddbd
00000060: b8f7 573e 0b71 61be 6484 e13e 9b53 aa3e
00000070: b31f 9e3e 3986 83be 53d5 4d3e aaeb 633e
00000080: 1eea 09be a7b6 4f3e f872 2fbe ce93 37be
00000090: 10b0 da3e 0d5b 18be 0324 1e3d 56b3 f23d
000000a0: c9ae 66be 9961 64be e3d4 76ba a9bf 04be
000000b0: 8c31 9d3d 8ae5 673e ecd8 b7be 3c1b 023e
000000c0: 5595 0e3e f5ff 163e 3956 a6be 05df 69be
000000d0: 9945 9fbe 23ba 83be ef58 d1bc 7867 c73e
000000e0: 3376 233e e0ae b2bd 710b d5be d904 0f3e
000000f0: 1fff 843e 1faf 68be 359a d63c 462a c93d
00000100: 1436 743e e83d c3bd 88c8 36bc f014 3fbd
00000110: d016 043e 3be8 54be 6be0 473e e151 b8bd
00000120: 9510 82be 3c07 e1bc e525 d3be e245 823c
00000130: 6b95 8d3e c001 55be 9787 663e 27b0 4d3e
00000140: 3ee5 1fbd 6604 e2bd 66b5 073d 577a 703e
00000150: 510a c33e 1f67 fe3d 958a 32be 5c5c 95bc
00000160: ecca eabc cccc 2ebe c5bd 8bbe 01fb 2cbe
00000170: c687 87bd d06a 563e b09d b63e 41de fb3c
00000180: 8f75 9f3e fd8d 573e 3230 8b3a 3cfb 353e
00000190: 209d e9bd acac eb3d 9b10 653d f2d7 5cbe
000001a0: 38f5 543e b389 2b3e f50a 033e fb9d bdbd
000001b0: 2528 59be f0cd 36be 5fbb 603e e9d4 153e
000001c0: 033f 22bd e10a afbe adb3 dcbe 45b2 37be
000001d0: 682c a0be aea1 71be faa8 863e e58e 833e
000001e0: 0e9b a73e 252f 8ebe 09d6 f53c 5882 f0bc
000001f0: 1b5e fb3b 5c0b 80bd 272d 323e 95bc 07bd
00000200: ae04 ea3d 4f05 0cbe 58c0 573e bca0 e83d
00000210: 5287 1ebe 8c2d 1ebe fed9 8b3e bccf 543b
00000220: 7efa 7cbd b280 6b3e e7c1 923e 6316 6d3e
00000230: a41a 183d a4d4 ba3e ad84 9ebe 87c6 b93d
00000240: ce55 4bbe 49b3 c63d ff67 20be bf19 413e
00000250: ef66 e13e a76c 2b3e f112 403e 6690 013e
00000260: 7059 2d3c fc28 0dbf d4f4 b03e 8036 443d
00000270: 1e1f 0bbd 6252 e73d e860 02bf 5e4c 95be
00000280: b4df aa3d fa2b 33bd fcca 413e d22c c3bd
00000290: a233 413e 70ee d83c 920a 07bd 8aef c8bc
000002a0: 9347 a1be d3b0 0c3c 2b05 073e b941 ac3e
000002b0: dca1 71bd 87c7 80be 1024 6d3e b11d 2a3e
000002c0: 2146 b73d 0e90 e0be b622 c3be eadb 8e3a
000002d0: 0f49 e63d 09e9 c53e 93d0 013e 66fd 33be
000002e0: af42 dabe f3d1 81be a20e 683d 8d38 36be
000002f0: 68e7 4e3e c75a 963e ddce 2dbe f07d 763d
00000300: 3499 c33d afe3 193e 21a6 a03e 3de9 0f3e
00000310: aeb5 94be cd21 153e d95b 0d3e bf26 fb3d
00000320: a8b4 8c3e eb5a e13d c30d 02be ddff 9cbe
00000330: 4073 3a3e ca91 293e 8eb4 003d 80c6 53bd
00000340: 9e94 313c db25 acbe 745e c13c 60ca 7f3e
00000350: 506a 223c 08ba 5c3e 7b11 64bd 8c3b ff3d
00000360: 3809 043e 49b3 1e3e 47ac c83d d2b6 77bd
00000370: 0eca 7bbe 6a78 aebd 029c b13e 9cdb 4abe
00000380: 7ee5 793e eac0 9abe bf1a 033e 3f66 643e
00000390: bbfb 553e 514b d63d 2854 9abe 7343 433e
000003a0: 7a40 49be d336 b73e bcfe 553d 2d83 8d3c
000003b0: b80e 3b3e 4816 a6bd 945f 96be fef2 773e
000003c0: 672b fa3d 2d7a c83d 6861 babd 9a98 68be
000003d0: c288 d23c 91bf cbbd ce3f 0d3e 7090 07be
000003e0: 7816 42bc e6f8 9a3e c266 e7bc 45d7 af3e
000003f0: 5ac1 3f3d a097 06be a836 373e 29f7 973e
-0.24287483 -0.21375112 -0.18545476 0.116321616 0.12962838 -0.08017887 -0.122983664 -0.20683625
0.23969655 0.50009954 -0.00097446796 0.19483945 -0.12456344 -0.108701296 -0.012079881 -0.27401635
0.04553781 0.19108482 0.24407877 0.10815477 -0.098727226 -0.10041481 0.25928456 -0.108125485
0.21090591 -0.22015779 0.4404632 0.3326691 0.3088356 -0.2568834 0.20100908 0.22257867
-0.13468215 0.2028452 -0.17133701 -0.17927477 0.4271245 -0.14878483 0.038608562 0.11850612
-0.22527613 -0.22302856 -0.0009415878 -0.12963738 0.07675466 0.22646156 -0.35907686 0.12705702
0.13924153 0.14746077 -0.32487658 -0.22838981 -0.31107786 -0.2572795 -0.025555102 0.38946128
0.15963058 -0.08724761 -0.41610292 0.13966693 0.25975892 -0.22723053 0.026196579 0.09822516
0.23848754 -0.09533292 -0.011156209 -0.046650827 0.12899327 -0.20791714 0.19519202 -0.08999992
-0.25403276 -0.02746927 -0.4123985 0.015902463 0.2765306 -0.20801449 0.22512661 0.20086728
-0.03903698 -0.11035995 0.03313198 0.23484169 0.38093808 0.124220125 -0.17435677 -0.018232517
-0.028661214 -0.17070311 -0.2729322 -0.16892625 -0.066176936 0.20939183 0.3566718 0.030745627
0.31144378 0.21050258 0.0010619222 0.1777162 -0.11406922 0.11507544 0.05592404 -0.21566752
0.20796669 0.16751747 0.12797149 -0.09258648 -0.2120672 -0.17851996 0.21946476 0.14632
-0.039610874 -0.34187987 -0.43105832 -0.17939098 -0.3128388 -0.23596832 0.26300794 0.25694957
0.32735485 -0.27770343 0.030009286 -0.029359028 0.0076711304 -0.06252167 0.17400037 -0.03313883
0.11426674 -0.136739 0.21069467 0.11358783 -0.15481308 -0.15447062 0.27314752 0.0032472452
-0.061762325 0.22998312 0.2866356 0.23153071 0.03713478 0.36490357 -0.309606 0.09071069
-0.1985695 0.09702165 -0.15664671 0.18857478 0.44023845 0.16740666 0.18757226 0.1265274
0.010580406 -0.5514066 0.3456179 0.047903538 -0.033965223 0.1129501 -0.5092912 -0.29159826
0.08343449 -0.04374311 0.18925089 -0.09530033 0.18867353 0.026480883 -0.032969065 -0.024528284
-0.3149992 0.00858708 0.13185565 0.33643892 -0.05899225 -0.25152227 0.23158288 0.16612889
0.08948923 -0.43859905 -0.3811242 0.001089928 0.112444036 0.38654354 0.12677221 -0.17577133
-0.42629 -0.2535549 0.05665458 -0.1779501 0.20205462 0.29366133 -0.16973443 0.060178697
0.095507056 0.1502826 0.31376746 0.14053817 -0.2904486 0.14563675 0.13804568 0.122632496
0.2748158 0.11003669 -0.12700562 -0.30663958 0.18208027 0.1655952 0.03142219 -0.051702976
0.010838656 -0.3362263 0.02360461 0.24979544 0.009913042 0.2155534 -0.055680733 0.124625295
0.12894142 0.1549808 0.09798484 -0.060477085 -0.24588796 -0.08519061 0.34689337 -0.19810337
0.2440395 -0.30225307 0.12803172 0.22304629 0.20896809 0.10463584 -0.3014233 0.19068699
-0.19653502 0.35784015 0.052244887 0.017274464 0.18267334 -0.081097186 -0.29369795 0.24213788
0.122153096 0.09788928 -0.0910061 -0.22714463 0.025699977 -0.09948648 0.13793871 -0.13238692
-0.011846177 0.3026802 -0.02824724 0.34343925 0.046815254 -0.13143778 0.17891943 0.29680756

gnn1_embed.convs.2.bias f4 [40]
00000000: 2ff4 41bd a5e3 943c 68b6 383c 6949 fb3c
00000010: 2212 52bd f214 c73c 4b0c 493a ba90 893b
00000020: 9718 c33c 75a6 203e cb6d 0ebd 7ec8 243c
00000030: e0ee f3bc 8afb babd 969a 3e3c 82c8 cf3c
00000040: 5f61 d13c 4300 ef3c b3bc 84bd 0ed2 b8bc
00000050: 71c2 4bbd 0f3a a43d 0645 473d a675 b6bc
00000060: 9d5e 94bc 2143 06bd 90bf 1c3d 895d 4bbc
00000070: 62e3 8c3c 4c13 7abd 5b2d 5dbc c9b3 bcbc
00000080: e459 893c e311 9d3d f01a 2b3d 7306 513b
00000090: ad5f f33c ca65 47bc a439 243c dc19 18bd
-0.047352012 0.018174956 0.011273958 0.030674653 -0.051286824 0.02430198 0.00076693733 0.004198161
0.023815436 0.15688498 -0.034772675 0.010057567 -0.02977699 -0.091300085 0.011633536 0.025364164
0.025559125 0.02917493 -0.06481304 -0.0225611 -0.04974598 0.08018886 0.04864981 -0.022272896
-0.018111521 -0.032778863 0.038268626 -0.012412437 0.017198268 -0.06105356 -0.013499583 -0.023034947
0.016766496 0.07669427 0.041773736 0.0031894713 0.029708708 -0.0121702645 0.010023508 -0.037134036
